candidate_networks/inet6_9.pt (torch, 41295 bytes, 14 tensors)

c1.weight f4 [16, 1, 3, 3]
0	0xc1bf0a70	-23.880096
1	0xc2427a11	-48.619205
2	0xc19ce5b2	-19.612156
3	0x41b3d7ad	22.48031
4	0xc0a7f7a3	-5.248979
5	0xc0962919	-4.692517
6	0x4188a4cc	17.080467
7	0x4131f5b9	11.122491
8	0xc1dc367a	-27.5266
9	0xc02ecfa5	-2.7314236
10	0x4109a274	8.602161
11	0xbfca97a8	-1.5827532
12	0x4157f5ba	13.497492
13	0xc19f39f5	-19.9033
14	0xc11c6f86	-9.777227
15	0x41804fba	16.038929
16	0xc12af57d	-10.684934
17	0x4161bc38	14.108452
18	0xc10b1c45	-8.694402
19	0x41c0e9fe	24.114254
20	0xc0ef9e60	-7.488083
21	0x41b529fb	22.645498
22	0xbe9862cb	-0.29762873
23	0x4202372b	32.553875
24	0xc1971ee3	-18.890081
25	0x41d83a68	27.028519
26	0xbcc2b8c0	-0.023769736
27	0xc0eb6d8d	-7.357123
28	0xc252a47e	-52.660637
29	0xc0e02514	-7.004526
30	0xc089cb4a	-4.3060656
31	0x419d3653	19.651525
32	0xc1c173f8	-24.181625
33	0x414e478b	12.892467
34	0xc1e486e3	-28.565863
35	0xc0838b32	-4.1107416
36	0xc0cd26e7	-6.410999
37	0xc105108e	-8.316542
38	0xc16ef63a	-14.935114
39	0xc0e216e1	-7.065293
40	0xc1c356f3	-24.417456
41	0xc1bbf3fb	-23.494131
42	0xc1945448	-18.541153
43	0xc08c7935	-4.389796
44	0xc109caff	-8.61206
45	0xc1939e59	-18.452318
46	0x3e8a0a6b	0.26961073
47	0xbfc62388	-1.5479593
48	0xc1946e06	-18.553722
49	0xc1afdf3a	-21.983997
50	0xc041e68e	-3.029697
51	0xc198ee7a	-19.116444
52	0xc1af54a0	-21.91632
53	0xc147aad1	-12.479203
54	0x4083d5cc	4.1198483
55	0xc0552be8	-3.3308048
56	0xc0c0f42f	-6.0298076
57	0x4092587d	4.573302
58	0xbf2b6654	-0.66953015
59	0xc1d40409	-26.50197
60	0x406c5cb4	3.6931581
61	0xc1afca62	-21.97382
62	0xbe898ed0	-0.2686677
63	0x41552833	13.322314
64	0xc0cbcb18	-6.3685417
65	0x404dc3f1	3.2150843
66	0xc1210f99	-10.066308
67	0x3f8b9522	1.0904887
68	0xc1872235	-16.891703
69	0x41ab2846	21.394665
70	0xc115adc7	-9.354926
71	0x41c96f6f	25.17941
72	0xc0959af6	-4.675166
73	0x412e90d1	10.910356
74	0x41902c2c	18.021568
75	0x419f7616	19.93266
76	0x41fbbc09	31.466814
77	0xc1d42979	-26.52025
78	0x409bc3fa	4.867673
79	0x40a2c5a6	5.086627
80	0x41a7f278	20.993393
81	0xc1279e74	-10.476185
82	0x40f7b97b	7.7413917
83	0x4112c919	9.174096
84	0x4156a5b6	13.415457
85	0x4192b3d6	18.33781
86	0xc0e34397	-7.1020007
87	0x420f3ec3	35.81129
88	0x3fe164d4	1.7608895
89	0x4029c48c	2.6526213
90	0xc199c9fd	-19.223627
91	0x418e08ab	17.754232
92	0xbef56bf0	-0.47933912
93	0x4197bd42	18.967411
94	0xc04bc106	-3.1836562
95	0xbf45a736	-0.7720827
96	0x4121f73a	10.122858
97	0x41748bad	15.284101
98	0x4167b8c6	14.482611
99	0x41760393	15.375873
100	0x410aba33	8.670459
101	0xc11288e9	-9.158425
102	0x41c0e2d9	24.110765
103	0x407d3d57	3.956869
104	0xc11361f6	-9.211416
105	0xc1baf30a	-23.368671
106	0x41a62590	20.768341
107	0x4087b1b9	4.2404447
108	0xc085dcc3	-4.1831985
109	0xc14a11c0	-12.6293335
110	0x3eb01c4c	0.3439659
111	0x41ae82e5	21.813913
112	0x4174e3ac	15.305584
113	0x41c381d9	24.438402
114	0x41affd72	21.998753
115	0x4044e975	3.076749
116	0xc17bff6f	-15.749862
117	0x4090d9e5	4.5265985
118	0x3f5969e2	0.8492719
119	0xc18d5197	-17.664839
120	0xc10b19b3	-8.693774
121	0xc226c53f	-41.692623
122	0xc1d2633e	-26.298458
123	0xc13cc6d2	-11.79854
124	0xc0c3f5f5	-6.123774
125	0x40dcb4d6	6.8970747
126	0xc1a673d5	-20.806559
127	0x4189cdc5	17.225473
128	0xc128b538	-10.544243
129	0x41f63b49	30.778948
130	0xc156c712	-13.423601
131	0x4058e551	3.3889964
132	0xc1ade252	-21.735508
133	0xbf0b3fbf	-0.54394144
134	0xbf1e8d81	-0.6193467
135	0xc0f8e169	-7.777516
136	0xc1fa22df	-31.267027
137	0x40db3ca9	6.851155
138	0xc0879e4c	-4.2380733
139	0x41a4de95	20.608683
140	0x3ecb7cf1	0.3974376
141	0xc16b68d3	-14.713092
142	0xc206fd55	-33.747395
143	0x40e4d104	7.1505146

c1.bias f4 [16]
0	0x415ab8d6	13.670126
1	0x425ac1dd	54.68932
2	0xc07eeaca	-3.9830804
3	0x41a44da2	20.537907
4	0xc11bd7af	-9.740157
5	0x4137bef6	11.484121
6	0x4198e558	19.111984
7	0xc1b0ac89	-22.084246
8	0xc18b8088	-17.43776
9	0x401e9d09	2.4783347
10	0xc1f44232	-30.532322
11	0xc1c6133c	-24.759392
12	0xc024ba70	-2.5738792
13	0x3e152834	0.14566118
14	0xc17c01cb	-15.750438
15	0xc11f81a5	-9.9691515

c2.weight f4 [32, 16, 3, 3]
0	0x405a8580	3.4143982
1	0xc154183c	-13.255917
2	0xc1015177	-8.082389
3	0x40702b08	3.7526264
4	0xc20b327e	-34.79931
5	0xc1074157	-8.453452
6	0xc202fdb5	-32.74776
7	0x40e21645	7.0652184
8	0x41286c6f	10.526473
9	0xc109d345	-8.614079
10	0xc0c4ab62	-6.1459208
11	0x424489b2	49.134468
12	0xc1ab7580	-21.432373
13	0x412895b5	10.53655
14	0xc24921c7	-50.282986
15	0xc13118e7	-11.06858
16	0xc1fa1b29	-31.263262
17	0xc165be76	-14.358999
18	0xc191b369	-18.212603
19	0xc184cf23	-16.601141
20	0xc19caa7d	-19.583246
21	0xc1435362	-12.207857
22	0x40bd27aa	5.911092
23	0xc0d22693	-6.567209
24	0xc2174b6e	-37.82366
25	0x3f6365f7	0.8882746
26	0xc19bd8e2	-19.4809
27	0xc077aeb0	-3.870037
28	0xc12b0dae	-10.69084
29	0x416496ad	14.286786
30	0xc164235c	-14.258633
31	0x4124ab75	10.29186
32	0xc043c9d0	-3.0591927
33	0xc0a15384	-5.041445
34	0x41e3eb54	28.489906
35	0x42207ae5	40.120014
36	0xc097dcac	-4.7456875
37	0x41018d64	8.097019
38	0x40f18e9d	7.548659
39	0xc0915874	-4.5420475
40	0xc10b787d	-8.716916
41	0x41af0b45	21.880503
42	0xc0471a75	-3.1109898
43	0xc1e93b07	-29.153822
44	0xc139310e	-11.574476
45	0xc18c7a69	-17.55977
46	0xbf2cdf3a	-0.67528117
47	0xc0b2da14	-5.589121
48	0xc123f5b0	-10.247482
49	0xc1b79db2	-22.952
50	0xc1ad4a57	-21.661299
51	0x3ffbb57d	1.9664761
52	0xc14b2cab	-12.698405
53	0x41976bd5	18.927652
54	0x41dcf500	27.619629
55	0x41805adc	16.044365
56	0xc19dea9e	-19.73956
57	0xc2627c2f	-56.621273
58	0xc1b3aa6e	-22.458218
59	0xc1894d97	-17.162886
60	0xc0f88eab	-7.7674155
61	0xc1341f4a	-11.257639
62	0xc0e89536	-7.268214
63	0x415d10a6	13.816565
64	0x4138ebbc	11.557552
65	0xc19d8aab	-19.692709
66	0xc01291d8	-2.2901516
67	0x415b2efc	13.698971
68	0x3e8f0d99	0.27940062
69	0xc1a657fe	-20.792965
70	0xc14c7657	-12.778892
71	0xc0b2ea58	-5.5911064
72	0xc04e8bfa	-3.2272935
73	0x3fe52ac8	1.7903681
74	0x4140f515	12.0598345
75	0x418b344a	17.400532
76	0xbfd88698	-1.6916075
77	0x409a6280	4.824524
78	0x41dd7e47	27.686659
79	0xc13d4098	-11.82827
80	0x41a26f47	20.304335
81	0x41c66ac8	24.80214
82	0xc14c0e35	-12.7534685
83	0xc1504360	-13.016449
84	0xc0b1461d	-5.5398088
85	0x41a125d0	20.143463
86	0xc11dfdeb	-9.874492
87	0xc0c1018c	-6.031439
88	0x41736cfb	15.214107
89	0xc134b7d8	-11.294884
90	0x3e2ff954	0.17184955
91	0x41bf9130	23.945892
92	0xc0076b8a	-2.1159387
93	0xc1226807	-10.150397
94	0xc0b7c5df	-5.742904
95	0xc0ea1246	-7.3147306
96	0xc107e385	-8.493047
97	0xc18e83f9	-17.81444
98	0xc16cac97	-14.792136
99	0xc0d7e448	-6.7466164
100	0xc18380c3	-16.437872
101	0x420e958f	35.646053
102	0x40b3bbd4	5.616678
103	0xc1842e4c	-16.522606
104	0x409edfac	4.9648037
105	0xc1b194f5	-22.197733
106	0xc105cac4	-8.362003
107	0xc18f187b	-17.886953
108	0x41192f80	9.574097
109	0x41d52b8c	26.646263
110	0x41bf56fc	23.917473
111	0x40cb9196	6.3615217
112	0xc19a65f3	-19.29978
113	0x40bd88fa	5.922971
114	0x42181f8d	38.03081
115	0x40b6f675	5.717585
116	0x4211c43c	36.441635
117	0xc1047c69	-8.280374
118	0xc16af987	-14.68592
119	0x4145b2bf	12.356139
120	0xc1441998	-12.256248
121	0xc1074fc8	-8.456978
122	0x412f1461	10.942475
123	0x3f6fb4e1	0.93635374
124	0xc145be4d	-12.35896
125	0x4108fc36	8.561575
126	0x414d58e7	12.834205
127	0xc1cb41a0	-25.407043
128	0x418d8380	17.689209
129	0xc180370a	-16.026875
130	0x41d70b48	26.880508
131	0xc115900e	-9.34767
132	0x40a46bcc	5.138159
133	0x415e7ae3	13.905002
134	0xc18eec60	-17.865417
135	0xc1c327f8	-24.394516
136	0xc01c94ee	-2.44659
137	0x40dd33f2	6.912591
138	0x40865ffe	4.199218
139	0x41b31a81	22.387941
140	0x40fcb27e	7.8967886
141	0xbf5b8580	-0.8575058
142	0xc12a6b1b	-10.651149
143	0xc1fc072e	-31.503506
144	0x41828302	16.313969
145	0x40a3b580	5.115906
146	0x40f09a5e	7.5188437
147	0xc073216f	-3.7989156
148	0x409f95eb	4.9870505
149	0xc1c8b162	-25.086613
150	0xc152dc87	-13.17884
151	0xc16e1910	-14.881119
152	0xc192eac6	-18.364635
153	0xc142a3e7	-12.165015
154	0xbf3cbaf9	-0.737228
155	0xbf386cca	-0.72041
156	0x4184691e	16.551327
157	0x410aa652	8.665606
158	0x41c74bd9	24.912035
159	0xbd58486e	-0.05280345
160	0x41f87670	31.05783
161	0x41db8a2c	27.442467
162	0xc0e084dd	-7.0162187
163	0x40ef1921	7.4718175
164	0xc11da06d	-9.851666
165	0x41c82183	25.016363
166	0xc0bc2974	-5.88006
167	0x411e54c3	9.895694
168	0x41dd8783	27.691168
169	0xc168c939	-14.549127
170	0x405ca24c	3.4474058
171	0xc11029f2	-9.010241
172	0xc1fbb6aa	-31.464191
173	0x4081f750	4.0614395
174	0x41c06685	24.050058
175	0xbf654119	-0.89552456
176	0x4169ef7a	14.620966
177	0xc1ab8469	-21.439653
178	0xc1566b03	-13.401126
179	0x40c4fde8	6.1559944
180	0x40f0b1c8	7.521702
181	0x4157930c	13.4734
182	0x4195543c	18.66613
183	0x416e3622	14.888216
184	0x410e8f04	8.909916
185	0x411cc36c	9.79771
186	0xbfbb11e2	-1.4614832
187	0x40d690fa	6.7051973
188	0x41a1f6cb	20.245504
189	0x4189d8f5	17.230936
190	0x4232f666	44.740623
191	0x4070db86	3.7633986
192	0x419bb3a8	19.462723
193	0x417f28eb	15.94749
194	0xc10d5209	-8.832528
195	0xbda1036e	-0.07861982
196	0x40fa6a03	7.825441
197	0xbff2bee6	-1.8964508
198	0xc2001a3c	-32.02562
199	0x420cdc39	35.21506
200	0x41b4e0e8	22.609818
201	0x4193e751	18.487947
202	0xc0967b9f	-4.7025905
203	0xc17bfbb3	-15.74895
204	0xc12a9845	-10.662175
205	0xc194d1bb	-18.602407
206	0xc0fe5262	-7.9475565
207	0x41115fe0	9.085907
208	0x418df21a	17.743214
209	0x41e26226	28.297924
210	0xc19d16c6	-19.63612
211	0x4152dbe5	13.178685
212	0x41babb9e	23.34161
213	0x3f554efb	0.8332364
214	0xc23a64a1	-46.59827
215	0xc1121911	-9.13112
216	0xc183eccd	-16.490625
217	0xc16de4ea	-14.868387
218	0x3f4fb4d2	0.81135285
219	0xc085affa	-4.1777315
220	0xbf54524d	-0.8293808
221	0xc21b0245	-38.752216
222	0x4146bcc8	12.421089
223	0x423b3a4a	46.806923
224	0xc0f052aa	-7.510091
225	0xc1b1ef99	-22.241991
226	0xc107a379	-8.47741
227	0x41a6664c	20.79995
228	0x3f40f4e8	0.753737
229	0x409b5e34	4.8552494
230	0x42216df5	40.35738
231	0xc0d9f0b2	-6.8106318
232	0xc01fdcd7	-2.497854
233	0xc217356d	-37.802174
234	0xc1813dd4	-16.15519
235	0xc0fb4a9c	-7.8528576
236	0xc13870e6	-11.527563
237	0x41875505	16.916513
238	0x41760496	15.37612
239	0xc1b7da60	-22.981628
240	0xc04583dd	-3.0861733
241	0xc0862004	-4.191408
242	0xc10542a6	-8.328772
243	0x420cc1e5	35.18935
244	0xc11c22ae	-9.758467
245	0x3fe464de	1.7843282
246	0xc0f6b930	-7.710106
247	0xc1ddbc54	-27.716957
248	0x420106dd	32.256702
249	0xc144c426	-12.297888
250	0xc149a102	-12.601809
251	0xc112e5a2	-9.181063
252	0xc0857971	-4.1710744
253	0xc1bc43aa	-23.53304
254	0xc07bd3ba	-3.9347978
255	0xc1212c02	-10.073244

c2.bias f4 [32]
0	0x409975d4	4.7956333
1	0x406fca34	3.7467165
2	0x3f936391	1.151476
3	0xc082a780	-4.082947
4	0xc11d72f4	-9.840565
5	0x406b47b3	3.6762512
6	0x412a4760	10.642426
7	0xc0cea7bc	-6.4579754
8	0xc119b936	-9.6077175
9	0x3fb5b580	1.4196014
10	0xc1850d09	-16.631365
11	0xc1a2998e	-20.324978
12	0x40de77e6	6.952136
13	0xc1f27278	-30.305893
14	0xc228571e	-42.085075
15	0xc0287c0a	-2.6325707
16	0xc21cfa29	-39.244297
17	0x3fd2929f	1.6450995
18	0x41f3003a	30.37511
19	0x41b0cb13	22.099157
20	0x41c82e66	25.022655
21	0x41ae5d1e	21.795467
22	0xc20725e9	-33.78702
23	0xc1000a6a	-8.0025425
24	0xc03dca9a	-2.9654908
25	0x3f7b582f	0.9818143
26	0xc0cbc1c8	-6.367405
27	0x4117948d	9.473767
28	0x4057d873	3.372586
29	0x41be826a	23.813679
30	0x41b963fe	23.173824
31	0xc0ca95b9	-6.3307767

d1.weight f4 [16, 32, 3, 3]
0	0xc1872223	-16.891668
1	0x4105c6cd	8.361035
2	0x41fa6978	31.301498
3	0xc035572a	-2.833445
4	0x4196513a	18.789661
5	0xc1670be2	-14.440401
6	0xc113841b	-9.219752
7	0x4129721f	10.590362
8	0x411906d4	9.564167
9	0xc1acb50b	-21.5884
10	0xbfa050b6	-1.2524631
11	0xc1531f9b	-13.195216
12	0xc13d56f2	-11.833727
13	0xc1c37d0a	-24.436054
14	0x4204581d	33.08605
15	0x41f70542	30.877567
16	0x421234b6	36.551476
17	0x41555c42	13.335024
18	0x40fa4473	7.8208556
19	0x41f5815b	30.688162
20	0x4189cbd9	17.224535
21	0x40d99bfa	6.80029
22	0xc206a092	-33.656807
23	0x41161643	9.380435
24	0xc1d7b41e	-26.962948
25	0x412468ae	10.275557
26	0xc136094a	-11.377268
27	0x41610834	14.064503
28	0x41aa1bf8	21.263657
29	0x40903f83	4.507753
30	0x40ed87b7	7.4228168
31	0xbf6dca55	-0.9288686
32	0xc0fe0a75	-7.9387765
33	0x41202c2b	10.010783
34	0x3fd72bed	1.681028
35	0xc17b54a2	-15.708162
36	0xc035451a	-2.8323426
37	0x40b239a4	5.569536
38	0x3fda6104	1.7060857
39	0x408f7431	4.4829335
40	0x4206944c	33.64482
41	0xc14e1931	-12.88115
42	0xc1652cda	-14.32345
43	0xc0d236c3	-6.569185
44	0x4189c9b8	17.223495
45	0x3f02b752	0.51060975
46	0xc20a530c	-34.5811
47	0x41cb1534	25.385353
48	0x418b888f	17.441679
49	0xbefb5d09	-0.49094418
50	0xbf30466c	-0.68857455
51	0x419dd64e	19.729641
52	0x41c235e7	24.27632
53	0xc152f582	-13.184938
54	0x41596f5e	13.589689
55	0xbf6eeb94	-0.93328214
56	0xc0cf4f44	-6.478426
57	0x40807ff2	4.0156183
58	0xc1e5a1df	-28.704039
59	0xc08dfffd	-4.4374986
60	0xc184c98a	-16.598408
61	0xc19eb2ff	-19.8374
62	0x4120f39c	10.059475
63	0xc18baa31	-17.458101
64	0x4078dda7	3.8885286
65	0x415fc156	13.984701
66	0xc1ac712b	-21.555258
67	0xc1c97b13	-25.185095
68	0x4183ae4e	16.46011
69	0x413cd6c9	11.802438
70	0xc1abec48	-21.490372
71	0x3f35f84c	0.71081996
72	0x403f0373	2.9845855
73	0xc18962c7	-17.173231
74	0x3fb3e51e	1.4054296
75	0xc0c0546f	-6.010307
76	0xc1e44102	-28.531742
77	0x41cf9a5e	25.950375
78	0xc1203a3b	-10.014216
79	0x41947b54	18.560219
80	0xc1f48c61	-30.568544
81	0xc0a6068e	-5.1883
82	0xc049be70	-3.1522484
83	0xc12fcb21	-10.987092
84	0x4196b41c	18.837944
85	0x3f93a02e	1.1533258
86	0xc06d7737	-3.7104013
87	0xbfeda270	-1.8565197
88	0xc1a4eb18	-20.614792
89	0x3e642a8b	0.22281854
90	0xc08da4c7	-4.4263644
91	0x41bdf4c5	23.744516
92	0x40d339b8	6.6007957
93	0x41fdb642	31.713993
94	0xc17c7fb0	-15.781174
95	0xc166065f	-14.376555
96	0xc1330e4d	-11.190991
97	0xc14bd25c	-12.738857
98	0xc1c81679	-25.010973
99	0xc0a9ebf0	-5.310051
100	0x41c6fe4a	24.874165
101	0x40b47229	5.6389356
102	0x40870a65	4.220019
103	0x42041d39	33.028538
104	0xc05ab8a8	-3.4175205
105	0x41b178dc	22.184013
106	0xc022d4f2	-2.5442472
107	0xc178e756	-15.5564785
108	0xc238d523	-46.20814
109	0x4136290b	11.38502
110	0x41af8e0d	21.94436
111	0x40b4c849	5.649449
112	0xbebeb943	-0.37250718
113	0x41ab6179	21.422594
114	0xc1988903	-19.0669
115	0x41974b05	18.91163
116	0x413b3e66	11.702734
117	0x414be610	12.743668
118	0x408397d6	4.1122847
119	0xc1003e71	-8.0152445
120	0x41a3483d	20.410273
121	0x4127efb7	10.496024
122	0xc1befd0c	-23.873558
123	0x41954cea	18.662556
124	0xc157ea91	-13.494767
125	0x41b9da6b	23.23165
126	0xc07570d4	-3.8350115
127	0xc21245f1	-36.568302
128	0xc1bd3004	-23.648445
129	0x41f1b820	30.214905
130	0x4153ed5c	13.245449
131	0x4195f46e	18.74435
132	0x417f6c8c	15.964001
133	0xc1882cef	-17.02194
134	0x414d0cfd	12.815671
135	0xc0a3976e	-5.112235
136	0xc18ff69b	-17.995413
137	0xc1900d30	-18.00644
138	0x40f403c5	7.62546
139	0x3f90b675	1.1305681
140	0xc033c391	-2.8088114
141	0xc21fd74f	-39.960262
142	0x3fa408b4	1.2815156
143	0xc1f3a0d8	-30.453537
144	0x3fbc5328	1.4712877
145	0xc1365ae6	-11.397192
146	0xc0a30fb4	-5.095667
147	0x4042dca3	3.0447166
148	0xc1110170	-9.062851
149	0xc17e4fe3	-15.894504
150	0xc1e6192a	-28.762287
151	0xbf5313f2	-0.8245231
152	0x41cf19d6	25.887615
153	0x41bc5897	23.543257
154	0x41962365	18.767282
155	0x41d8bbaf	27.091642
156	0x3ff6f8ee	1.9294717
157	0x41f95737	31.167585
158	0x41967774	18.808327
159	0x41c86039	25.046984
160	0x403edf29	2.9823706
161	0xc0635cd6	-3.5525413
162	0xc17c83e0	-15.782196
163	0x411ca4a6	9.790197
164	0x410d8c38	8.846733
165	0x4112803a	9.156305
166	0x40697357	3.6476648
167	0x41a92091	21.140902
168	0x40ed0466	7.406787
169	0xc087fe0a	-4.2497606
170	0xc0d4eb28	-6.6537056
171	0xc1508a71	-13.033799
172	0x411c21a1	9.75821
173	0xc124cb50	-10.299637
174	0x41892180	17.141357
175	0xc098c2dd	-4.773787
176	0x4194ecff	18.61572
177	0x41522327	13.133582
178	0x4174592d	15.271771
179	0xc0704d1d	-3.7547066
180	0xc1da9369	-27.321978
181	0x414a0397	12.625876
182	0x3f8e563e	1.1120069
183	0x3faf7a0e	1.3709123
184	0x40e86aa1	7.263016
185	0xc1be8f9e	-23.820126
186	0x4035bec8	2.8397694
187	0xc15b4902	-13.705324
188	0x41895efa	17.171375
189	0xc12f1ad0	-10.944046
190	0x41159182	9.348024
191	0xc1319a94	-11.100239
192	0xc1fff38c	-31.99392
193	0xc219adff	-38.419918
194	0xc11cf780	-9.810425
195	0x41b237a5	22.27717
196	0xc012db74	-2.2946444
197	0x41dccc3e	27.599728
198	0x41c0dac8	24.106827
199	0x409ec0f5	4.9610543
200	0xbf75f9ba	-0.9608418
201	0xc10e52a3	-8.895175
202	0x40aad292	5.3382044
203	0xc21c2b12	-39.04206
204	0xc192fda2	-18.373844
205	0xc1f20817	-30.25395
206	0xc0df7bd6	-6.9838667
207	0x4175446a	15.329203
208	0xc017b5bd	-2.3704674
209	0xc180e832	-16.113377
210	0xc11a1345	-9.629704
211	0x418febe7	17.990187
212	0xc1b1e7eb	-22.238241
213	0x415751af	13.457442
214	0x3f5b053c	0.8555486
215	0x419c79bf	19.559446
216	0xbeb5b716	-0.35491246
217	0x41b4ca8d	22.598902
218	0x4109e3f8	8.618156
219	0x40752bff	3.8308103
220	0x4192caed	18.349085
221	0xbfbb1c69	-1.4618045
222	0xc1606e0d	-14.026868
223	0x3f8f247b	1.1183008
224	0xc1257026	-10.33988
225	0xc1f5ea55	-30.73942
226	0xc03cbb35	-2.9489262
227	0x3ed627c0	0.41827202
228	0xc2244e60	-41.076538
229	0xc04df3f6	-3.2180152
230	0x419bca20	19.473694
231	0xc145d7dd	-12.365201
232	0xc19cfa64	-19.622261
233	0x4133ee0e	11.245619
234	0xc1141fb1	-9.257737
235	0x416f04ca	14.938669
236	0x4162bbb6	14.170828
237	0x3f2c3000	0.6726074
238	0x412fd501	10.989503
239	0x413a826e	11.656843
240	0xc15be26f	-13.742782
241	0x40d549ee	6.6652746
242	0xc1882aa2	-17.020817
243	0x40ffed0d	7.997687
244	0x4178795c	15.529629
245	0x4138e77e	11.556517
246	0xc1c589a3	-24.692205
247	0x3f8327a0	1.0246468
248	0x40302e21	2.7528155
249	0xc1cbb37b	-25.462637
250	0x419f7af8	19.935043
251	0xc16dcdb5	-14.862721
252	0x4104f1fe	8.30908
253	0x40bd5265	5.916308
254	0x412daa16	10.854025
255	0xc10a3239	-8.637261

d1.bias f4 [16]
0	0x401c2265	2.4395993
1	0x3f719651	0.9436999
2	0xbf857561	-1.0426446
3	0xc081efcb	-4.0605216
4	0xc1fd4026	-31.656322
5	0x3fcacbcc	1.5843444
6	0x3f39b4a4	0.7254126
7	0xc1c61922	-24.762272
8	0x417b2cde	15.698454
9	0xc1f6d382	-30.853275
10	0xc14a76f8	-12.654045
11	0xc13822a9	-11.508462
12	0xc1a348ce	-20.41055
13	0x3f438423	0.763735
14	0x3f943f25	1.158177
15	0xc1769c45	-15.413152

d2.weight f4 [1, 16, 3, 3]
0	0xc1556077	-13.336051
1	0xc1b964f4	-23.174294
2	0x41893045	17.14857
3	0x40c719ac	6.221884
4	0xc13ab846	-11.669989
5	0xc0b96cbd	-5.7945237
6	0xc139b599	-11.606835
7	0xc19f495e	-19.910824
8	0x3f6d4102	0.9267732
9	0xc12cf136	-10.808889
10	0x41ea9625	29.323313
11	0xc0a4e1ad	-5.1525483
12	0x41cd21dd	25.641535
13	0xc0b279b4	-5.5773563
14	0x4120f750	10.060379
15	0x40cbebab	6.372518
16	0x3f876859	1.0578719
17	0xc207ef6e	-33.983818
18	0x40444657	3.0667932
19	0x3c759cc8	0.014990993
20	0xc1841b56	-16.513348
21	0x4115ade2	9.354952
22	0xc15c0e4e	-13.753492
23	0x41b1a54e	22.205715
24	0xc19c2ceb	-19.521933
25	0xc1870b3d	-16.880487
26	0xc0f97e0d	-7.796637
27	0xc19f5e1e	-19.920956
28	0xc124c561	-10.298188
29	0xc1b7fb42	-22.997684
30	0x3f48e1fa	0.7846981
31	0xc1c968ce	-25.176174
32	0xc1bd51ae	-23.664883
33	0x3d91723c	0.071018666
34	0x416b224b	14.695872
35	0xc1d53bf5	-26.654276
36	0x403edc67	2.9822023
37	0xc211e6e2	-36.47547
38	0xc006a6e3	-2.103936
39	0xc1f2d38e	-30.353298
40	0xc08dcb31	-4.4310536
41	0xc1a37bf5	-20.435526
42	0xc11a070b	-9.626719
43	0xc2213ff4	-40.312454
44	0x41a347ad	20.409998
45	0x3fc58fdf	1.5434531
46	0xc025e78c	-2.5922575
47	0x40ec561e	7.3855124
48	0xc1834257	-16.407393
49	0x4097ebc8	4.747532
50	0xc15bf285	-13.746709
51	0xbf4e0a8f	-0.8048486
52	0x409670b1	4.7012563
53	0xc1c62b89	-24.771257
54	0xc0a3d7eb	-5.120107
55	0xc0da8a47	-6.8293796
56	0xc13b8725	-11.720494
57	0xc173b2e9	-15.231179
58	0x418781fe	16.938473
59	0xc0831ce3	-4.097276
60	0x41a3dc22	20.482487
61	0x410102ee	8.063215
62	0xc1998a02	-19.192387
63	0xc0492020	-3.1425858
64	0x4184e666	16.6125
65	0xc160a78d	-14.040906
66	0x4104dc05	8.303716
67	0xc1e21de4	-28.264595
68	0x407e381a	3.9721742
69	0x3ee66aa1	0.45003226
70	0x40d9ab04	6.802126
71	0xc14efab1	-12.936204
72	0xc098b1de	-4.7717123
73	0xc1dce31e	-27.610897
74	0x4086a486	4.2075834
75	0xc0a48d74	-5.142267
76	0xc16c1a82	-14.756472
77	0xc14e7f77	-12.906119
78	0x415c3774	13.763538
79	0xc16b7a98	-14.71743
80	0x41a1658c	20.174583
81	0xc1b4fa00	-22.62207
82	0xc11b4d40	-9.70636
83	0x41746472	15.274523
84	0xc1aa669d	-21.300104
85	0xc1e83a41	-29.028444
86	0xc142be6c	-12.17149
87	0xbedd083c	-0.43170345
88	0xc17f8d49	-15.971993
89	0xc1a641c9	-20.782122
90	0xbf28a07b	-0.65869874
91	0xc0f8f60d	-7.7800355
92	0x420d0626	35.256004
93	0x41028911	8.1584635
94	0x418352a1	16.415346
95	0xc0eb789b	-7.3584723
96	0x4128a381	10.539918
97	0xc19520db	-18.641043
98	0x3eb15f71	0.3464313
99	0xbfc9a17b	-1.5752405
100	0x4026bb91	2.6051981
101	0xc05ed99b	-3.4820316
102	0xc07cf2be	-3.9523158
103	0xc0ce2e57	-6.4431567
104	0xc08c1575	-4.3776193
105	0xc12cd954	-10.803059
106	0x40ec8e86	7.392398
107	0xc1c8138c	-25.009544
108	0xbea04162	-0.31299883
109	0xc0cd89f8	-6.423092
110	0xc159fcee	-13.62425
111	0xc132f416	-11.184591
112	0xc1eaa5be	-29.330929
113	0x40fcb9f8	7.8977013
114	0xc1f8d056	-31.101727
115	0xc03db1e7	-2.9639833
116	0xc187de05	-16.983408
117	0x40fae863	7.8408675
118	0xc0ae0b9c	-5.438917
119	0x41ad929f	21.696592
120	0xc1e5df2b	-28.733969
121	0x40cb4b7d	6.352965
122	0xc23691d6	-45.642418
123	0x41bb73a4	23.431465
124	0xc19f059d	-19.87774
125	0x4185f806	16.746105
126	0x4127f773	10.497912
127	0xc037b8e8	-2.8706608
128	0xc0e1d157	-7.056804
129	0x41372173	11.445666
130	0xc1707e64	-15.030857
131	0xc0be9844	-5.956087
132	0x41b7b750	22.964508
133	0x40a8d5e8	5.2761116
134	0xc1556110	-13.336197
135	0x41b67dda	22.811451
136	0xc1a86a7d	-21.051996
137	0x42041b64	33.02675
138	0xc1975be8	-18.919876
139	0x41965859	18.793139
140	0xc0c6ee07	-6.216556
141	0xc009be4e	-2.1522403
142	0x4152d60d	13.1772585
143	0x420f1457	35.769863

encoder.0.weight f4 [16, 1, 3, 3]
0	0xc1bf0a70	-23.880096
1	0xc2427a11	-48.619205
2	0xc19ce5b2	-19.612156
3	0x41b3d7ad	22.48031
4	0xc0a7f7a3	-5.248979
5	0xc0962919	-4.692517
6	0x4188a4cc	17.080467
7	0x4131f5b9	11.122491
8	0xc1dc367a	-27.5266
9	0xc02ecfa5	-2.7314236
10	0x4109a274	8.602161
11	0xbfca97a8	-1.5827532
12	0x4157f5ba	13.497492
13	0xc19f39f5	-19.9033
14	0xc11c6f86	-9.777227
15	0x41804fba	16.038929
16	0xc12af57d	-10.684934
17	0x4161bc38	14.108452
18	0xc10b1c45	-8.694402
19	0x41c0e9fe	24.114254
20	0xc0ef9e60	-7.488083
21	0x41b529fb	22.645498
22	0xbe9862cb	-0.29762873
23	0x4202372b	32.553875
24	0xc1971ee3	-18.890081
25	0x41d83a68	27.028519
26	0xbcc2b8c0	-0.023769736
27	0xc0eb6d8d	-7.357123
28	0xc252a47e	-52.660637
29	0xc0e02514	-7.004526
30	0xc089cb4a	-4.3060656
31	0x419d3653	19.651525
32	0xc1c173f8	-24.181625
33	0x414e478b	12.892467
34	0xc1e486e3	-28.565863
35	0xc0838b32	-4.1107416
36	0xc0cd26e7	-6.410999
37	0xc105108e	-8.316542
38	0xc16ef63a	-14.935114
39	0xc0e216e1	-7.065293
40	0xc1c356f3	-24.417456
41	0xc1bbf3fb	-23.494131
42	0xc1945448	-18.541153
43	0xc08c7935	-4.389796
44	0xc109caff	-8.61206
45	0xc1939e59	-18.452318
46	0x3e8a0a6b	0.26961073
47	0xbfc62388	-1.5479593
48	0xc1946e06	-18.553722
49	0xc1afdf3a	-21.983997
50	0xc041e68e	-3.029697
51	0xc198ee7a	-19.116444
52	0xc1af54a0	-21.91632
53	0xc147aad1	-12.479203
54	0x4083d5cc	4.1198483
55	0xc0552be8	-3.3308048
56	0xc0c0f42f	-6.0298076
57	0x4092587d	4.573302
58	0xbf2b6654	-0.66953015
59	0xc1d40409	-26.50197
60	0x406c5cb4	3.6931581
61	0xc1afca62	-21.97382
62	0xbe898ed0	-0.2686677
63	0x41552833	13.322314
64	0xc0cbcb18	-6.3685417
65	0x404dc3f1	3.2150843
66	0xc1210f99	-10.066308
67	0x3f8b9522	1.0904887
68	0xc1872235	-16.891703
69	0x41ab2846	21.394665
70	0xc115adc7	-9.354926
71	0x41c96f6f	25.17941
72	0xc0959af6	-4.675166
73	0x412e90d1	10.910356
74	0x41902c2c	18.021568
75	0x419f7616	19.93266
76	0x41fbbc09	31.466814
77	0xc1d42979	-26.52025
78	0x409bc3fa	4.867673
79	0x40a2c5a6	5.086627
80	0x41a7f278	20.993393
81	0xc1279e74	-10.476185
82	0x40f7b97b	7.7413917
83	0x4112c919	9.174096
84	0x4156a5b6	13.415457
85	0x4192b3d6	18.33781
86	0xc0e34397	-7.1020007
87	0x420f3ec3	35.81129
88	0x3fe164d4	1.7608895
89	0x4029c48c	2.6526213
90	0xc199c9fd	-19.223627
91	0x418e08ab	17.754232
92	0xbef56bf0	-0.47933912
93	0x4197bd42	18.967411
94	0xc04bc106	-3.1836562
95	0xbf45a736	-0.7720827
96	0x4121f73a	10.122858
97	0x41748bad	15.284101
98	0x4167b8c6	14.482611
99	0x41760393	15.375873
100	0x410aba33	8.670459
101	0xc11288e9	-9.158425
102	0x41c0e2d9	24.110765
103	0x407d3d57	3.956869
104	0xc11361f6	-9.211416
105	0xc1baf30a	-23.368671
106	0x41a62590	20.768341
107	0x4087b1b9	4.2404447
108	0xc085dcc3	-4.1831985
109	0xc14a11c0	-12.6293335
110	0x3eb01c4c	0.3439659
111	0x41ae82e5	21.813913
112	0x4174e3ac	15.305584
113	0x41c381d9	24.438402
114	0x41affd72	21.998753
115	0x4044e975	3.076749
116	0xc17bff6f	-15.749862
117	0x4090d9e5	4.5265985
118	0x3f5969e2	0.8492719
119	0xc18d5197	-17.664839
120	0xc10b19b3	-8.693774
121	0xc226c53f	-41.692623
122	0xc1d2633e	-26.298458
123	0xc13cc6d2	-11.79854
124	0xc0c3f5f5	-6.123774
125	0x40dcb4d6	6.8970747
126	0xc1a673d5	-20.806559
127	0x4189cdc5	17.225473
128	0xc128b538	-10.544243
129	0x41f63b49	30.778948
130	0xc156c712	-13.423601
131	0x4058e551	3.3889964
132	0xc1ade252	-21.735508
133	0xbf0b3fbf	-0.54394144
134	0xbf1e8d81	-0.6193467
135	0xc0f8e169	-7.777516
136	0xc1fa22df	-31.267027
137	0x40db3ca9	6.851155
138	0xc0879e4c	-4.2380733
139	0x41a4de95	20.608683
140	0x3ecb7cf1	0.3974376
141	0xc16b68d3	-14.713092
142	0xc206fd55	-33.747395
143	0x40e4d104	7.1505146

encoder.0.bias f4 [16]
0	0x415ab8d6	13.670126
1	0x425ac1dd	54.68932
2	0xc07eeaca	-3.9830804
3	0x41a44da2	20.537907
4	0xc11bd7af	-9.740157
5	0x4137bef6	11.484121
6	0x4198e558	19.111984
7	0xc1b0ac89	-22.084246
8	0xc18b8088	-17.43776
9	0x401e9d09	2.4783347
10	0xc1f44232	-30.532322
11	0xc1c6133c	-24.759392
12	0xc024ba70	-2.5738792
13	0x3e152834	0.14566118
14	0xc17c01cb	-15.750438
15	0xc11f81a5	-9.9691515

encoder.2.weight f4 [32, 16, 3, 3]
0	0x405a8580	3.4143982
1	0xc154183c	-13.255917
2	0xc1015177	-8.082389
3	0x40702b08	3.7526264
4	0xc20b327e	-34.79931
5	0xc1074157	-8.453452
6	0xc202fdb5	-32.74776
7	0x40e21645	7.0652184
8	0x41286c6f	10.526473
9	0xc109d345	-8.614079
10	0xc0c4ab62	-6.1459208
11	0x424489b2	49.134468
12	0xc1ab7580	-21.432373
13	0x412895b5	10.53655
14	0xc24921c7	-50.282986
15	0xc13118e7	-11.06858
16	0xc1fa1b29	-31.263262
17	0xc165be76	-14.358999
18	0xc191b369	-18.212603
19	0xc184cf23	-16.601141
20	0xc19caa7d	-19.583246
21	0xc1435362	-12.207857
22	0x40bd27aa	5.911092
23	0xc0d22693	-6.567209
24	0xc2174b6e	-37.82366
25	0x3f6365f7	0.8882746
26	0xc19bd8e2	-19.4809
27	0xc077aeb0	-3.870037
28	0xc12b0dae	-10.69084
29	0x416496ad	14.286786
30	0xc164235c	-14.258633
31	0x4124ab75	10.29186
32	0xc043c9d0	-3.0591927
33	0xc0a15384	-5.041445
34	0x41e3eb54	28.489906
35	0x42207ae5	40.120014
36	0xc097dcac	-4.7456875
37	0x41018d64	8.097019
38	0x40f18e9d	7.548659
39	0xc0915874	-4.5420475
40	0xc10b787d	-8.716916
41	0x41af0b45	21.880503
42	0xc0471a75	-3.1109898
43	0xc1e93b07	-29.153822
44	0xc139310e	-11.574476
45	0xc18c7a69	-17.55977
46	0xbf2cdf3a	-0.67528117
47	0xc0b2da14	-5.589121
48	0xc123f5b0	-10.247482
49	0xc1b79db2	-22.952
50	0xc1ad4a57	-21.661299
51	0x3ffbb57d	1.9664761
52	0xc14b2cab	-12.698405
53	0x41976bd5	18.927652
54	0x41dcf500	27.619629
55	0x41805adc	16.044365
56	0xc19dea9e	-19.73956
57	0xc2627c2f	-56.621273
58	0xc1b3aa6e	-22.458218
59	0xc1894d97	-17.162886
60	0xc0f88eab	-7.7674155
61	0xc1341f4a	-11.257639
62	0xc0e89536	-7.268214
63	0x415d10a6	13.816565
64	0x4138ebbc	11.557552
65	0xc19d8aab	-19.692709
66	0xc01291d8	-2.2901516
67	0x415b2efc	13.698971
68	0x3e8f0d99	0.27940062
69	0xc1a657fe	-20.792965
70	0xc14c7657	-12.778892
71	0xc0b2ea58	-5.5911064
72	0xc04e8bfa	-3.2272935
73	0x3fe52ac8	1.7903681
74	0x4140f515	12.0598345
75	0x418b344a	17.400532
76	0xbfd88698	-1.6916075
77	0x409a6280	4.824524
78	0x41dd7e47	27.686659
79	0xc13d4098	-11.82827
80	0x41a26f47	20.304335
81	0x41c66ac8	24.80214
82	0xc14c0e35	-12.7534685
83	0xc1504360	-13.016449
84	0xc0b1461d	-5.5398088
85	0x41a125d0	20.143463
86	0xc11dfdeb	-9.874492
87	0xc0c1018c	-6.031439
88	0x41736cfb	15.214107
89	0xc134b7d8	-11.294884
90	0x3e2ff954	0.17184955
91	0x41bf9130	23.945892
92	0xc0076b8a	-2.1159387
93	0xc1226807	-10.150397
94	0xc0b7c5df	-5.742904
95	0xc0ea1246	-7.3147306
96	0xc107e385	-8.493047
97	0xc18e83f9	-17.81444
98	0xc16cac97	-14.792136
99	0xc0d7e448	-6.7466164
100	0xc18380c3	-16.437872
101	0x420e958f	35.646053
102	0x40b3bbd4	5.616678
103	0xc1842e4c	-16.522606
104	0x409edfac	4.9648037
105	0xc1b194f5	-22.197733
106	0xc105cac4	-8.362003
107	0xc18f187b	-17.886953
108	0x41192f80	9.574097
109	0x41d52b8c	26.646263
110	0x41bf56fc	23.917473
111	0x40cb9196	6.3615217
112	0xc19a65f3	-19.29978
113	0x40bd88fa	5.922971
114	0x42181f8d	38.03081
115	0x40b6f675	5.717585
116	0x4211c43c	36.441635
117	0xc1047c69	-8.280374
118	0xc16af987	-14.68592
119	0x4145b2bf	12.356139
120	0xc1441998	-12.256248
121	0xc1074fc8	-8.456978
122	0x412f1461	10.942475
123	0x3f6fb4e1	0.93635374
124	0xc145be4d	-12.35896
125	0x4108fc36	8.561575
126	0x414d58e7	12.834205
127	0xc1cb41a0	-25.407043
128	0x418d8380	17.689209
129	0xc180370a	-16.026875
130	0x41d70b48	26.880508
131	0xc115900e	-9.34767
132	0x40a46bcc	5.138159
133	0x415e7ae3	13.905002
134	0xc18eec60	-17.865417
135	0xc1c327f8	-24.394516
136	0xc01c94ee	-2.44659
137	0x40dd33f2	6.912591
138	0x40865ffe	4.199218
139	0x41b31a81	22.387941
140	0x40fcb27e	7.8967886
141	0xbf5b8580	-0.8575058
142	0xc12a6b1b	-10.651149
143	0xc1fc072e	-31.503506
144	0x41828302	16.313969
145	0x40a3b580	5.115906
146	0x40f09a5e	7.5188437
147	0xc073216f	-3.7989156
148	0x409f95eb	4.9870505
149	0xc1c8b162	-25.086613
150	0xc152dc87	-13.17884
151	0xc16e1910	-14.881119
152	0xc192eac6	-18.364635
153	0xc142a3e7	-12.165015
154	0xbf3cbaf9	-0.737228
155	0xbf386cca	-0.72041
156	0x4184691e	16.551327
157	0x410aa652	8.665606
158	0x41c74bd9	24.912035
159	0xbd58486e	-0.05280345
160	0x41f87670	31.05783
161	0x41db8a2c	27.442467
162	0xc0e084dd	-7.0162187
163	0x40ef1921	7.4718175
164	0xc11da06d	-9.851666
165	0x41c82183	25.016363
166	0xc0bc2974	-5.88006
167	0x411e54c3	9.895694
168	0x41dd8783	27.691168
169	0xc168c939	-14.549127
170	0x405ca24c	3.4474058
171	0xc11029f2	-9.010241
172	0xc1fbb6aa	-31.464191
173	0x4081f750	4.0614395
174	0x41c06685	24.050058
175	0xbf654119	-0.89552456
176	0x4169ef7a	14.620966
177	0xc1ab8469	-21.439653
178	0xc1566b03	-13.401126
179	0x40c4fde8	6.1559944
180	0x40f0b1c8	7.521702
181	0x4157930c	13.4734
182	0x4195543c	18.66613
183	0x416e3622	14.888216
184	0x410e8f04	8.909916
185	0x411cc36c	9.79771
186	0xbfbb11e2	-1.4614832
187	0x40d690fa	6.7051973
188	0x41a1f6cb	20.245504
189	0x4189d8f5	17.230936
190	0x4232f666	44.740623
191	0x4070db86	3.7633986
192	0x419bb3a8	19.462723
193	0x417f28eb	15.94749
194	0xc10d5209	-8.832528
195	0xbda1036e	-0.07861982
196	0x40fa6a03	7.825441
197	0xbff2bee6	-1.8964508
198	0xc2001a3c	-32.02562
199	0x420cdc39	35.21506
200	0x41b4e0e8	22.609818
201	0x4193e751	18.487947
202	0xc0967b9f	-4.7025905
203	0xc17bfbb3	-15.74895
204	0xc12a9845	-10.662175
205	0xc194d1bb	-18.602407
206	0xc0fe5262	-7.9475565
207	0x41115fe0	9.085907
208	0x418df21a	17.743214
209	0x41e26226	28.297924
210	0xc19d16c6	-19.63612
211	0x4152dbe5	13.178685
212	0x41babb9e	23.34161
213	0x3f554efb	0.8332364
214	0xc23a64a1	-46.59827
215	0xc1121911	-9.13112
216	0xc183eccd	-16.490625
217	0xc16de4ea	-14.868387
218	0x3f4fb4d2	0.81135285
219	0xc085affa	-4.1777315
220	0xbf54524d	-0.8293808
221	0xc21b0245	-38.752216
222	0x4146bcc8	12.421089
223	0x423b3a4a	46.806923
224	0xc0f052aa	-7.510091
225	0xc1b1ef99	-22.241991
226	0xc107a379	-8.47741
227	0x41a6664c	20.79995
228	0x3f40f4e8	0.753737
229	0x409b5e34	4.8552494
230	0x42216df5	40.35738
231	0xc0d9f0b2	-6.8106318
232	0xc01fdcd7	-2.497854
233	0xc217356d	-37.802174
234	0xc1813dd4	-16.15519
235	0xc0fb4a9c	-7.8528576
236	0xc13870e6	-11.527563
237	0x41875505	16.916513
238	0x41760496	15.37612
239	0xc1b7da60	-22.981628
240	0xc04583dd	-3.0861733
241	0xc0862004	-4.191408
242	0xc10542a6	-8.328772
243	0x420cc1e5	35.18935
244	0xc11c22ae	-9.758467
245	0x3fe464de	1.7843282
246	0xc0f6b930	-7.710106
247	0xc1ddbc54	-27.716957
248	0x420106dd	32.256702
249	0xc144c426	-12.297888
250	0xc149a102	-12.601809
251	0xc112e5a2	-9.181063
252	0xc0857971	-4.1710744
253	0xc1bc43aa	-23.53304
254	0xc07bd3ba	-3.9347978
255	0xc1212c02	-10.073244

encoder.2.bias f4 [32]
0	0x409975d4	4.7956333
1	0x406fca34	3.7467165
2	0x3f936391	1.151476
3	0xc082a780	-4.082947
4	0xc11d72f4	-9.840565
5	0x406b47b3	3.6762512
6	0x412a4760	10.642426
7	0xc0cea7bc	-6.4579754
8	0xc119b936	-9.6077175
9	0x3fb5b580	1.4196014
10	0xc1850d09	-16.631365
11	0xc1a2998e	-20.324978
12	0x40de77e6	6.952136
13	0xc1f27278	-30.305893
14	0xc228571e	-42.085075
15	0xc0287c0a	-2.6325707
16	0xc21cfa29	-39.244297
17	0x3fd2929f	1.6450995
18	0x41f3003a	30.37511
19	0x41b0cb13	22.099157
20	0x41c82e66	25.022655
21	0x41ae5d1e	21.795467
22	0xc20725e9	-33.78702
23	0xc1000a6a	-8.0025425
24	0xc03dca9a	-2.9654908
25	0x3f7b582f	0.9818143
26	0xc0cbc1c8	-6.367405
27	0x4117948d	9.473767
28	0x4057d873	3.372586
29	0x41be826a	23.813679
30	0x41b963fe	23.173824
31	0xc0ca95b9	-6.3307767

decoder.0.weight f4 [16, 32, 3, 3]
0	0xc1872223	-16.891668
1	0x4105c6cd	8.361035
2	0x41fa6978	31.301498
3	0xc035572a	-2.833445
4	0x4196513a	18.789661
5	0xc1670be2	-14.440401
6	0xc113841b	-9.219752
7	0x4129721f	10.590362
8	0x411906d4	9.564167
9	0xc1acb50b	-21.5884
10	0xbfa050b6	-1.2524631
11	0xc1531f9b	-13.195216
12	0xc13d56f2	-11.833727
13	0xc1c37d0a	-24.436054
14	0x4204581d	33.08605
15	0x41f70542	30.877567
16	0x421234b6	36.551476
17	0x41555c42	13.335024
18	0x40fa4473	7.8208556
19	0x41f5815b	30.688162
20	0x4189cbd9	17.224535
21	0x40d99bfa	6.80029
22	0xc206a092	-33.656807
23	0x41161643	9.380435
24	0xc1d7b41e	-26.962948
25	0x412468ae	10.275557
26	0xc136094a	-11.377268
27	0x41610834	14.064503
28	0x41aa1bf8	21.263657
29	0x40903f83	4.507753
30	0x40ed87b7	7.4228168
31	0xbf6dca55	-0.9288686
32	0xc0fe0a75	-7.9387765
33	0x41202c2b	10.010783
34	0x3fd72bed	1.681028
35	0xc17b54a2	-15.708162
36	0xc035451a	-2.8323426
37	0x40b239a4	5.569536
38	0x3fda6104	1.7060857
39	0x408f7431	4.4829335
40	0x4206944c	33.64482
41	0xc14e1931	-12.88115
42	0xc1652cda	-14.32345
43	0xc0d236c3	-6.569185
44	0x4189c9b8	17.223495
45	0x3f02b752	0.51060975
46	0xc20a530c	-34.5811
47	0x41cb1534	25.385353
48	0x418b888f	17.441679
49	0xbefb5d09	-0.49094418
50	0xbf30466c	-0.68857455
51	0x419dd64e	19.729641
52	0x41c235e7	24.27632
53	0xc152f582	-13.184938
54	0x41596f5e	13.589689
55	0xbf6eeb94	-0.93328214
56	0xc0cf4f44	-6.478426
57	0x40807ff2	4.0156183
58	0xc1e5a1df	-28.704039
59	0xc08dfffd	-4.4374986
60	0xc184c98a	-16.598408
61	0xc19eb2ff	-19.8374
62	0x4120f39c	10.059475
63	0xc18baa31	-17.458101
64	0x4078dda7	3.8885286
65	0x415fc156	13.984701
66	0xc1ac712b	-21.555258
67	0xc1c97b13	-25.185095
68	0x4183ae4e	16.46011
69	0x413cd6c9	11.802438
70	0xc1abec48	-21.490372
71	0x3f35f84c	0.71081996
72	0x403f0373	2.9845855
73	0xc18962c7	-17.173231
74	0x3fb3e51e	1.4054296
75	0xc0c0546f	-6.010307
76	0xc1e44102	-28.531742
77	0x41cf9a5e	25.950375
78	0xc1203a3b	-10.014216
79	0x41947b54	18.560219
80	0xc1f48c61	-30.568544
81	0xc0a6068e	-5.1883
82	0xc049be70	-3.1522484
83	0xc12fcb21	-10.987092
84	0x4196b41c	18.837944
85	0x3f93a02e	1.1533258
86	0xc06d7737	-3.7104013
87	0xbfeda270	-1.8565197
88	0xc1a4eb18	-20.614792
89	0x3e642a8b	0.22281854
90	0xc08da4c7	-4.4263644
91	0x41bdf4c5	23.744516
92	0x40d339b8	6.6007957
93	0x41fdb642	31.713993
94	0xc17c7fb0	-15.781174
95	0xc166065f	-14.376555
96	0xc1330e4d	-11.190991
97	0xc14bd25c	-12.738857
98	0xc1c81679	-25.010973
99	0xc0a9ebf0	-5.310051
100	0x41c6fe4a	24.874165
101	0x40b47229	5.6389356
102	0x40870a65	4.220019
103	0x42041d39	33.028538
104	0xc05ab8a8	-3.4175205
105	0x41b178dc	22.184013
106	0xc022d4f2	-2.5442472
107	0xc178e756	-15.5564785
108	0xc238d523	-46.20814
109	0x4136290b	11.38502
110	0x41af8e0d	21.94436
111	0x40b4c849	5.649449
112	0xbebeb943	-0.37250718
113	0x41ab6179	21.422594
114	0xc1988903	-19.0669
115	0x41974b05	18.91163
116	0x413b3e66	11.702734
117	0x414be610	12.743668
118	0x408397d6	4.1122847
119	0xc1003e71	-8.0152445
120	0x41a3483d	20.410273
121	0x4127efb7	10.496024
122	0xc1befd0c	-23.873558
123	0x41954cea	18.662556
124	0xc157ea91	-13.494767
125	0x41b9da6b	23.23165
126	0xc07570d4	-3.8350115
127	0xc21245f1	-36.568302
128	0xc1bd3004	-23.648445
129	0x41f1b820	30.214905
130	0x4153ed5c	13.245449
131	0x4195f46e	18.74435
132	0x417f6c8c	15.964001
133	0xc1882cef	-17.02194
134	0x414d0cfd	12.815671
135	0xc0a3976e	-5.112235
136	0xc18ff69b	-17.995413
137	0xc1900d30	-18.00644
138	0x40f403c5	7.62546
139	0x3f90b675	1.1305681
140	0xc033c391	-2.8088114
141	0xc21fd74f	-39.960262
142	0x3fa408b4	1.2815156
143	0xc1f3a0d8	-30.453537
144	0x3fbc5328	1.4712877
145	0xc1365ae6	-11.397192
146	0xc0a30fb4	-5.095667
147	0x4042dca3	3.0447166
148	0xc1110170	-9.062851
149	0xc17e4fe3	-15.894504
150	0xc1e6192a	-28.762287
151	0xbf5313f2	-0.8245231
152	0x41cf19d6	25.887615
153	0x41bc5897	23.543257
154	0x41962365	18.767282
155	0x41d8bbaf	27.091642
156	0x3ff6f8ee	1.9294717
157	0x41f95737	31.167585
158	0x41967774	18.808327
159	0x41c86039	25.046984
160	0x403edf29	2.9823706
161	0xc0635cd6	-3.5525413
162	0xc17c83e0	-15.782196
163	0x411ca4a6	9.790197
164	0x410d8c38	8.846733
165	0x4112803a	9.156305
166	0x40697357	3.6476648
167	0x41a92091	21.140902
168	0x40ed0466	7.406787
169	0xc087fe0a	-4.2497606
170	0xc0d4eb28	-6.6537056
171	0xc1508a71	-13.033799
172	0x411c21a1	9.75821
173	0xc124cb50	-10.299637
174	0x41892180	17.141357
175	0xc098c2dd	-4.773787
176	0x4194ecff	18.61572
177	0x41522327	13.133582
178	0x4174592d	15.271771
179	0xc0704d1d	-3.7547066
180	0xc1da9369	-27.321978
181	0x414a0397	12.625876
182	0x3f8e563e	1.1120069
183	0x3faf7a0e	1.3709123
184	0x40e86aa1	7.263016
185	0xc1be8f9e	-23.820126
186	0x4035bec8	2.8397694
187	0xc15b4902	-13.705324
188	0x41895efa	17.171375
189	0xc12f1ad0	-10.944046
190	0x41159182	9.348024
191	0xc1319a94	-11.100239
192	0xc1fff38c	-31.99392
193	0xc219adff	-38.419918
194	0xc11cf780	-9.810425
195	0x41b237a5	22.27717
196	0xc012db74	-2.2946444
197	0x41dccc3e	27.599728
198	0x41c0dac8	24.106827
199	0x409ec0f5	4.9610543
200	0xbf75f9ba	-0.9608418
201	0xc10e52a3	-8.895175
202	0x40aad292	5.3382044
203	0xc21c2b12	-39.04206
204	0xc192fda2	-18.373844
205	0xc1f20817	-30.25395
206	0xc0df7bd6	-6.9838667
207	0x4175446a	15.329203
208	0xc017b5bd	-2.3704674
209	0xc180e832	-16.113377
210	0xc11a1345	-9.629704
211	0x418febe7	17.990187
212	0xc1b1e7eb	-22.238241
213	0x415751af	13.457442
214	0x3f5b053c	0.8555486
215	0x419c79bf	19.559446
216	0xbeb5b716	-0.35491246
217	0x41b4ca8d	22.598902
218	0x4109e3f8	8.618156
219	0x40752bff	3.8308103
220	0x4192caed	18.349085
221	0xbfbb1c69	-1.4618045
222	0xc1606e0d	-14.026868
223	0x3f8f247b	1.1183008
224	0xc1257026	-10.33988
225	0xc1f5ea55	-30.73942
226	0xc03cbb35	-2.9489262
227	0x3ed627c0	0.41827202
228	0xc2244e60	-41.076538
229	0xc04df3f6	-3.2180152
230	0x419bca20	19.473694
231	0xc145d7dd	-12.365201
232	0xc19cfa64	-19.622261
233	0x4133ee0e	11.245619
234	0xc1141fb1	-9.257737
235	0x416f04ca	14.938669
236	0x4162bbb6	14.170828
237	0x3f2c3000	0.6726074
238	0x412fd501	10.989503
239	0x413a826e	11.656843
240	0xc15be26f	-13.742782
241	0x40d549ee	6.6652746
242	0xc1882aa2	-17.020817
243	0x40ffed0d	7.997687
244	0x4178795c	15.529629
245	0x4138e77e	11.556517
246	0xc1c589a3	-24.692205
247	0x3f8327a0	1.0246468
248	0x40302e21	2.7528155
249	0xc1cbb37b	-25.462637
250	0x419f7af8	19.935043
251	0xc16dcdb5	-14.862721
252	0x4104f1fe	8.30908
253	0x40bd5265	5.916308
254	0x412daa16	10.854025
255	0xc10a3239	-8.637261

decoder.0.bias f4 [16]
0	0x401c2265	2.4395993
1	0x3f719651	0.9436999
2	0xbf857561	-1.0426446
3	0xc081efcb	-4.0605216
4	0xc1fd4026	-31.656322
5	0x3fcacbcc	1.5843444
6	0x3f39b4a4	0.7254126
7	0xc1c61922	-24.762272
8	0x417b2cde	15.698454
9	0xc1f6d382	-30.853275
10	0xc14a76f8	-12.654045
11	0xc13822a9	-11.508462
12	0xc1a348ce	-20.41055
13	0x3f438423	0.763735
14	0x3f943f25	1.158177
15	0xc1769c45	-15.413152

decoder.2.weight f4 [1, 16, 3, 3]
0	0xc1556077	-13.336051
1	0xc1b964f4	-23.174294
2	0x41893045	17.14857
3	0x40c719ac	6.221884
4	0xc13ab846	-11.669989
5	0xc0b96cbd	-5.7945237
6	0xc139b599	-11.606835
7	0xc19f495e	-19.910824
8	0x3f6d4102	0.9267732
9	0xc12cf136	-10.808889
10	0x41ea9625	29.323313
11	0xc0a4e1ad	-5.1525483
12	0x41cd21dd	25.641535
13	0xc0b279b4	-5.5773563
14	0x4120f750	10.060379
15	0x40cbebab	6.372518
16	0x3f876859	1.0578719
17	0xc207ef6e	-33.983818
18	0x40444657	3.0667932
19	0x3c759cc8	0.014990993
20	0xc1841b56	-16.513348
21	0x4115ade2	9.354952
22	0xc15c0e4e	-13.753492
23	0x41b1a54e	22.205715
24	0xc19c2ceb	-19.521933
25	0xc1870b3d	-16.880487
26	0xc0f97e0d	-7.796637
27	0xc19f5e1e	-19.920956
28	0xc124c561	-10.298188
29	0xc1b7fb42	-22.997684
30	0x3f48e1fa	0.7846981
31	0xc1c968ce	-25.176174
32	0xc1bd51ae	-23.664883
33	0x3d91723c	0.071018666
34	0x416b224b	14.695872
35	0xc1d53bf5	-26.654276
36	0x403edc67	2.9822023
37	0xc211e6e2	-36.47547
38	0xc006a6e3	-2.103936
39	0xc1f2d38e	-30.353298
40	0xc08dcb31	-4.4310536
41	0xc1a37bf5	-20.435526
42	0xc11a070b	-9.626719
43	0xc2213ff4	-40.312454
44	0x41a347ad	20.409998
45	0x3fc58fdf	1.5434531
46	0xc025e78c	-2.5922575
47	0x40ec561e	7.3855124
48	0xc1834257	-16.407393
49	0x4097ebc8	4.747532
50	0xc15bf285	-13.746709
51	0xbf4e0a8f	-0.8048486
52	0x409670b1	4.7012563
53	0xc1c62b89	-24.771257
54	0xc0a3d7eb	-5.120107
55	0xc0da8a47	-6.8293796
56	0xc13b8725	-11.720494
57	0xc173b2e9	-15.231179
58	0x418781fe	16.938473
59	0xc0831ce3	-4.097276
60	0x41a3dc22	20.482487
61	0x410102ee	8.063215
62	0xc1998a02	-19.192387
63	0xc0492020	-3.1425858
64	0x4184e666	16.6125
65	0xc160a78d	-14.040906
66	0x4104dc05	8.303716
67	0xc1e21de4	-28.264595
68	0x407e381a	3.9721742
69	0x3ee66aa1	0.45003226
70	0x40d9ab04	6.802126
71	0xc14efab1	-12.936204
72	0xc098b1de	-4.7717123
73	0xc1dce31e	-27.610897
74	0x4086a486	4.2075834
75	0xc0a48d74	-5.142267
76	0xc16c1a82	-14.756472
77	0xc14e7f77	-12.906119
78	0x415c3774	13.763538
79	0xc16b7a98	-14.71743
80	0x41a1658c	20.174583
81	0xc1b4fa00	-22.62207
82	0xc11b4d40	-9.70636
83	0x41746472	15.274523
84	0xc1aa669d	-21.300104
85	0xc1e83a41	-29.028444
86	0xc142be6c	-12.17149
87	0xbedd083c	-0.43170345
88	0xc17f8d49	-15.971993
89	0xc1a641c9	-20.782122
90	0xbf28a07b	-0.65869874
91	0xc0f8f60d	-7.7800355
92	0x420d0626	35.256004
93	0x41028911	8.1584635
94	0x418352a1	16.415346
95	0xc0eb789b	-7.3584723
96	0x4128a381	10.539918
97	0xc19520db	-18.641043
98	0x3eb15f71	0.3464313
99	0xbfc9a17b	-1.5752405
100	0x4026bb91	2.6051981
101	0xc05ed99b	-3.4820316
102	0xc07cf2be	-3.9523158
103	0xc0ce2e57	-6.4431567
104	0xc08c1575	-4.3776193
105	0xc12cd954	-10.803059
106	0x40ec8e86	7.392398
107	0xc1c8138c	-25.009544
108	0xbea04162	-0.31299883
109	0xc0cd89f8	-6.423092
110	0xc159fcee	-13.62425
111	0xc132f416	-11.184591
112	0xc1eaa5be	-29.330929
113	0x40fcb9f8	7.8977013
114	0xc1f8d056	-31.101727
115	0xc03db1e7	-2.9639833
116	0xc187de05	-16.983408
117	0x40fae863	7.8408675
118	0xc0ae0b9c	-5.438917
119	0x41ad929f	21.696592
120	0xc1e5df2b	-28.733969
121	0x40cb4b7d	6.352965
122	0xc23691d6	-45.642418
123	0x41bb73a4	23.431465
124	0xc19f059d	-19.87774
125	0x4185f806	16.746105
126	0x4127f773	10.497912
127	0xc037b8e8	-2.8706608
128	0xc0e1d157	-7.056804
129	0x41372173	11.445666
130	0xc1707e64	-15.030857
131	0xc0be9844	-5.956087
132	0x41b7b750	22.964508
133	0x40a8d5e8	5.2761116
134	0xc1556110	-13.336197
135	0x41b67dda	22.811451
136	0xc1a86a7d	-21.051996
137	0x42041b64	33.02675
138	0xc1975be8	-18.919876
139	0x41965859	18.793139
140	0xc0c6ee07	-6.216556
141	0xc009be4e	-2.1522403
142	0x4152d60d	13.1772585
143	0x420f1457	35.769863
