candidate_networks/inet6_6.pt (torch, 41295 bytes, 14 tensors)

c1.weight f4 [16, 1, 3, 3]
-23.7259 -48.836052 -19.788923 23.023106 -5.081224 -4.5248733 17.800621 11.362572
-27.71527 -2.482779 8.652838 -1.0994191 13.307772 -19.922522 -9.008637 16.95031
-10.527273 14.683888 -8.496711 24.161228 -8.431889 22.280645 0.2737975 32.77935
-18.870153 27.493206 -0.17967603 -7.137413 -52.40541 -7.102624 -4.4746447 19.534878
-24.265417 12.535876 -29.331818 -4.2271013 -6.202997 -8.665028 -14.815875 -6.6520424
-24.909575 -23.06833 -18.313673 -5.0435433 -8.511531 -18.889318 -0.09056866 -0.9918709
-18.741425 -21.440708 -3.4185224 -19.400904 -21.751308 -12.226919 4.101586 -3.2358155
-6.3991218 4.357037 -0.40984833 -26.786264 3.401946 -21.57909 0.2796302 12.664669
-6.490864 3.215568 -10.15534 1.0788383 -16.288445 21.43259 -9.339664 25.569664
-5.3199825 11.125954 18.392275 19.51317 31.659506 -26.223166 4.6838913 5.0857096
21.121466 -10.906006 8.246081 8.970678 14.140723 18.064734 -7.4033966 35.667645
1.75816 3.3895364 -19.23803 17.948507 -0.14948927 19.419535 -3.4343789 -1.3973707
9.907458 15.721312 14.932665 15.408477 9.245942 -8.8307495 24.43316 3.6111453
-9.468874 -23.599218 20.758728 4.072512 -4.661509 -12.507003 0.6018223 22.040874
15.199979 24.373959 22.21277 3.4471152 -16.105015 4.4307218 0.26842597 -17.623957
-8.66883 -41.37734 -27.168127 -12.052184 -6.4420347 6.895283 -21.272741 17.547688
-10.47459 30.465853 -13.320323 4.3089933 -21.466272 -0.26710537 -0.69302 -7.3403687
-31.939714 6.8200383 -3.9428244 20.758785 1.0285773 -14.645957 -33.344463 7.221048
00000000: a5ce bdc1 1e58 43c2 b74f 9ec1 522f b841
00000010: 6399 a2c0 c3cb 90c0 ac67 8e41 18cd 3541
00000020: dfb8 ddc1 dae5 1ec0 0672 0a41 c4b9 8cbf
00000030: a2ec 5441 5361 9fc1 6123 10c1 3c9a 8741
00000040: b66f 28c1 35f1 6a41 87f2 07c1 324a c141
00000050: 04e9 06c1 c33e b241 302f 8c3e 0e1e 0342
00000060: 13f6 96c1 16f2 db41 fefc 37be b065 e4c0
00000070: 249f 51c2 b248 e3c0 4a30 8fc0 6e47 9c41
00000080: 931f c2c1 f392 4841 90a7 eac1 6a44 87c0
00000090: f47e c6c0 f4a3 0ac1 d30d 6dc1 88dd d4c0
000000a0: cf46 c7c1 f18b b8c1 6782 92c1 b564 a1c0
000000b0: 3b2f 08c1 531d 97c1 107c b9bd 40eb 7dbf
000000c0: 70ee 95c1 9286 abc1 12c9 5ac0 0d35 9bc1
000000d0: ae02 aec1 76a1 43c1 3140 8340 9a17 4fc0
000000e0: 9bc5 ccc0 d96c 8b40 a4d7 d1be 454a d6c1
000000f0: 7cb9 5940 faa1 acc1 b12b 8f3e 7ca2 4a41
00000100: 28b5 cfc0 decb 4d40 467c 22c1 6017 8a3f
00000110: bc4e 82c1 f275 ab41 446f 15c1 ac8e cc41
00000120: 4c3d aac0 e803 3241 6123 9341 f91a 9c41
00000130: ab46 fd41 0bc9 d1c1 70e2 9540 22be a240
00000140: c3f8 a841 007f 2ec1 f3ef 0341 e687 0f41
00000150: 6740 6241 9384 9041 a0e8 ecc0 abab 0e42
00000160: 630b e13f 2aee 5840 7ce7 99c1 8b96 8f41
00000170: b713 19be 355b 9b41 ddcc 5bc0 0bdd b2bf
00000180: f384 1e41 7e8a 7b41 32ec 6e41 1f89 7641
00000190: 61ef 1341 c04a 0dc1 1d77 c341 011d 6740
000001a0: 8280 17c1 33cb bcc1 e011 a641 0552 8240
000001b0: 152b 95c0 af1c 48c1 0711 1a3f b653 b041
000001c0: 1d33 7341 defd c241 c1b3 b141 899d 5c40
000001d0: 12d7 80c1 79c8 8d40 216f 893e ddfd 8cc1
000001e0: 87b3 0ac1 6582 25c2 5358 d9c1 bfd5 40c1
000001f0: 2625 cec0 29a6 dc40 932e aac1 aa61 8c41
00000200: ec97 27c1 11ba f341 0b20 55c1 46e3 8940
00000210: edba abc1 09c2 88be c269 31bf 4de4 eac0
00000220: 8984 ffc1 c13d da40 3c57 7cc0 fe11 a641
00000230: 6ca8 833f d755 6ac1 bb60 05c2 d312 e740

c1.bias f4 [16]
13.491166 54.7212 -4.308134 21.09326 -9.746608 11.270894 18.955872 -22.152561
-17.188745 2.7419066 -30.438362 -24.879526 -2.3444664 0.3348448 -15.84478 -9.711842
00000000: d1db 5741 82e2 5a42 3cdc 89c0 ffbe a841
00000010: 1bf2 1bc1 9555 3441 a0a5 9741 7238 b1c1
00000020: 8d82 89c1 667b 2f40 c481 f3c1 4509 c7c1
00000030: bd0b 16c0 c770 ab3e 3884 7dc1 b463 1bc1

c2.weight f4 [32, 16, 3, 3]
3.6751664 -13.576356 -7.812671 3.5851793 -35.38063 -8.344324 -33.135326 7.369053
10.316701 -8.787202 -6.6602116 49.138683 -21.24268 10.650821 -49.890152 -11.932392
-31.546843 -14.545078 -18.39051 -16.781885 -18.708454 -11.86137 5.9694133 -6.227485
-38.324932 1.1164682 -19.87418 -4.041146 -11.017352 14.540691 -14.233448 10.263886
-2.504232 -5.7659297 28.55852 40.60227 -4.3742757 7.0579576 7.21539 -4.6359982
-8.865524 21.95209 -2.9867275 -29.114088 -10.7787075 -17.577255 -0.65642744 -4.903245
-9.955563 -23.134077 -22.06296 2.038565 -13.176127 18.776413 27.557356 15.308434
-19.665476 -56.888393 -22.76621 -16.844313 -7.6355214 -11.656563 -7.0863786 13.843341
12.526648 -19.463224 -2.2631328 13.410664 0.009112507 -20.578695 -11.821625 -5.251625
-3.5465553 1.6478227 11.40487 17.959627 -1.9083163 5.4484468 27.834978 -11.426737
20.686842 24.230263 -13.050224 -12.907924 -5.2820954 20.39859 -10.044086 -5.6679583
14.757304 -11.054824 1.0088756 23.792196 -2.7010362 -10.843889 -6.0000362 -7.254741
-8.139012 -18.179329 -15.028599 -7.2169747 -16.277634 35.709866 5.7068825 -16.473326
5.4520907 -22.152803 -8.571451 -18.374327 9.473051 26.78233 24.019918 7.157854
-19.235737 6.185578 37.369473 5.628371 36.271366 -8.197647 -15.024865 12.23927
-12.173584 -8.950816 10.412549 1.5570782 -11.993032 8.790327 12.789883 -25.29835
17.562868 -15.817971 27.129618 -9.50493 5.3696656 14.357125 -18.423223 -24.45683
-2.5785239 6.956259 4.069901 23.110624 8.223314 -1.3923935 -10.380058 -31.81296
16.42614 5.608676 7.436902 -3.6759048 4.524012 -25.029083 -13.368891 -14.4721365
-18.601713 -12.457485 -0.28742537 -0.96080124 16.794226 8.466645 25.21044 -0.053068116
30.933397 27.461693 -6.7490687 8.328761 -10.2535715 24.68639 -5.1244407 10.494572
27.013014 -14.45713 4.0842066 -8.688546 -32.01523 3.920561 23.967264 -1.0966378
14.835859 -20.806892 -12.630392 6.448533 7.7105546 13.828071 18.195026 14.961505
8.591463 9.887153 -1.2683649 6.3899164 20.173668 17.49387 44.809803 4.143882
20.005434 15.650707 -8.475407 -0.6515242 7.708293 -1.8719503 -31.2395 35.14666
23.03302 17.756702 -5.1329236 -15.95077 -10.568334 -18.2863 -8.132767 8.801684
18.172773 28.220861 -19.380095 13.102338 23.440401 1.0416099 -46.7652 -8.524981
-16.667141 -15.189376 0.7713824 -3.6701279 -0.797981 -39.10077 12.709637 46.869007
-7.7405133 -22.297768 -8.107145 20.540937 0.47878686 4.266353 40.609356 -6.7600737
-2.617307 -37.92951 -15.424615 -8.066322 -10.869535 17.623964 15.813305 -23.360947
-2.9542232 -4.277785 -8.696967 34.956635 -10.123463 1.3311894 -8.206767 -28.213211
32.358532 -11.905964 -12.315368 -8.627045 -4.2516656 -23.418764 -4.0152655 -9.964724
00000000: ed35 6b40 c138 59c1 6701 fac0 9473 6540
00000010: c485 0dc2 5a82 05c1 938a 04c2 48cf eb40
00000020: 3511 2541 6198 0cc1 7420 d5c0 038e 4442
00000030: 02f1 a9c1 c369 2a41 848f 47c2 14eb 3ec1
00000040: ef5f fcc1 a4b8 68c1 c41f 93c1 4d41 86c1
00000050: eaaa 95c1 2cc8 3dc1 6f05 bf40 8f47 c7c0
00000060: bb4c 19c2 6ee8 8e3f 52fe 9ec1 1151 81c0
00000070: 1347 30c1 aca6 6841 34bc 63c1 e138 2441
00000080: 5645 20c0 7f82 b8c0 d977 e441 b968 2242
00000090: 11fa 8bc0 cada e140 7ae4 e640 195a 94c0
000000a0: 30d9 0dc1 e19d af41 8b26 3fc0 a7e9 e8c1
000000b0: 9675 2cc1 389e 8cc1 a10b 28bf 62e7 9cc0
000000c0: fc49 1fc1 9712 b9c1 f180 b0c1 d977 0240
000000d0: 6bd1 52c1 1836 9641 7775 dc41 58ef 7441
000000e0: e552 9dc1 b78d 63c2 3321 b6c1 27c1 86c1
000000f0: 3156 f4c0 4881 3ac1 9dc3 e2c0 537e 5d41
00000100: 266d 4841 afb4 9bc1 2bd7 10c0 1492 5641
00000110: a04c 153c 2ba1 a4c1 6025 3dc1 500d a8c0
00000120: c3fa 62c0 dbeb d23f 597a 3641 51ad 8f41
00000130: b543 f4bf ad59 ae40 09ae de41 ead3 36c1
00000140: a77e a541 94d7 c141 b8cd 50c1 db86 4ec1
00000150: ed06 a9c0 5030 a341 94b4 20c1 ea5f b5c0
00000160: eb1d 6c41 8fe0 30c1 d622 813f 6b56 be41
00000170: c7dd 2cc0 9280 2dc1 4c00 c0c0 d726 e8c0
00000180: 6539 02c1 446f 91c1 2475 70c1 75f1 e6c0
00000190: 9838 82c1 e7d6 0e42 c89e b640 5fc9 83c1
000001a0: 8777 ae40 f138 b1c1 aa24 09c1 9ffe 92c1
000001b0: 9e91 1741 3642 d641 cb28 c041 240d e540
000001c0: cae2 99c1 41f0 c540 577a 1542 9d1b b440
000001d0: e115 1142 9029 03c1 d965 70c1 0dd4 4341
000001e0: 00c7 42c1 8b36 0fc1 cd99 2641 574e c73f
000001f0: 76e3 3fc1 2ea5 0c41 5ca3 4c41 0563 cac1
00000200: c180 8c41 6916 7dc1 7509 d941 3114 18c1
00000210: 4dd4 ab40 c9b6 6541 c362 93c1 96a7 c3c1
00000220: 8906 25c0 ac99 de40 a13c 8240 8fe2 b841
00000230: b292 0341 f339 b2bf b814 26c1 f180 fec1
00000240: bc68 8341 467a b340 1afb ed40 0642 6bc0
00000250: b5c4 9040 903b c8c1 fae6 55c1 df8d 67c1
00000260: 4fd0 94c1 dc51 47c1 6b29 93be 12f7 75bf
00000270: 935a 8641 6177 0741 fbae c941 f45d 59bd
00000280: 9977 f741 8cb1 db41 5ff8 d7c0 9b42 0541
00000290: a10e 24c1 ba7d c541 6bfb a3c0 c4e9 2741
000002a0: a71a d841 6850 67c1 d2b1 8240 4904 0bc1
000002b0: 980f 00c2 79ea 7a40 f5bc bf41 a15e 8cbf
000002c0: ae5f 6d41 8474 a6c1 1616 4ac1 625a ce40
000002d0: ddbc f640 c73f 5d41 6a8f 9141 5362 6f41
000002e0: a276 0941 c731 1e41 c859 a2bf 327a cc40
000002f0: ac63 a141 72f3 8b41 3d3d 3342 ae9a 8440
00000300: 210b a041 4c69 7a41 449b 07c1 4aca 26bf
00000310: 56aa f640 119c efbf 7fea f9c1 2e96 0c42
00000320: a043 b841 ba0d 8e41 e940 a4c0 5b36 7fc1
00000330: e517 29c1 584a 92c1 d01f 02c1 b3d3 0c41
00000340: d761 9141 53c4 e141 6f0a 9bc1 2da3 5141
00000350: f185 bb41 7953 853f 910f 3bc2 5266 08c1
00000360: 4e56 85c1 af07 73c1 5179 453f 60e3 6ac0
00000370: 7c48 4cbf 3067 1cc2 ac5a 4b41 dd79 3b42
00000380: 49b2 f7c0 d461 b2c1 deb6 01c1 d753 a441
00000390: 8d23 f53e f785 8840 fb6f 2242 8652 d8c0
000003a0: f581 27c0 d1b7 17c2 39cb 76c1 a80f 01c1
000003b0: 9ee9 2dc1 e1fd 8c41 4c03 7d41 38e3 bac1
000003c0: fe11 3dc0 9de3 88c0 c726 0bc1 98d3 0b42
000003d0: b4f9 21c1 6a64 aa3f eb4e 03c1 a8b4 e1c1
000003e0: 236f 0142 d47e 3ec1 bf0b 45c1 6008 0ac1
000003f0: a50d 88c0 a159 bbc1 0e7d 80c0 826f 1fc1

c2.bias f4 [32]
4.756886 4.2599087 0.84813726 -4.112857 -10.561124 4.0227776 10.07399 -6.28884
-9.750136 1.2067804 -16.17301 -20.441227 6.541417 -30.33143 -41.80003 -2.547811
-38.568367 2.004683 30.254414 21.616974 25.17891 21.73417 -34.140133 -7.3398547
-2.7188077 0.9727918 -7.0503807 9.242029 3.155613 23.646051 23.709719 -6.278986
00000000: 6938 9840 2c51 8840 861f 593f 869c 83c0
00000010: 5dfa 28c1 98ba 8040 102f 2141 2d3e c9c0
00000020: 8f00 1cc1 c877 9a3f 5362 81c1 a287 a3c1
00000030: 4a53 d140 c5a6 f2c1 3b33 27c2 560f 23c0
00000040: 0246 1ac2 ba4c 0040 0a09 f241 90ef ac41
00000050: 686e c941 95df ad41 7f8f 08c2 17e0 eac0
00000060: f200 2ec0 e208 793f b89c e1c0 5adf 1341
00000070: 90f5 4940 1d2b bd41 81ad bd41 74ed c8c0

d1.weight f4 [16, 32, 3, 3]
-16.7406 8.2690525 31.006342 -2.4195764 19.039251 -14.047923 -9.059385 10.443364
10.165659 -22.196987 -1.289919 -13.212055 -11.817904 -24.91725 33.04004 31.622137
36.591118 13.840748 7.8483324 30.758223 17.338379 7.2459416 -33.87537 9.475224
-26.973305 10.418686 -10.801406 14.845174 21.615927 4.2031164 8.502203 -0.77013385
-8.106477 10.126891 2.030469 -14.699584 -3.0220795 5.0787106 1.413001 4.3051376
33.24279 -13.1158495 -14.275326 -6.3490653 16.95641 -0.0026138723 -34.200092 25.441034
17.531042 -0.20875534 -0.6985721 18.77884 24.167274 -13.342796 12.939554 -0.46590057
-6.6856785 4.184174 -28.754723 -4.589562 -16.70854 -19.279215 10.334751 -18.04692
3.7248218 13.300545 -21.612198 -25.717754 15.813298 11.752661 -21.642725 0.93220174
2.982497 -17.22104 1.63299 -6.32837 -28.192558 25.697512 -9.727886 18.477932
-31.075806 -5.0740156 -3.0515456 -11.688851 19.0855 0.8395263 -3.1428003 -1.6243834
-20.48439 0.25656545 -4.743285 23.534237 6.625108 31.506739 -15.5273485 -13.830154
-11.357253 -12.761969 -25.724361 -5.1498303 24.793299 5.0787024 5.3015356 32.697426
-3.7593522 22.345192 -2.3199453 -15.076994 -46.544838 11.484873 22.57012 5.4384265
-0.4906598 22.231956 -18.753807 18.970362 11.650178 12.671022 4.384866 -8.221724
20.221636 10.61581 -24.094347 19.169998 -14.016418 23.138319 -3.9470932 -37.137577
-23.50461 30.237753 13.134713 18.562363 16.422255 -17.095213 13.1196995 -5.274622
-18.513538 -18.323898 7.6836123 1.5410919 -2.7829232 -40.18313 0.7078167 -30.249123
1.4936552 -11.651982 -4.551502 3.135165 -8.999728 -15.6353 -29.404385 -0.92693996
26.37023 22.97924 18.64081 27.339378 1.54709 31.137756 18.738588 24.587923
3.035771 -3.182798 -16.218077 9.753446 9.13344 9.558089 3.964736 20.305996
7.741774 -3.378778 -6.645242 -13.26784 9.472183 -10.055304 17.321676 -5.172667
18.439524 12.906605 14.953105 -3.5127525 -26.98211 12.881297 1.4431092 1.8038974
7.39011 -23.74511 3.2585976 -13.9646 17.271101 -10.428432 9.1779175 -11.369589
-31.501839 -38.434166 -10.210586 22.712473 -2.203722 27.47515 23.556292 4.908418
-1.6745915 -8.844482 6.0155444 -38.970627 -18.936184 -29.994055 -6.671402 15.75591
-2.698678 -15.555907 -10.347291 18.342825 -21.612234 13.32233 0.4345774 20.262354
-0.1485948 22.719172 8.980143 4.4030232 18.021242 -1.5866556 -14.36612 1.6078665
-9.9327755 -31.438147 -2.3614345 0.6890968 -41.462208 -3.2460845 19.217916 -12.5260515
-20.080225 10.859824 -9.402712 14.525292 14.085136 0.39701617 11.165045 10.874872
-13.846968 6.876085 -16.628647 8.704409 15.709935 11.771341 -24.492262 0.88591516
2.9135513 -25.312002 20.908285 -14.482412 8.051152 5.8950243 10.663029 -8.801061
00000000: c0ec 85c1 0a4e 0441 fd0c f841 57da 1ac0
00000010: 6350 9841 4bc4 60c1 3ef3 10c1 0518 2741
00000020: 8aa6 2241 6e93 b1c1 111c a5bf 9464 53c1
00000030: 2316 3dc1 8756 c7c1 0029 0442 23fa fc41
00000040: 4e5d 1242 b473 5d41 8a25 fb40 d710 f641
00000050: 00b5 8a41 c1de e740 6180 07c2 849a 1741
00000060: 54c9 d7c1 f0b2 2641 8fd2 2cc1 d585 6d41
00000070: 6bed ac41 ee7f 8640 0609 0841 7e27 45bf
00000080: 21b4 01c1 bf07 2241 34f3 0140 7f31 6bc1
00000090: c069 41c0 cc84 a240 37dd b43f b0c3 8940
000000a0: 9ef8 0442 85da 51c1 bc67 64c1 8b2b cbc0
000000b0: baa6 8741 804d 2bbb e5cc 08c2 3d87 cb41
000000c0: 933f 8c41 f6c3 55be 9fd5 32bf 103b 9641
000000d0: 9456 c141 187c 55c1 6a08 4f41 858a eebe
000000e0: 14f1 d5c0 c1e4 8540 ac09 e6c1 b1dd 92c0
000000f0: 17ab 85c1 d53b 9ac1 245b 2541 1860 90c1
00000100: 7b63 6e40 08cf 5441 c8e5 acc1 f6bd cdc1
00000110: 4503 7d41 e60a 3c41 4d24 adc1 c6a4 6e3f
00000120: 3be1 3e40 b1c4 89c1 d105 d13f 0282 cac0
00000130: 5c8a e1c1 8194 cd41 6ca5 1bc1 ced2 9341
00000140: 409b f8c1 565e a2c0 864c 43c0 8905 3bc1
00000150: 1baf 9841 32eb 563f a423 49c0 cceb cfbf
00000160: 08e0 a3c1 8c5c 833e fec8 97c0 1e46 bc41
00000170: e200 d440 cd0d fc41 0570 78c1 5048 5dc1
00000180: 4fb7 35c1 0631 4cc1 7ecb cdc1 69cb a4c0
00000190: ad58 c641 bb84 a240 2ea6 a940 2aca 0242
000001a0: 3a99 70c0 f4c2 b241 fc79 14c0 5e3b 71c1
000001b0: ea2d 3ac2 0ac2 3741 9b8f b441 9707 ae40
000001c0: c337 fbbe 0cdb b141 cc07 96c1 4dc3 9741
000001d0: 2167 3a41 82bc 4a41 d350 8c40 2e8c 03c1
000001e0: e9c5 a141 5cda 2941 39c1 c0c1 285c 9941
000001f0: 4043 60c1 471b b941 2d9d 7cc0 e18c 14c2
00000200: 7109 bcc1 ebe6 f141 c927 5241 b87f 9441
00000210: c760 8341 ffc2 88c1 4aea 5141 b4c9 a8c0
00000220: ba1b 94c1 5897 92c1 27e0 f540 8042 c53f
00000230: 6a1b 32c0 86bb 20c2 7a33 353f 34fe f1c1
00000240: 1830 bf3f 856e 3ac1 e8a5 91c0 8ba6 4840
00000250: e3fe 0fc1 302a 7ac1 2e3c ebc1 f04b 6dbf
00000260: 3bf6 d241 7cd5 b741 6120 9541 0cb7 da41
00000270: 0c07 c63f 201a f941 a1e8 9541 11b4 c441
00000280: 124a 4240 f6b2 4bc0 9fbe 81c1 1d0e 1c41
00000290: 9222 1241 efed 1841 3cbe 7d40 ae72 a241
000002a0: 9dbc f740 e63d 58c0 d3a5 d4c0 1349 54c1
000002b0: 108e 1741 86e2 20c1 cb92 8a41 7d86 a5c0
000002c0: 2584 9341 7481 4e41 eb3f 6f41 f0d0 60c0
000002d0: 5cdb d7c1 cb19 4e41 cdb7 b83f 1ce6 e63f
000002e0: c87b ec40 fcf5 bdc1 dd8c 5040 006f 5fc1
000002f0: 372b 8a41 dcda 26c1 c0d8 1241 d6e9 35c1
00000300: c403 fcc1 96bc 19c2 8f5e 23c1 25b3 b541
00000310: c809 0dc0 1bcd db41 4973 bc41 c311 9d40
00000320: 0459 d6bf 0083 0dc1 577f c040 ece1 1bc2
00000330: 4e7d 97c1 d3f3 efc1 207c d5c0 3518 7c41
00000340: 24b7 2cc0 ffe4 78c1 818e 25c1 1bbe 9241
00000350: dbe5 acc1 4428 5541 ee80 de3e 4d19 a241
00000360: 3c29 18be ddc0 b541 aaae 0f41 91e5 8c40
00000370: 812b 9041 8817 cbbf a1db 65c1 92ce cd3f
00000380: a6ec 1ec1 5381 fbc1 be21 17c0 a668 303f
00000390: 4dd9 25c2 d9bf 4fc0 4bbe 9941 b56a 48c1
000003a0: 4da4 a0c1 d7c1 2d41 8271 16c1 9967 6841
000003b0: b85c 6141 b445 cb3e 06a4 3241 7aff 2d41
000003c0: 2e8d 5dc1 e308 dc40 7807 85c1 4245 0b41
000003d0: e55b 7b41 6a57 3c41 27f0 c3c1 56cb 623f
000003e0: a077 3a40 fb7e cac1 2b44 a741 f6b7 67c1
000003f0: 85d1 0041 0aa4 bc40 c49b 2a41 25d1 0cc1

d1.bias f4 [16]
2.2711759 0.6570115 -1.3010533 -4.0403256 -31.117088 1.315869 0.36468795 -24.37251
15.606547 -30.89347 -12.113578 -11.10647 -20.766886 0.6549679 0.8826046 -15.599813
00000000: f25a 1140 e831 283f ea88 a6bf 594a 81c0
00000010: ccef f8c1 656e a83f 61b8 ba3e e7fa c2c1
00000020: 6bb4 7941 d425 f7c1 37d1 41c1 1ab4 31c1
00000030: 9522 a6c1 faab 273f 60f2 613f d698 79c1

d2.weight f4 [1, 16, 3, 3]
-12.694079 -23.236427 17.668663 6.162358 -11.220726 -5.5864034 -11.794866 -19.853617
0.82934356 -10.322145 29.281511 -5.0570993 25.687815 -5.6908445 9.78427 6.5827165
0.62943625 -35.01975 3.0109587 -0.023679145 -16.505161 9.671107 -13.811661 21.706879
-19.070122 -16.854828 -7.027478 -20.3073 -10.147164 -22.703367 0.46904874 -25.06659
-24.501554 -0.04564759 14.7005205 -26.664394 2.7249925 -36.469128 -1.6414008 -30.02528
-4.4962764 -21.130495 -9.819849 -40.32974 20.741018 2.1607656 -2.1711197 7.1089916
-16.159718 4.8957253 -14.157952 -1.2827852 4.6629 -25.308826 -4.941537 -6.6550584
-11.542652 -15.071282 17.260382 -3.9723032 20.708134 8.323178 -19.102846 -3.2470217
16.393934 -14.431453 8.170244 -28.420958 3.7393365 0.08003395 7.1933637 -12.628116
-4.924334 -27.58571 3.8372076 -5.4006443 -14.698449 -13.438468 14.227132 -14.855629
20.386152 -22.85175 -9.343579 16.04402 -21.049969 -28.654085 -12.3892145 -1.0243261
-16.323195 -20.640118 -0.39646953 -8.154244 35.638676 8.113509 16.675173 -7.5859504
10.717799 -18.659996 0.6769074 -2.2878103 2.1549041 -3.3346784 -4.1190696 -6.263656
-4.95059 -10.877686 7.8581605 -25.06151 -0.564769 -6.058948 -13.371215 -10.732666
-29.148104 8.06493 -31.07167 -3.3106484 -16.785137 7.621566 -5.9033647 21.598612
-28.314281 6.7131505 -44.871872 23.89277 -19.752943 16.832378 10.695667 -3.1659777
-6.8740067 11.830602 -15.054654 -6.1035304 22.75207 5.8690834 -13.059852 22.692665
-20.543425 32.67486 -18.435555 18.870783 -6.130825 -2.3764591 12.744524 35.96711
00000000: f31a 4bc1 34e4 b9c1 6c59 8d41 0932 c540
00000010: 1888 33c1 d1c3 b2c0 c5b7 3cc1 35d4 9ec1
00000020: dc4f 543f 8227 25c1 8940 ea41 c2d3 a1c0
00000030: a580 cd41 661b b6c0 5f8c 1c41 9da5 d240
00000040: bc22 213f 3914 0cc2 8cb3 4040 c4fa c1bc
00000050: 920a 84c1 dbbc 1a41 90fc 5cc1 b0a7 ad41
00000060: 9c8f 98c1 b0d6 86c1 1ae1 e0c0 5a75 a2c1
00000070: c95a 22c1 7fa0 b5c1 2827 f03e 6088 c8c1
00000080: 2f03 c4c1 f8f8 3abd 5535 6b41 ae50 d5c1
00000090: 4766 2e40 63e0 11c2 6c19 d2bf c633 f0c1
000000a0: 7fe1 8fc0 410b a9c1 1a1e 1dc1 a751 21c2
000000b0: 9bed a541 fc49 0a40 a0f3 0ac0 dc7c e340
000000c0: 1a47 81c1 c8a9 9c40 f986 62c1 4e32 a4bf
000000d0: 7a36 9540 7a78 cac1 1221 9ec0 3df6 d4c0
000000e0: b4ae 38c1 f923 71c1 4315 8a41 373a 7ec0
000000f0: 42aa a541 bd2b 0541 a1d2 98c1 34cf 4fc0
00000100: c726 8341 3be7 66c1 52b9 0241 1f5e e3c1
00000110: 4a51 6f40 d7e8 a33d 0930 e640 c30c 4ac1
00000120: 2594 9dc0 89af dcc1 cf94 7540 14d2 acc0
00000130: d92c 6bc1 f703 57c1 55a2 6341 a8b0 6dc1
00000140: d716 a341 62d0 b6c1 4d7f 15c1 275a 8041
00000150: 5666 a8c1 913b e5c1 393a 46c1 1e1d 83bf
00000160: e795 82c1 f61e a5c1 0efe cabe c977 02c1
00000170: 018e 0e42 efd0 0141 c166 8541 1bc0 f2c0
00000180: 1b7c 2b41 ac47 95c1 ce49 2d3f 7c6b 12c0
00000190: f3e9 0940 5f6b 55c0 6bcf 83c0 df6f c8c0
000001a0: 3c6b 9ec0 000b 2ec1 0d76 fb40 f97d c8c1
000001b0: b494 10bf e7e2 c1c0 7ff0 55c1 00b9 2bc1
000001c0: 512f e9c1 f409 0141 c892 f8c1 aae1 53c0
000001d0: f647 86c1 dee3 f340 5de8 bcc0 f5c9 ac41
000001e0: a683 e2c1 21d2 d640 cc7c 33c2 6524 bf41
000001f0: 0706 9ec1 b6a8 8641 7421 2b41 619f 4ac0
00000200: ddf7 dbc0 254a 3d41 dddf 70c1 1f50 c3c0
00000210: 3d04 b641 88cf bb40 27f5 50c1 948a b541
00000220: ef58 a4c1 0eb3 0242 047c 93c1 5df7 9641
00000230: b82f c4c0 e817 18c0 92e9 4b41 52de 0f42

encoder.0.weight f4 [16, 1, 3, 3]
-23.7259 -48.836052 -19.788923 23.023106 -5.081224 -4.5248733 17.800621 11.362572
-27.71527 -2.482779 8.652838 -1.0994191 13.307772 -19.922522 -9.008637 16.95031
-10.527273 14.683888 -8.496711 24.161228 -8.431889 22.280645 0.2737975 32.77935
-18.870153 27.493206 -0.17967603 -7.137413 -52.40541 -7.102624 -4.4746447 19.534878
-24.265417 12.535876 -29.331818 -4.2271013 -6.202997 -8.665028 -14.815875 -6.6520424
-24.909575 -23.06833 -18.313673 -5.0435433 -8.511531 -18.889318 -0.09056866 -0.9918709
-18.741425 -21.440708 -3.4185224 -19.400904 -21.751308 -12.226919 4.101586 -3.2358155
-6.3991218 4.357037 -0.40984833 -26.786264 3.401946 -21.57909 0.2796302 12.664669
-6.490864 3.215568 -10.15534 1.0788383 -16.288445 21.43259 -9.339664 25.569664
-5.3199825 11.125954 18.392275 19.51317 31.659506 -26.223166 4.6838913 5.0857096
21.121466 -10.906006 8.246081 8.970678 14.140723 18.064734 -7.4033966 35.667645
1.75816 3.3895364 -19.23803 17.948507 -0.14948927 19.419535 -3.4343789 -1.3973707
9.907458 15.721312 14.932665 15.408477 9.245942 -8.8307495 24.43316 3.6111453
-9.468874 -23.599218 20.758728 4.072512 -4.661509 -12.507003 0.6018223 22.040874
15.199979 24.373959 22.21277 3.4471152 -16.105015 4.4307218 0.26842597 -17.623957
-8.66883 -41.37734 -27.168127 -12.052184 -6.4420347 6.895283 -21.272741 17.547688
-10.47459 30.465853 -13.320323 4.3089933 -21.466272 -0.26710537 -0.69302 -7.3403687
-31.939714 6.8200383 -3.9428244 20.758785 1.0285773 -14.645957 -33.344463 7.221048
00000000: a5ce bdc1 1e58 43c2 b74f 9ec1 522f b841
00000010: 6399 a2c0 c3cb 90c0 ac67 8e41 18cd 3541
00000020: dfb8 ddc1 dae5 1ec0 0672 0a41 c4b9 8cbf
00000030: a2ec 5441 5361 9fc1 6123 10c1 3c9a 8741
00000040: b66f 28c1 35f1 6a41 87f2 07c1 324a c141
00000050: 04e9 06c1 c33e b241 302f 8c3e 0e1e 0342
00000060: 13f6 96c1 16f2 db41 fefc 37be b065 e4c0
00000070: 249f 51c2 b248 e3c0 4a30 8fc0 6e47 9c41
00000080: 931f c2c1 f392 4841 90a7 eac1 6a44 87c0
00000090: f47e c6c0 f4a3 0ac1 d30d 6dc1 88dd d4c0
000000a0: cf46 c7c1 f18b b8c1 6782 92c1 b564 a1c0
000000b0: 3b2f 08c1 531d 97c1 107c b9bd 40eb 7dbf
000000c0: 70ee 95c1 9286 abc1 12c9 5ac0 0d35 9bc1
000000d0: ae02 aec1 76a1 43c1 3140 8340 9a17 4fc0
000000e0: 9bc5 ccc0 d96c 8b40 a4d7 d1be 454a d6c1
000000f0: 7cb9 5940 faa1 acc1 b12b 8f3e 7ca2 4a41
00000100: 28b5 cfc0 decb 4d40 467c 22c1 6017 8a3f
00000110: bc4e 82c1 f275 ab41 446f 15c1 ac8e cc41
00000120: 4c3d aac0 e803 3241 6123 9341 f91a 9c41
00000130: ab46 fd41 0bc9 d1c1 70e2 9540 22be a240
00000140: c3f8 a841 007f 2ec1 f3ef 0341 e687 0f41
00000150: 6740 6241 9384 9041 a0e8 ecc0 abab 0e42
00000160: 630b e13f 2aee 5840 7ce7 99c1 8b96 8f41
00000170: b713 19be 355b 9b41 ddcc 5bc0 0bdd b2bf
00000180: f384 1e41 7e8a 7b41 32ec 6e41 1f89 7641
00000190: 61ef 1341 c04a 0dc1 1d77 c341 011d 6740
000001a0: 8280 17c1 33cb bcc1 e011 a641 0552 8240
000001b0: 152b 95c0 af1c 48c1 0711 1a3f b653 b041
000001c0: 1d33 7341 defd c241 c1b3 b141 899d 5c40
000001d0: 12d7 80c1 79c8 8d40 216f 893e ddfd 8cc1
000001e0: 87b3 0ac1 6582 25c2 5358 d9c1 bfd5 40c1
000001f0: 2625 cec0 29a6 dc40 932e aac1 aa61 8c41
00000200: ec97 27c1 11ba f341 0b20 55c1 46e3 8940
00000210: edba abc1 09c2 88be c269 31bf 4de4 eac0
00000220: 8984 ffc1 c13d da40 3c57 7cc0 fe11 a641
00000230: 6ca8 833f d755 6ac1 bb60 05c2 d312 e740

encoder.0.bias f4 [16]
13.491166 54.7212 -4.308134 21.09326 -9.746608 11.270894 18.955872 -22.152561
-17.188745 2.7419066 -30.438362 -24.879526 -2.3444664 0.3348448 -15.84478 -9.711842
00000000: d1db 5741 82e2 5a42 3cdc 89c0 ffbe a841
00000010: 1bf2 1bc1 9555 3441 a0a5 9741 7238 b1c1
00000020: 8d82 89c1 667b 2f40 c481 f3c1 4509 c7c1
00000030: bd0b 16c0 c770 ab3e 3884 7dc1 b463 1bc1

encoder.2.weight f4 [32, 16, 3, 3]
3.6751664 -13.576356 -7.812671 3.5851793 -35.38063 -8.344324 -33.135326 7.369053
10.316701 -8.787202 -6.6602116 49.138683 -21.24268 10.650821 -49.890152 -11.932392
-31.546843 -14.545078 -18.39051 -16.781885 -18.708454 -11.86137 5.9694133 -6.227485
-38.324932 1.1164682 -19.87418 -4.041146 -11.017352 14.540691 -14.233448 10.263886
-2.504232 -5.7659297 28.55852 40.60227 -4.3742757 7.0579576 7.21539 -4.6359982
-8.865524 21.95209 -2.9867275 -29.114088 -10.7787075 -17.577255 -0.65642744 -4.903245
-9.955563 -23.134077 -22.06296 2.038565 -13.176127 18.776413 27.557356 15.308434
-19.665476 -56.888393 -22.76621 -16.844313 -7.6355214 -11.656563 -7.0863786 13.843341
12.526648 -19.463224 -2.2631328 13.410664 0.009112507 -20.578695 -11.821625 -5.251625
-3.5465553 1.6478227 11.40487 17.959627 -1.9083163 5.4484468 27.834978 -11.426737
20.686842 24.230263 -13.050224 -12.907924 -5.2820954 20.39859 -10.044086 -5.6679583
14.757304 -11.054824 1.0088756 23.792196 -2.7010362 -10.843889 -6.0000362 -7.254741
-8.139012 -18.179329 -15.028599 -7.2169747 -16.277634 35.709866 5.7068825 -16.473326
5.4520907 -22.152803 -8.571451 -18.374327 9.473051 26.78233 24.019918 7.157854
-19.235737 6.185578 37.369473 5.628371 36.271366 -8.197647 -15.024865 12.23927
-12.173584 -8.950816 10.412549 1.5570782 -11.993032 8.790327 12.789883 -25.29835
17.562868 -15.817971 27.129618 -9.50493 5.3696656 14.357125 -18.423223 -24.45683
-2.5785239 6.956259 4.069901 23.110624 8.223314 -1.3923935 -10.380058 -31.81296
16.42614 5.608676 7.436902 -3.6759048 4.524012 -25.029083 -13.368891 -14.4721365
-18.601713 -12.457485 -0.28742537 -0.96080124 16.794226 8.466645 25.21044 -0.053068116
30.933397 27.461693 -6.7490687 8.328761 -10.2535715 24.68639 -5.1244407 10.494572
27.013014 -14.45713 4.0842066 -8.688546 -32.01523 3.920561 23.967264 -1.0966378
14.835859 -20.806892 -12.630392 6.448533 7.7105546 13.828071 18.195026 14.961505
8.591463 9.887153 -1.2683649 6.3899164 20.173668 17.49387 44.809803 4.143882
20.005434 15.650707 -8.475407 -0.6515242 7.708293 -1.8719503 -31.2395 35.14666
23.03302 17.756702 -5.1329236 -15.95077 -10.568334 -18.2863 -8.132767 8.801684
18.172773 28.220861 -19.380095 13.102338 23.440401 1.0416099 -46.7652 -8.524981
-16.667141 -15.189376 0.7713824 -3.6701279 -0.797981 -39.10077 12.709637 46.869007
-7.7405133 -22.297768 -8.107145 20.540937 0.47878686 4.266353 40.609356 -6.7600737
-2.617307 -37.92951 -15.424615 -8.066322 -10.869535 17.623964 15.813305 -23.360947
-2.9542232 -4.277785 -8.696967 34.956635 -10.123463 1.3311894 -8.206767 -28.213211
32.358532 -11.905964 -12.315368 -8.627045 -4.2516656 -23.418764 -4.0152655 -9.964724
00000000: ed35 6b40 c138 59c1 6701 fac0 9473 6540
00000010: c485 0dc2 5a82 05c1 938a 04c2 48cf eb40
00000020: 3511 2541 6198 0cc1 7420 d5c0 038e 4442
00000030: 02f1 a9c1 c369 2a41 848f 47c2 14eb 3ec1
00000040: ef5f fcc1 a4b8 68c1 c41f 93c1 4d41 86c1
00000050: eaaa 95c1 2cc8 3dc1 6f05 bf40 8f47 c7c0
00000060: bb4c 19c2 6ee8 8e3f 52fe 9ec1 1151 81c0
00000070: 1347 30c1 aca6 6841 34bc 63c1 e138 2441
00000080: 5645 20c0 7f82 b8c0 d977 e441 b968 2242
00000090: 11fa 8bc0 cada e140 7ae4 e640 195a 94c0
000000a0: 30d9 0dc1 e19d af41 8b26 3fc0 a7e9 e8c1
000000b0: 9675 2cc1 389e 8cc1 a10b 28bf 62e7 9cc0
000000c0: fc49 1fc1 9712 b9c1 f180 b0c1 d977 0240
000000d0: 6bd1 52c1 1836 9641 7775 dc41 58ef 7441
000000e0: e552 9dc1 b78d 63c2 3321 b6c1 27c1 86c1
000000f0: 3156 f4c0 4881 3ac1 9dc3 e2c0 537e 5d41
00000100: 266d 4841 afb4 9bc1 2bd7 10c0 1492 5641
00000110: a04c 153c 2ba1 a4c1 6025 3dc1 500d a8c0
00000120: c3fa 62c0 dbeb d23f 597a 3641 51ad 8f41
00000130: b543 f4bf ad59 ae40 09ae de41 ead3 36c1
00000140: a77e a541 94d7 c141 b8cd 50c1 db86 4ec1
00000150: ed06 a9c0 5030 a341 94b4 20c1 ea5f b5c0
00000160: eb1d 6c41 8fe0 30c1 d622 813f 6b56 be41
00000170: c7dd 2cc0 9280 2dc1 4c00 c0c0 d726 e8c0
00000180: 6539 02c1 446f 91c1 2475 70c1 75f1 e6c0
00000190: 9838 82c1 e7d6 0e42 c89e b640 5fc9 83c1
000001a0: 8777 ae40 f138 b1c1 aa24 09c1 9ffe 92c1
000001b0: 9e91 1741 3642 d641 cb28 c041 240d e540
000001c0: cae2 99c1 41f0 c540 577a 1542 9d1b b440
000001d0: e115 1142 9029 03c1 d965 70c1 0dd4 4341
000001e0: 00c7 42c1 8b36 0fc1 cd99 2641 574e c73f
000001f0: 76e3 3fc1 2ea5 0c41 5ca3 4c41 0563 cac1
00000200: c180 8c41 6916 7dc1 7509 d941 3114 18c1
00000210: 4dd4 ab40 c9b6 6541 c362 93c1 96a7 c3c1
00000220: 8906 25c0 ac99 de40 a13c 8240 8fe2 b841
00000230: b292 0341 f339 b2bf b814 26c1 f180 fec1
00000240: bc68 8341 467a b340 1afb ed40 0642 6bc0
00000250: b5c4 9040 903b c8c1 fae6 55c1 df8d 67c1
00000260: 4fd0 94c1 dc51 47c1 6b29 93be 12f7 75bf
00000270: 935a 8641 6177 0741 fbae c941 f45d 59bd
00000280: 9977 f741 8cb1 db41 5ff8 d7c0 9b42 0541
00000290: a10e 24c1 ba7d c541 6bfb a3c0 c4e9 2741
000002a0: a71a d841 6850 67c1 d2b1 8240 4904 0bc1
000002b0: 980f 00c2 79ea 7a40 f5bc bf41 a15e 8cbf
000002c0: ae5f 6d41 8474 a6c1 1616 4ac1 625a ce40
000002d0: ddbc f640 c73f 5d41 6a8f 9141 5362 6f41
000002e0: a276 0941 c731 1e41 c859 a2bf 327a cc40
000002f0: ac63 a141 72f3 8b41 3d3d 3342 ae9a 8440
00000300: 210b a041 4c69 7a41 449b 07c1 4aca 26bf
00000310: 56aa f640 119c efbf 7fea f9c1 2e96 0c42
00000320: a043 b841 ba0d 8e41 e940 a4c0 5b36 7fc1
00000330: e517 29c1 584a 92c1 d01f 02c1 b3d3 0c41
00000340: d761 9141 53c4 e141 6f0a 9bc1 2da3 5141
00000350: f185 bb41 7953 853f 910f 3bc2 5266 08c1
00000360: 4e56 85c1 af07 73c1 5179 453f 60e3 6ac0
00000370: 7c48 4cbf 3067 1cc2 ac5a 4b41 dd79 3b42
00000380: 49b2 f7c0 d461 b2c1 deb6 01c1 d753 a441
00000390: 8d23 f53e f785 8840 fb6f 2242 8652 d8c0
000003a0: f581 27c0 d1b7 17c2 39cb 76c1 a80f 01c1
000003b0: 9ee9 2dc1 e1fd 8c41 4c03 7d41 38e3 bac1
000003c0: fe11 3dc0 9de3 88c0 c726 0bc1 98d3 0b42
000003d0: b4f9 21c1 6a64 aa3f eb4e 03c1 a8b4 e1c1
000003e0: 236f 0142 d47e 3ec1 bf0b 45c1 6008 0ac1
000003f0: a50d 88c0 a159 bbc1 0e7d 80c0 826f 1fc1

encoder.2.bias f4 [32]
4.756886 4.2599087 0.84813726 -4.112857 -10.561124 4.0227776 10.07399 -6.28884
-9.750136 1.2067804 -16.17301 -20.441227 6.541417 -30.33143 -41.80003 -2.547811
-38.568367 2.004683 30.254414 21.616974 25.17891 21.73417 -34.140133 -7.3398547
-2.7188077 0.9727918 -7.0503807 9.242029 3.155613 23.646051 23.709719 -6.278986
00000000: 6938 9840 2c51 8840 861f 593f 869c 83c0
00000010: 5dfa 28c1 98ba 8040 102f 2141 2d3e c9c0
00000020: 8f00 1cc1 c877 9a3f 5362 81c1 a287 a3c1
00000030: 4a53 d140 c5a6 f2c1 3b33 27c2 560f 23c0
00000040: 0246 1ac2 ba4c 0040 0a09 f241 90ef ac41
00000050: 686e c941 95df ad41 7f8f 08c2 17e0 eac0
00000060: f200 2ec0 e208 793f b89c e1c0 5adf 1341
00000070: 90f5 4940 1d2b bd41 81ad bd41 74ed c8c0

decoder.0.weight f4 [16, 32, 3, 3]
-16.7406 8.2690525 31.006342 -2.4195764 19.039251 -14.047923 -9.059385 10.443364
10.165659 -22.196987 -1.289919 -13.212055 -11.817904 -24.91725 33.04004 31.622137
36.591118 13.840748 7.8483324 30.758223 17.338379 7.2459416 -33.87537 9.475224
-26.973305 10.418686 -10.801406 14.845174 21.615927 4.2031164 8.502203 -0.77013385
-8.106477 10.126891 2.030469 -14.699584 -3.0220795 5.0787106 1.413001 4.3051376
33.24279 -13.1158495 -14.275326 -6.3490653 16.95641 -0.0026138723 -34.200092 25.441034
17.531042 -0.20875534 -0.6985721 18.77884 24.167274 -13.342796 12.939554 -0.46590057
-6.6856785 4.184174 -28.754723 -4.589562 -16.70854 -19.279215 10.334751 -18.04692
3.7248218 13.300545 -21.612198 -25.717754 15.813298 11.752661 -21.642725 0.93220174
2.982497 -17.22104 1.63299 -6.32837 -28.192558 25.697512 -9.727886 18.477932
-31.075806 -5.0740156 -3.0515456 -11.688851 19.0855 0.8395263 -3.1428003 -1.6243834
-20.48439 0.25656545 -4.743285 23.534237 6.625108 31.506739 -15.5273485 -13.830154
-11.357253 -12.761969 -25.724361 -5.1498303 24.793299 5.0787024 5.3015356 32.697426
-3.7593522 22.345192 -2.3199453 -15.076994 -46.544838 11.484873 22.57012 5.4384265
-0.4906598 22.231956 -18.753807 18.970362 11.650178 12.671022 4.384866 -8.221724
20.221636 10.61581 -24.094347 19.169998 -14.016418 23.138319 -3.9470932 -37.137577
-23.50461 30.237753 13.134713 18.562363 16.422255 -17.095213 13.1196995 -5.274622
-18.513538 -18.323898 7.6836123 1.5410919 -2.7829232 -40.18313 0.7078167 -30.249123
1.4936552 -11.651982 -4.551502 3.135165 -8.999728 -15.6353 -29.404385 -0.92693996
26.37023 22.97924 18.64081 27.339378 1.54709 31.137756 18.738588 24.587923
3.035771 -3.182798 -16.218077 9.753446 9.13344 9.558089 3.964736 20.305996
7.741774 -3.378778 -6.645242 -13.26784 9.472183 -10.055304 17.321676 -5.172667
18.439524 12.906605 14.953105 -3.5127525 -26.98211 12.881297 1.4431092 1.8038974
7.39011 -23.74511 3.2585976 -13.9646 17.271101 -10.428432 9.1779175 -11.369589
-31.501839 -38.434166 -10.210586 22.712473 -2.203722 27.47515 23.556292 4.908418
-1.6745915 -8.844482 6.0155444 -38.970627 -18.936184 -29.994055 -6.671402 15.75591
-2.698678 -15.555907 -10.347291 18.342825 -21.612234 13.32233 0.4345774 20.262354
-0.1485948 22.719172 8.980143 4.4030232 18.021242 -1.5866556 -14.36612 1.6078665
-9.9327755 -31.438147 -2.3614345 0.6890968 -41.462208 -3.2460845 19.217916 -12.5260515
-20.080225 10.859824 -9.402712 14.525292 14.085136 0.39701617 11.165045 10.874872
-13.846968 6.876085 -16.628647 8.704409 15.709935 11.771341 -24.492262 0.88591516
2.9135513 -25.312002 20.908285 -14.482412 8.051152 5.8950243 10.663029 -8.801061
00000000: c0ec 85c1 0a4e 0441 fd0c f841 57da 1ac0
00000010: 6350 9841 4bc4 60c1 3ef3 10c1 0518 2741
00000020: 8aa6 2241 6e93 b1c1 111c a5bf 9464 53c1
00000030: 2316 3dc1 8756 c7c1 0029 0442 23fa fc41
00000040: 4e5d 1242 b473 5d41 8a25 fb40 d710 f641
00000050: 00b5 8a41 c1de e740 6180 07c2 849a 1741
00000060: 54c9 d7c1 f0b2 2641 8fd2 2cc1 d585 6d41
00000070: 6bed ac41 ee7f 8640 0609 0841 7e27 45bf
00000080: 21b4 01c1 bf07 2241 34f3 0140 7f31 6bc1
00000090: c069 41c0 cc84 a240 37dd b43f b0c3 8940
000000a0: 9ef8 0442 85da 51c1 bc67 64c1 8b2b cbc0
000000b0: baa6 8741 804d 2bbb e5cc 08c2 3d87 cb41
000000c0: 933f 8c41 f6c3 55be 9fd5 32bf 103b 9641
000000d0: 9456 c141 187c 55c1 6a08 4f41 858a eebe
000000e0: 14f1 d5c0 c1e4 8540 ac09 e6c1 b1dd 92c0
000000f0: 17ab 85c1 d53b 9ac1 245b 2541 1860 90c1
00000100: 7b63 6e40 08cf 5441 c8e5 acc1 f6bd cdc1
00000110: 4503 7d41 e60a 3c41 4d24 adc1 c6a4 6e3f
00000120: 3be1 3e40 b1c4 89c1 d105 d13f 0282 cac0
00000130: 5c8a e1c1 8194 cd41 6ca5 1bc1 ced2 9341
00000140: 409b f8c1 565e a2c0 864c 43c0 8905 3bc1
00000150: 1baf 9841 32eb 563f a423 49c0 cceb cfbf
00000160: 08e0 a3c1 8c5c 833e fec8 97c0 1e46 bc41
00000170: e200 d440 cd0d fc41 0570 78c1 5048 5dc1
00000180: 4fb7 35c1 0631 4cc1 7ecb cdc1 69cb a4c0
00000190: ad58 c641 bb84 a240 2ea6 a940 2aca 0242
000001a0: 3a99 70c0 f4c2 b241 fc79 14c0 5e3b 71c1
000001b0: ea2d 3ac2 0ac2 3741 9b8f b441 9707 ae40
000001c0: c337 fbbe 0cdb b141 cc07 96c1 4dc3 9741
000001d0: 2167 3a41 82bc 4a41 d350 8c40 2e8c 03c1
000001e0: e9c5 a141 5cda 2941 39c1 c0c1 285c 9941
000001f0: 4043 60c1 471b b941 2d9d 7cc0 e18c 14c2
00000200: 7109 bcc1 ebe6 f141 c927 5241 b87f 9441
00000210: c760 8341 ffc2 88c1 4aea 5141 b4c9 a8c0
00000220: ba1b 94c1 5897 92c1 27e0 f540 8042 c53f
00000230: 6a1b 32c0 86bb 20c2 7a33 353f 34fe f1c1
00000240: 1830 bf3f 856e 3ac1 e8a5 91c0 8ba6 4840
00000250: e3fe 0fc1 302a 7ac1 2e3c ebc1 f04b 6dbf
00000260: 3bf6 d241 7cd5 b741 6120 9541 0cb7 da41
00000270: 0c07 c63f 201a f941 a1e8 9541 11b4 c441
00000280: 124a 4240 f6b2 4bc0 9fbe 81c1 1d0e 1c41
00000290: 9222 1241 efed 1841 3cbe 7d40 ae72 a241
000002a0: 9dbc f740 e63d 58c0 d3a5 d4c0 1349 54c1
000002b0: 108e 1741 86e2 20c1 cb92 8a41 7d86 a5c0
000002c0: 2584 9341 7481 4e41 eb3f 6f41 f0d0 60c0
000002d0: 5cdb d7c1 cb19 4e41 cdb7 b83f 1ce6 e63f
000002e0: c87b ec40 fcf5 bdc1 dd8c 5040 006f 5fc1
000002f0: 372b 8a41 dcda 26c1 c0d8 1241 d6e9 35c1
00000300: c403 fcc1 96bc 19c2 8f5e 23c1 25b3 b541
00000310: c809 0dc0 1bcd db41 4973 bc41 c311 9d40
00000320: 0459 d6bf 0083 0dc1 577f c040 ece1 1bc2
00000330: 4e7d 97c1 d3f3 efc1 207c d5c0 3518 7c41
00000340: 24b7 2cc0 ffe4 78c1 818e 25c1 1bbe 9241
00000350: dbe5 acc1 4428 5541 ee80 de3e 4d19 a241
00000360: 3c29 18be ddc0 b541 aaae 0f41 91e5 8c40
00000370: 812b 9041 8817 cbbf a1db 65c1 92ce cd3f
00000380: a6ec 1ec1 5381 fbc1 be21 17c0 a668 303f
00000390: 4dd9 25c2 d9bf 4fc0 4bbe 9941 b56a 48c1
000003a0: 4da4 a0c1 d7c1 2d41 8271 16c1 9967 6841
000003b0: b85c 6141 b445 cb3e 06a4 3241 7aff 2d41
000003c0: 2e8d 5dc1 e308 dc40 7807 85c1 4245 0b41
000003d0: e55b 7b41 6a57 3c41 27f0 c3c1 56cb 623f
000003e0: a077 3a40 fb7e cac1 2b44 a741 f6b7 67c1
000003f0: 85d1 0041 0aa4 bc40 c49b 2a41 25d1 0cc1

decoder.0.bias f4 [16]
2.2711759 0.6570115 -1.3010533 -4.0403256 -31.117088 1.315869 0.36468795 -24.37251
15.606547 -30.89347 -12.113578 -11.10647 -20.766886 0.6549679 0.8826046 -15.599813
00000000: f25a 1140 e831 283f ea88 a6bf 594a 81c0
00000010: ccef f8c1 656e a83f 61b8 ba3e e7fa c2c1
00000020: 6bb4 7941 d425 f7c1 37d1 41c1 1ab4 31c1
00000030: 9522 a6c1 faab 273f 60f2 613f d698 79c1

decoder.2.weight f4 [1, 16, 3, 3]
-12.694079 -23.236427 17.668663 6.162358 -11.220726 -5.5864034 -11.794866 -19.853617
0.82934356 -10.322145 29.281511 -5.0570993 25.687815 -5.6908445 9.78427 6.5827165
0.62943625 -35.01975 3.0109587 -0.023679145 -16.505161 9.671107 -13.811661 21.706879
-19.070122 -16.854828 -7.027478 -20.3073 -10.147164 -22.703367 0.46904874 -25.06659
-24.501554 -0.04564759 14.7005205 -26.664394 2.7249925 -36.469128 -1.6414008 -30.02528
-4.4962764 -21.130495 -9.819849 -40.32974 20.741018 2.1607656 -2.1711197 7.1089916
-16.159718 4.8957253 -14.157952 -1.2827852 4.6629 -25.308826 -4.941537 -6.6550584
-11.542652 -15.071282 17.260382 -3.9723032 20.708134 8.323178 -19.102846 -3.2470217
16.393934 -14.431453 8.170244 -28.420958 3.7393365 0.08003395 7.1933637 -12.628116
-4.924334 -27.58571 3.8372076 -5.4006443 -14.698449 -13.438468 14.227132 -14.855629
20.386152 -22.85175 -9.343579 16.04402 -21.049969 -28.654085 -12.3892145 -1.0243261
-16.323195 -20.640118 -0.39646953 -8.154244 35.638676 8.113509 16.675173 -7.5859504
10.717799 -18.659996 0.6769074 -2.2878103 2.1549041 -3.3346784 -4.1190696 -6.263656
-4.95059 -10.877686 7.8581605 -25.06151 -0.564769 -6.058948 -13.371215 -10.732666
-29.148104 8.06493 -31.07167 -3.3106484 -16.785137 7.621566 -5.9033647 21.598612
-28.314281 6.7131505 -44.871872 23.89277 -19.752943 16.832378 10.695667 -3.1659777
-6.8740067 11.830602 -15.054654 -6.1035304 22.75207 5.8690834 -13.059852 22.692665
-20.543425 32.67486 -18.435555 18.870783 -6.130825 -2.3764591 12.744524 35.96711
00000000: f31a 4bc1 34e4 b9c1 6c59 8d41 0932 c540
00000010: 1888 33c1 d1c3 b2c0 c5b7 3cc1 35d4 9ec1
00000020: dc4f 543f 8227 25c1 8940 ea41 c2d3 a1c0
00000030: a580 cd41 661b b6c0 5f8c 1c41 9da5 d240
00000040: bc22 213f 3914 0cc2 8cb3 4040 c4fa c1bc
00000050: 920a 84c1 dbbc 1a41 90fc 5cc1 b0a7 ad41
00000060: 9c8f 98c1 b0d6 86c1 1ae1 e0c0 5a75 a2c1
00000070: c95a 22c1 7fa0 b5c1 2827 f03e 6088 c8c1
00000080: 2f03 c4c1 f8f8 3abd 5535 6b41 ae50 d5c1
00000090: 4766 2e40 63e0 11c2 6c19 d2bf c633 f0c1
000000a0: 7fe1 8fc0 410b a9c1 1a1e 1dc1 a751 21c2
000000b0: 9bed a541 fc49 0a40 a0f3 0ac0 dc7c e340
000000c0: 1a47 81c1 c8a9 9c40 f986 62c1 4e32 a4bf
000000d0: 7a36 9540 7a78 cac1 1221 9ec0 3df6 d4c0
000000e0: b4ae 38c1 f923 71c1 4315 8a41 373a 7ec0
000000f0: 42aa a541 bd2b 0541 a1d2 98c1 34cf 4fc0
00000100: c726 8341 3be7 66c1 52b9 0241 1f5e e3c1
00000110: 4a51 6f40 d7e8 a33d 0930 e640 c30c 4ac1
00000120: 2594 9dc0 89af dcc1 cf94 7540 14d2 acc0
00000130: d92c 6bc1 f703 57c1 55a2 6341 a8b0 6dc1
00000140: d716 a341 62d0 b6c1 4d7f 15c1 275a 8041
00000150: 5666 a8c1 913b e5c1 393a 46c1 1e1d 83bf
00000160: e795 82c1 f61e a5c1 0efe cabe c977 02c1
00000170: 018e 0e42 efd0 0141 c166 8541 1bc0 f2c0
00000180: 1b7c 2b41 ac47 95c1 ce49 2d3f 7c6b 12c0
00000190: f3e9 0940 5f6b 55c0 6bcf 83c0 df6f c8c0
000001a0: 3c6b 9ec0 000b 2ec1 0d76 fb40 f97d c8c1
000001b0: b494 10bf e7e2 c1c0 7ff0 55c1 00b9 2bc1
000001c0: 512f e9c1 f409 0141 c892 f8c1 aae1 53c0
000001d0: f647 86c1 dee3 f340 5de8 bcc0 f5c9 ac41
000001e0: a683 e2c1 21d2 d640 cc7c 33c2 6524 bf41
000001f0: 0706 9ec1 b6a8 8641 7421 2b41 619f 4ac0
00000200: ddf7 dbc0 254a 3d41 dddf 70c1 1f50 c3c0
00000210: 3d04 b641 88cf bb40 27f5 50c1 948a b541
00000220: ef58 a4c1 0eb3 0242 047c 93c1 5df7 9641
00000230: b82f c4c0 e817 18c0 92e9 4b41 52de 0f42
