candidate_networks/inet6_7.pt (torch, 41295 bytes, 14 tensors)

c1.weight f4 [16, 1, 3, 3]
-23.726042 -49.03109 -20.000755 22.35077 -5.305086 -4.3240595 17.586853 11.286819
-27.885569 -2.1766083 9.035573 -1.2837733 13.527756 -20.00162 -9.285422 16.26404
-10.43466 14.506813 -8.982617 24.035044 -7.8677397 22.904762 -0.12825528 32.922882
-18.726995 27.205626 0.24171677 -6.9890385 -52.708923 -7.243972 -4.995575 19.586605
-24.46117 13.177803 -29.227644 -3.5243118 -5.818718 -8.309178 -14.835328 -7.1258373
-24.744349 -23.277496 -18.367708 -4.8598385 -8.766688 -19.174864 0.16344659 -0.86012185
-18.465275 -21.667652 -3.5648189 -18.737946 -21.571348 -12.642438 4.1703215 -2.5906444
-5.5847077 4.030019 -0.14663574 -26.499853 4.242042 -21.800087 0.20201336 12.922609
-6.494688 3.246854 -9.478325 1.4414301 -17.234697 22.134094 -9.541463 25.582981
-5.172955 11.227099 18.20572 20.012793 31.421305 -26.02247 4.411682 5.007351
21.268227 -10.399623 8.00028 8.805588 13.896483 18.18125 -7.066002 36.34877
1.270874 2.9026346 -19.167994 17.627771 -0.17943649 19.327677 -3.6854997 -0.81050754
9.85831 15.8090105 14.520228 15.149169 9.177296 -8.725376 24.15702 3.9608107
-9.717913 -23.63166 20.944048 3.3503323 -4.6454186 -12.836087 0.47128114 21.898134
15.150854 24.861631 22.670944 3.6322289 -16.120085 4.668703 1.0603303 -17.663595
-8.676043 -41.570976 -27.465887 -11.856393 -6.667706 6.5876245 -21.285692 17.481052
-10.514594 30.968996 -13.1079645 4.0832634 -21.149994 -0.18757327 -0.8171191 -7.5328894
-31.708704 6.423944 -4.390468 20.467777 1.1942062 -14.56476 -33.198753 7.2259336
00000000: efce bdc1 d61f 44c2 8c01 a0c1 61ce b241
00000010: 44c3 a9c0 b25e 8ac0 e0b1 8c41 d096 3441
00000020: a515 dfc1 8d4d 0bc0 b591 1041 af52 a4bf
00000030: b071 5841 5103 a0c1 1791 14c1 c11c 8241
00000040: 5ef4 26c1 e81b 6841 cdb8 0fc1 c547 c041
00000050: 86c4 fbc0 f43c b741 5a55 03be 08b1 0342
00000060: e3d0 95c1 1fa5 d941 9a84 773e 34a6 dfc0
00000070: f0d5 52c2 9ece e7c0 c0db 9fc0 5eb1 9c41
00000080: 7ab0 c3c1 48d8 5241 37d2 e9c1 538e 61c0
00000090: f032 bac0 65f2 04c1 815d 6dc1 dc06 e4c0
000000a0: 6df4 c5c1 5038 bac1 11f1 92c1 cc83 9bc0
000000b0: 5b44 0cc1 1f66 99c1 8b5e 273e f230 5cbf
000000c0: e2b8 93c1 5a57 adc1 fe25 64c0 50e7 95c1
000000d0: 1f92 acc1 6d47 4ac1 4673 8540 1ecd 25c0
000000e0: edb5 b2c0 eaf5 8040 ae27 16be b3ff d3c1
000000f0: cfbe 8740 9466 aec1 97dc 4e3e 02c3 4e41
00000100: 7cd4 cfc0 75cc 4f40 38a7 17c1 c880 b83f
00000110: a9e0 89c1 a012 b141 d5a9 18c1 f2a9 cc41
00000120: d988 a5c0 33a2 3341 51a5 9141 331a a041
00000130: d55e fb41 052e d0c1 802c 8d40 383c a040
00000140: 5425 aa41 db64 26c1 2601 0041 b0e3 0c41
00000150: ff57 5e41 3373 9141 b01c e2c0 2465 1142
00000160: 00ac a23f c4c4 3940 0d58 99c1 ad05 8d41
00000170: 33be 37be 159f 9a41 3adf 6bc0 6c7d 4fbf
00000180: a3bb 1d41 b5f1 7c41 db52 6841 ff62 7241
00000190: 34d6 1241 249b 0bc1 9441 c141 ec7d 7d40
000001a0: 927c 1bc1 a40d bdc1 698d a741 d86b 5640
000001b0: 45a7 94c0 9d60 4dc1 c34b f13e 612f af41
000001c0: e669 7241 9fe4 c641 185e b541 7076 6840
000001d0: eff5 80c1 0466 9540 e7b8 873f 0b4f 8dc1
000001e0: 12d1 0ac1 ae48 26c2 23ba dbc1 c9b3 3dc1
000001f0: d95d d5c0 d2cd d240 1949 aac1 32d9 8b41
00000200: c73b 28c1 81c0 f741 39ba 51c1 18aa 8240
00000210: 3033 a9c1 3513 40be b82e 51bf 6e0d f1c0
00000220: 6dab fdc1 f390 cd40 b77e 8cc0 02be a341
00000230: c0db 983f 4209 69c1 86cb 04c2 d93a e740

c1.bias f4 [16]
13.565141 54.638493 -4.5712633 21.165287 -9.939494 11.662806 19.365383 -22.183472
-17.386272 2.2305572 -30.274067 -24.584387 -2.698725 0.43735176 -15.452641 -9.665979
00000000: d10a 5941 d18d 5a42 ca47 92c0 8252 a941
00000010: 2b08 1fc1 da9a 3a41 4eec 9a41 c077 b1c1
00000020: 1617 8bc1 73c1 0e40 4a31 f2c1 d3ac c4c1
00000030: e9b7 2cc0 92ec df3e 043e 77c1 daa7 1ac1

c2.weight f4 [32, 16, 3, 3]
3.2570262 -13.761037 -8.357068 3.4914942 -35.1704 -8.432098 -33.100044 7.063274
10.950893 -8.660911 -6.883063 49.104076 -21.612324 10.386494 -50.600887 -12.257801
-31.435991 -14.329586 -18.278608 -15.931289 -19.255434 -11.60176 6.138921 -6.619631
-37.850956 0.69068205 -19.89352 -3.4874187 -10.321485 14.502458 -14.117154 10.479769
-2.4855576 -5.3319507 28.682926 40.343803 -5.1181226 7.6022983 7.8750772 -4.9152746
-8.634868 21.758839 -3.3490076 -29.124012 -11.307587 -17.501472 -0.92308986 -4.9993796
-10.231989 -22.893473 -20.982649 2.2572076 -12.854132 18.912718 27.791275 15.576683
-19.51813 -56.08281 -22.422115 -17.353106 -7.4862986 -11.217031 -6.1758842 13.759349
12.175323 -20.227367 -2.06875 13.535267 0.3601072 -20.575476 -12.74193 -4.984082
-2.9762738 1.9756585 12.297797 18.029274 -1.7770684 5.4442644 27.710999 -11.862297
20.614481 24.68893 -13.121995 -13.081172 -5.6826053 20.619772 -9.521811 -5.597731
15.303148 -10.676527 0.4538277 24.160439 -2.568445 -10.633077 -5.5396667 -7.4846396
-8.47935 -18.488846 -15.203429 -6.6737156 -16.430355 35.89571 5.5052466 -16.493525
5.2163253 -22.431768 -8.40839 -18.74597 9.457894 26.748705 23.807283 6.7239237
-19.241886 6.2102346 37.186657 5.9540205 35.993484 -8.212107 -14.458663 12.8399725
-12.686914 -8.521552 10.819297 1.5896275 -11.8051195 9.00169 12.797519 -25.317991
17.643482 -16.260164 26.858076 -9.588657 5.182722 14.148157 -18.304434 -24.112982
-1.7735436 7.347493 3.9324772 22.84278 8.953786 -0.8340954 -10.312948 -32.06713
16.316391 5.3079658 8.051238 -3.1973348 4.287947 -24.918932 -12.932019 -14.521952
-18.52154 -12.579012 -0.559877 -0.3938953 16.737408 8.986027 25.016996 -0.23621131
30.467953 26.974762 -6.9248786 8.221952 -10.817054 24.278505 -5.766917 9.859987
27.403837 -14.371671 3.3614283 -9.088627 -31.570534 3.7909515 23.789762 -0.8585125
15.410318 -20.823195 -13.068976 6.3037763 7.977079 13.320546 18.498508 14.609615
8.516706 9.974882 -1.3456508 6.8197565 20.309158 17.411451 44.635807 3.433288
19.582397 16.347057 -8.556888 -0.29690993 7.8262777 -2.566781 -31.809614 35.104023
22.897928 18.095253 -4.7778764 -16.089893 -10.591766 -18.814245 -7.6648035 8.828029
18.075193 28.066828 -19.079737 13.276727 23.42956 1.1355 -47.006058 -8.961435
-16.81824 -15.097583 0.70508087 -3.598481 -0.9443146 -38.451973 12.447991 47.69213
-7.797702 -22.533352 -8.521551 20.713757 -0.06430867 4.72368 40.466354 -7.231968
-2.3856792 -37.837547 -15.451713 -7.966633 -11.433643 17.451038 16.02901 -22.452505
-2.6066146 -4.4822645 -8.645063 35.16295 -10.511519 1.6995256 -7.7512903 -27.763975
32.452194 -11.995019 -13.050588 -8.673288 -4.063977 -23.535397 -3.509895 -10.095861
00000000: 1e73 5040 352d 5cc1 8db6 05c1 a474 5f40
00000010: 7dae 0cc2 e0e9 06c1 7266 04c2 5706 e240
00000020: dc36 2f41 1793 0ac1 0d42 dcc0 936a 4442
00000030: 0ae6 acc1 142f 2641 4f67 4ac2 f41f 44c1
00000040: e97c fbc1 fc45 65c1 973a 92c1 8fe6 7ec1
00000050: 210b 9ac1 cfa0 39c1 0a72 c440 04d4 d3c0
00000060: 6167 17c2 8ad0 303f ee25 9fc1 de31 5fc0
00000070: cd24 25c1 110a 6841 dddf 61c1 22ad 2741
00000080: 6013 1fc0 579f aac0 a276 e541 0e60 2142
00000090: a9c7 a3c0 0746 f340 a200 fc40 ee49 9dc0
000000a0: 6b28 0ac1 1a12 ae41 2456 56c0 fafd e8c1
000000b0: e0eb 34c1 0403 8cc1 9e4f 6cbf ebfa 9fc0
000000c0: 3ab6 23c1 d525 b7c1 77dc a7c1 1776 1040
000000d0: 86aa 4dc1 3f4d 9741 8854 de41 183a 7941
000000e0: 2125 9cc1 cc54 60c2 7e60 b3c1 29d3 8ac1
000000f0: c28f efc0 f578 33c1 d8a0 c5c0 4b26 5c41
00000100: 1fce 4241 a6d1 a1c1 6666 04c0 7490 5841
00000110: f95f b83e 939a a4c1 f2de 4bc1 9a7d 9fc0
00000120: 457b 3ec0 61e2 fc3f c7c3 4441 f43b 9041
00000130: fa76 e3bf 6a37 ae40 20b0 dd41 f8cb 3dc1
00000140: 75ea a441 ee82 c541 b1f3 51c1 7b4c 51c1
00000150: e7d7 b5c0 4bf5 a441 5659 18c1 9d20 b3c0
00000160: b2d9 7441 0ed3 2ac1 1b5c e83e 9448 c141
00000170: 6761 24c0 1521 2ac1 f344 b1c0 2b82 efc0
00000180: 6bab 07c1 28e9 93c1 3f41 73c1 148f d5c0
00000190: 5e71 83c1 3595 0f42 fb2a b040 bdf2 83c1
000001a0: 23ec a640 4374 b3c1 c488 06c1 bff7 95c1
000001b0: 8953 1741 59fd d541 5175 be41 622a d740
000001c0: 62ef 99c1 3eba c640 23bf 1442 5687 be40
000001d0: 54f9 0f42 ca64 03c1 af56 67c1 8770 4d41
000001e0: 9afd 4ac1 4758 08c1 d71b 2d41 ea78 cb3f
000001f0: c5e1 3cc1 ec06 1041 a3c2 4c41 3f8b cac1
00000200: da25 8d41 d114 82c1 57dd d641 246b 19c1
00000210: dcd8 a540 da5e 6241 7b6f 92c1 63e7 c0c1
00000220: 7a03 e3bf aa1e eb40 b5ad 7b40 03be b641
00000230: b542 0f41 4787 55bf d601 25c1 be44 00c2
00000240: f887 8241 dbda a940 dfd1 0041 22a1 4cc0
00000250: dd36 8940 f959 c7c1 8de9 4ec1 ea59 68c1
00000260: 1d2c 94c1 a243 49c1 1954 0fbf a5ac c9be
00000270: 36e6 8541 c4c6 0f41 cf22 c841 61e1 71be
00000280: 5ebe f341 50cc d741 9b98 ddc0 1e8d 0341
00000290: a712 2dc1 613a c241 968a b8c0 82c2 1d41
000002a0: 0f3b db41 5df2 65c1 a421 5740 046b 11c1
000002b0: 7490 fcc1 f39e 7240 6f51 be41 7ac7 5bbf
000002c0: aa90 7641 e795 a6c1 871a 51c1 89b8 c940
000002d0: 3b44 ff40 f520 5541 f2fc 9341 fcc0 6941
000002e0: 6e44 0841 1e99 1f41 493e acbf 723b da40
000002f0: 2879 a241 a74a 8b41 118b 3242 feba 5b40
00000300: c0a8 9c41 c6c6 8241 03e9 08c1 9404 98be
00000310: de70 fa40 2446 24c0 177a fec1 856a 0c42
00000320: f52e b741 14c3 9041 5de4 98c0 1ab8 80c1
00000330: e077 29c1 9383 96c1 1246 f5c0 9b3f 0d41
00000340: ff99 9041 dd88 e041 4da3 98c1 796d 5441
00000350: bd6f bb41 1058 913f 3406 3cc2 0a62 0fc1
00000360: c18b 86c1 b38f 71c1 2e80 343f 834d 66c0
00000370: 9abe 71bf d2ce 19c2 f92a 4741 bec4 3e42
00000380: c686 f9c0 4e44 b4c1 4658 08c1 c6b5 a541
00000390: 44b4 83bd 6328 9740 8cdd 2142 486c e7c0
000003a0: f8ae 18c0 a659 17c2 373a 77c1 a8ee fec0
000003b0: 34f0 36c1 ba9b 8b41 6a3b 8041 bb9e b3c1
000003c0: c6d2 26c0 b66e 8fc0 2e52 0ac1 dca6 0c42
000003d0: 2f2f 28c1 0e8a d93f 920a f8c0 9f1c dec1
000003e0: 0ccf 0142 99eb 3fc1 35cf 50c1 cac5 0ac1
000003f0: 190c 82c0 7e48 bcc1 1fa2 60c0 a688 21c1

c2.bias f4 [32]
4.9679956 3.8693106 0.9085816 -4.2635026 -10.373558 4.029774 10.618048 -6.5118494
-10.034443 2.2680128 -16.436575 -20.157576 7.108237 -30.197832 -41.803917 -2.2452674
-39.039436 1.2344992 30.028301 22.030685 24.796867 22.095007 -34.181934 -7.971169
-2.6495728 1.367877 -6.767864 9.311207 2.8806913 23.963884 23.114723 -6.024847
00000000: d2f9 9e40 c9a2 7740 ce98 683f 9d6e 88c0
00000010: 18fa 25c1 e9f3 8040 86e3 2941 1261 d0c0
00000020: 148d 20c1 1f27 1140 1b7e 83c1 b742 a1c1
00000030: ad76 e340 2995 f1c1 3637 27c2 76b2 0fc0
00000040: 6228 1cc2 1204 9e3f f639 f041 d83e b041
00000050: fc5f c641 93c2 b041 4dba 08c2 d113 ffc0
00000060: 9a92 29c0 9816 af3f 5892 d8c0 b4fa 1441
00000070: 3f5d 3840 09b6 bf41 f4ea b841 8ccb c0c0

d1.weight f4 [16, 32, 3, 3]
-16.956358 8.428409 31.1761 -2.7074692 18.493914 -14.059614 -9.563905 10.344164
9.380311 -21.72366 -1.3436353 -13.734264 -11.606395 -25.196083 32.992836 30.87655
36.65839 13.198218 7.3713756 30.23151 17.512875 7.456082 -33.615158 9.726167
-26.95429 10.954887 -11.099165 14.751799 21.540648 4.136022 7.527656 -1.2743534
-8.210085 10.18486 2.28104 -14.812247 -2.6540046 5.269853 1.2690716 4.2913446
33.038635 -12.929045 -14.587155 -6.8130026 17.207952 0.37154362 -34.405 25.226856
17.401667 -0.39559773 -0.5009468 18.927559 24.361492 -12.740032 13.733558 -0.77652377
-6.411722 4.3053412 -28.9856 -4.528429 -16.473234 -19.423706 10.103236 -18.096443
3.4512327 14.222136 -21.702705 -25.666824 16.458069 11.722354 -22.158175 0.63145816
3.0285342 -17.424267 1.4532815 -6.607435 -28.460566 26.261675 -10.028552 18.829426
-30.43786 -5.5196395 -3.4986024 -11.233318 18.999954 1.3242579 -3.3494015 -0.94114417
-20.34374 -0.051621974 -4.23697 24.20207 6.5803328 32.13917 -15.70405 -14.35169
-10.830376 -12.345784 -25.86983 -4.7778544 24.609064 5.068724 4.791693 32.756104
-3.6359253 21.906492 -2.684993 -15.136823 -46.498768 11.610916 22.637226 5.576771
-0.15951739 21.857548 -19.306818 18.809006 11.771651 12.61205 4.2665653 -8.178658
19.991638 10.394316 -24.050804 19.025394 -14.262581 23.318747 -4.5233088 -36.787994
-24.18827 30.444675 13.48348 18.28462 16.541851 -17.220865 13.006342 -4.424754
-18.03573 -17.760101 7.9104786 1.4582063 -2.828726 -40.207928 0.33268708 -30.079405
1.457568 -11.689203 -4.988829 3.5263638 -8.955091 -15.744696 -29.13984 -0.4537354
26.169228 23.032534 18.519749 26.85677 1.4427977 31.306568 18.03557 24.358973
2.100631 -3.7439456 -16.073437 9.494798 8.863791 9.713667 3.522373 20.127901
7.1344614 -4.2910767 -6.923514 -12.952668 9.503947 -10.221535 16.947641 -5.9210205
18.822842 13.074118 15.346636 -3.760114 -27.14562 13.149738 1.1759279 1.6477271
7.59475 -24.025236 3.4077044 -13.438484 17.306421 -10.9665165 9.629777 -10.965922
-31.241867 -38.814507 -9.9154625 22.297813 -2.3413432 27.588865 23.81736 4.4424176
-0.99683654 -8.990395 5.660331 -38.526585 -18.414446 -30.585978 -6.7004595 15.514509
-2.5619016 -15.669666 -9.916915 18.520908 -21.586166 13.357412 0.38571814 19.944782
-0.64252865 22.90506 8.500251 4.339678 18.055387 -1.3240024 -14.004209 1.805527
-10.2452135 -31.12837 -2.9134736 0.7315221 -42.0122 -3.3228726 18.949926 -12.82352
-19.644943 11.427785 -9.403678 14.166466 13.794586 0.5023333 11.59343 10.874824
-13.392992 6.8108873 -16.747234 8.092091 15.9089365 11.796534 -24.886234 0.61091244
2.8028944 -25.50185 21.005941 -14.869101 8.597497 6.4797015 10.864846 -9.244338
00000000: 9fa6 87c1 c3da 0641 a768 f941 2d47 2dc0
00000010: 89f3 9341 2ef4 60c1 c105 19c1 b281 2541
00000020: c115 1641 0eca adc1 3efc abbf 8cbf 5bc1
00000030: cbb3 39c1 9491 c9c1 aaf8 0342 2d03 f741
00000040: 31a2 1242 e72b 5341 4fe2 eb40 22da f141
00000050: 5e1a 8c41 3998 ee40 ec75 06c2 619e 1b41
00000060: 63a2 d7c1 3847 2f41 2e96 31c1 5e07 6c41
00000070: 3f53 ac41 4b5a 8440 8fe2 f040 031e a3bf
00000080: 825c 03c1 30f5 2241 8ffc 1140 f7fe 6cc1
00000090: 36db 29c0 a3a2 a840 f070 a23f b252 8940
000000a0: 9027 0442 5edd 4ec1 fd64 69c1 1e04 dac0
000000b0: e3a9 8941 f73a be3e b89e 09c2 9ad0 c941
000000c0: 9d36 8b41 c98b cabe 0d3e 00bf a46b 9741
000000d0: 56e4 c241 2cd7 4bc1 a7bc 5b41 43ca 46bf
000000e0: d42c cdc0 5bc5 8940 82e2 e7c1 e4e8 90c0
000000f0: 2fc9 83c1 c063 9bc1 dba6 2141 84c5 90c1
00000100: ffe0 5c40 de8d 6341 249f adc1 a855 cdc1
00000110: 20aa 8341 c38e 3b41 f143 b1c1 3ea7 213f
00000120: 81d3 4140 e664 8bc1 2105 ba3f 1c70 d3c0
00000130: 3daf e3c1 e917 d241 f374 20c1 aaa2 9641
00000140: bd80 f3c1 e3a0 b0c0 1ae9 5fc0 acbb 33c1
00000150: e8ff 9741 4881 a93f 985c 56c0 d3ee 70bf
00000160: fbbf a2c1 9071 53bd 4295 87c0 d79d c141
00000170: 1692 d240 838e 0042 ca43 7bc1 86a0 65c1
00000180: 3849 2dc1 5588 45c1 69f5 cec1 2fe4 98c0
00000190: 5ddf c441 fd32 a240 8d55 9940 4006 0342
000001a0: 00b3 68c0 7f40 af41 edd6 2bc0 6d30 72c1
000001b0: bdfe 39c2 50c6 3941 0a19 b541 e874 b240
000001c0: 8758 23be 42dc ae41 5d74 9ac1 d878 9641
000001d0: af58 3c41 f5ca 4941 b487 8840 c8db 02c1
000001e0: e0ee 9f41 1e4f 2641 0c68 c0c1 0234 9841
000001f0: 8833 64c1 cb8c ba41 f2be 90c0 e826 13c2
00000200: 9481 c1c1 b28e f341 56bc 5741 e746 9241
00000210: b655 8441 55c4 89c1 fa19 5041 9697 8dc0
00000220: 2d49 90c1 b014 8ec1 a422 fd40 81a6 ba3f
00000230: d909 35c0 ebd4 20c2 f655 aa3e 9fa2 f0c1
00000240: 9791 ba3f fa06 3bc1 7da4 9fc0 f2af 6140
00000250: 0e48 0fc1 46ea 7bc1 641e e9c1 0250 e8be
00000260: 945a d141 a142 b841 7228 9441 aada d641
00000270: 98ad b83f da73 fa41 d948 9041 2ddf c241
00000280: bd70 0640 ce9c 6fc0 6696 80c1 b1ea 1741
00000290: 17d2 0d41 2e6b 1b41 8f6e 6140 f105 a141
000002a0: 824d e440 8050 89c0 6d8d ddc0 213e 4fc1
000002b0: 2b10 1841 688b 23c1 c594 8741 0079 bdc0
000002c0: 2e95 9641 962f 5141 d28b 7541 b5a5 70c0
000002d0: 3b2a d9c1 5465 5241 ce84 963f b9e8 d23f
000002e0: 3108 f340 af33 c0c1 d417 5a40 0804 57c1
000002f0: 8d73 8a41 da76 2fc1 9113 1a41 6b74 2fc1
00000300: 58ef f9c1 0e42 1bc2 bca5 1ec1 ec61 b241
00000310: 91d8 15c0 ffb5 dc41 f489 be41 4928 8e40
00000320: ae30 7fbf a8d8 0fc1 6e21 b540 391b 1ac2
00000330: c950 93c1 15b0 f4c1 2a6a d6c0 6e3b 7841
00000340: 32f6 23c0 f4b6 7ac1 afab 1ec1 d22a 9441
00000350: 78b0 acc1 f6b7 5541 d97c c53e ea8e 9f41
00000360: c27c 24bf 903d b741 0701 0841 a4de 8a40
00000370: 6f71 9041 e978 a9bf 3d11 60c1 821b e73f
00000380: 65ec 23c1 e706 f9c1 5a76 3ac0 0845 3b3f
00000390: 7e0c 28c2 f2a9 54c0 7399 9741 232d 4dc1
000003a0: d828 9dc1 35d8 3641 7775 16c1 d8a9 6241
000003b0: a0b6 5c41 ea98 003f b07e 3941 47ff 2d41
000003c0: b249 56c1 caf2 d940 56fa 85c1 3479 0141
000003d0: 018b 7e41 9abe 3c41 0217 c7c1 c264 1c3f
000003e0: 9f62 3340 ca03 ccc1 2b0c a841 d6e7 6dc1
000003f0: 598f 0941 b759 cf40 69d6 2d41 cfe8 13c1

d1.bias f4 [16]
2.8445466 0.7976054 -0.9483044 -4.2523623 -31.394037 1.8428061 0.77398396 -24.969143
16.083479 -30.211193 -12.226745 -11.672559 -19.998167 0.88037246 1.3488066 -16.075476
00000000: 0d0d 3640 de2f 4c3f 14c4 72bf 5a13 88c0
00000010: fd26 fbc1 12e1 eb3f d023 463f cec0 c7c1
00000020: f7aa 8041 86b0 f1c1 bfa0 43c1 cdc2 3ac1
00000030: 3ffc 9fc1 1760 613f b2a5 ac3f 939a 80c1

d2.weight f4 [1, 16, 3, 3]
-12.976295 -22.766247 17.473629 5.7546515 -11.132631 -6.020349 -11.984344 -19.682625
0.93637294 -10.159776 29.347881 -5.3982882 26.153812 -5.733941 10.281018 5.9847093
0.9977392 -34.85691 3.1663754 0.37738922 -16.462566 9.841552 -13.587411 22.409014
-19.332315 -16.822407 -7.1518693 -20.328157 -9.99963 -22.997427 0.8067305 -25.382334
-23.819468 -0.055257164 14.610479 -26.760227 2.7050283 -35.833775 -1.9652928 -30.310112
-4.8901167 -20.588072 -9.828035 -40.609417 20.81191 1.4369049 -2.5336318 7.2054753
-16.13069 4.8328943 -14.2810335 -0.49741355 4.837665 -25.125801 -4.9502864 -6.649651
-11.516356 -15.10567 16.84663 -3.9976962 20.13231 8.454738 -19.05738 -3.5498667
16.265625 -14.146751 8.100659 -28.265356 4.0769615 0.27675885 7.0233994 -12.846276
-4.9904847 -27.384695 3.9857552 -4.914287 -14.964533 -13.659559 13.579044 -14.6452675
19.68674 -22.589697 -9.616082 15.956228 -21.20289 -29.03637 -12.088878 -0.9666637
-16.579008 -20.606974 -0.16657096 -7.750315 35.2624 8.337547 16.505093 -6.8311834
10.25816 -18.55997 0.3678141 -1.8815557 2.3069715 -2.9847696 -3.9865026 -6.4696474
-5.1294365 -10.653353 7.2783365 -24.685108 -0.7980132 -6.4430394 -13.054997 -11.466104
-29.66587 7.850241 -30.918554 -3.0504248 -16.817396 7.677749 -5.435959 21.7336
-28.515518 6.5477886 -45.301243 24.295858 -19.200056 16.675179 10.965193 -3.026156
-7.0387115 11.847331 -14.576308 -6.2522135 22.320356 6.0408273 -13.2601 23.316633
-20.789555 32.70864 -18.62384 18.916765 -6.1196017 -2.549406 12.761308 36.20062
00000000: e89e 4fc1 4621 b6c1 fec9 8b41 1b26 b840
00000010: 421f 32c1 b3a6 c0c0 dfbf 3fc1 0476 9dc1
00000020: 23b6 6f3f 718e 22c1 76c8 ea41 c7be acc0
00000030: 023b d141 727c b7c0 0d7f 2441 bd82 bf40
00000040: d66b 7f3f 7a6d 0bc2 e5a5 4a40 2939 c13e
00000050: 56b3 83c1 ff76 1d41 0966 59c1 a945 b341
00000060: 95a8 9ac1 4a94 86c1 1ddc e4c0 11a0 a2c1
00000070: 7cfe 1fc1 bbfa b7c1 e485 4e3f 050f cbc1
00000080: 458e bec1 5655 62bd 86c4 6941 f214 d6c1
00000090: 2f1f 2d40 c955 0fc2 b78e fbbf 1c7b f2c1
000000a0: d67b 9cc0 5fb4 a4c1 a23f 1dc1 0b70 22c2
000000b0: cb7e a641 80ec b73f 0627 22c0 4193 e640
000000c0: a70b 81c1 12a7 9a40 1d7f 64c1 fdac febe
000000d0: 27ce 9a40 a401 c9c1 bf68 9ec0 f1c9 d4c0
000000e0: ff42 38c1 d3b0 71c1 e6c5 8641 41da 7fc0
000000f0: f90e a141 9b46 0741 8475 98c1 0431 63c0
00000100: 0020 8241 1859 62c1 4d9c 0141 731f e2c1
00000110: 7876 8240 56b3 8d3e b0bf e040 598a 4dc1
00000120: 0db2 9fc0 db13 dbc1 9d16 7f40 d741 9dc0
00000130: ba6e 6fc1 8e8d 5ac1 c443 5941 0453 6ac1
00000140: 727e 9d41 b3b7 b4c1 79db 19c1 b64c 7f41
00000150: 859f a9c1 7c4a e8c1 0b6c 41c1 4677 77bf
00000160: cfa1 84c1 15db a4c1 9491 2abe 9502 f8c0
00000170: b30c 0d42 9866 0541 6e0a 8441 0e99 dac0
00000180: 6c21 2441 d27a 94c1 2152 bc3e d1d6 f0bf
00000190: 6ca5 1340 7706 3fc0 dc22 7fc0 5a07 cfc0
000001a0: 5824 a4c0 2274 2ac1 22e8 e840 1a7b c5c1
000001b0: 984a 4cbf 612d cec0 45e1 50c1 2975 37c1
000001c0: b453 edc1 2d35 fb40 3359 f7c1 293a 43c0
000001d0: 078a 86c1 1fb0 f540 60f3 adc0 6ade ad41
000001e0: c81f e4c1 7c87 d140 7934 35c2 eb5d c241
000001f0: b799 99c1 c466 8541 6e71 2f41 8aac 41c0
00000200: 203d e1c0 ab8e 3d41 8f38 69c1 2212 c8c0
00000210: 1790 b241 754e c140 5f29 54c1 7788 ba41
00000220: 0251 a6c1 a6d5 0242 a0fd 94c1 8955 9741
00000230: c7d3 c3c0 7829 23c0 512e 4c41 6fcd 1042

encoder.0.weight f4 [16, 1, 3, 3]
-23.726042 -49.03109 -20.000755 22.35077 -5.305086 -4.3240595 17.586853 11.286819
-27.885569 -2.1766083 9.035573 -1.2837733 13.527756 -20.00162 -9.285422 16.26404
-10.43466 14.506813 -8.982617 24.035044 -7.8677397 22.904762 -0.12825528 32.922882
-18.726995 27.205626 0.24171677 -6.9890385 -52.708923 -7.243972 -4.995575 19.586605
-24.46117 13.177803 -29.227644 -3.5243118 -5.818718 -8.309178 -14.835328 -7.1258373
-24.744349 -23.277496 -18.367708 -4.8598385 -8.766688 -19.174864 0.16344659 -0.86012185
-18.465275 -21.667652 -3.5648189 -18.737946 -21.571348 -12.642438 4.1703215 -2.5906444
-5.5847077 4.030019 -0.14663574 -26.499853 4.242042 -21.800087 0.20201336 12.922609
-6.494688 3.246854 -9.478325 1.4414301 -17.234697 22.134094 -9.541463 25.582981
-5.172955 11.227099 18.20572 20.012793 31.421305 -26.02247 4.411682 5.007351
21.268227 -10.399623 8.00028 8.805588 13.896483 18.18125 -7.066002 36.34877
1.270874 2.9026346 -19.167994 17.627771 -0.17943649 19.327677 -3.6854997 -0.81050754
9.85831 15.8090105 14.520228 15.149169 9.177296 -8.725376 24.15702 3.9608107
-9.717913 -23.63166 20.944048 3.3503323 -4.6454186 -12.836087 0.47128114 21.898134
15.150854 24.861631 22.670944 3.6322289 -16.120085 4.668703 1.0603303 -17.663595
-8.676043 -41.570976 -27.465887 -11.856393 -6.667706 6.5876245 -21.285692 17.481052
-10.514594 30.968996 -13.1079645 4.0832634 -21.149994 -0.18757327 -0.8171191 -7.5328894
-31.708704 6.423944 -4.390468 20.467777 1.1942062 -14.56476 -33.198753 7.2259336
00000000: efce bdc1 d61f 44c2 8c01 a0c1 61ce b241
00000010: 44c3 a9c0 b25e 8ac0 e0b1 8c41 d096 3441
00000020: a515 dfc1 8d4d 0bc0 b591 1041 af52 a4bf
00000030: b071 5841 5103 a0c1 1791 14c1 c11c 8241
00000040: 5ef4 26c1 e81b 6841 cdb8 0fc1 c547 c041
00000050: 86c4 fbc0 f43c b741 5a55 03be 08b1 0342
00000060: e3d0 95c1 1fa5 d941 9a84 773e 34a6 dfc0
00000070: f0d5 52c2 9ece e7c0 c0db 9fc0 5eb1 9c41
00000080: 7ab0 c3c1 48d8 5241 37d2 e9c1 538e 61c0
00000090: f032 bac0 65f2 04c1 815d 6dc1 dc06 e4c0
000000a0: 6df4 c5c1 5038 bac1 11f1 92c1 cc83 9bc0
000000b0: 5b44 0cc1 1f66 99c1 8b5e 273e f230 5cbf
000000c0: e2b8 93c1 5a57 adc1 fe25 64c0 50e7 95c1
000000d0: 1f92 acc1 6d47 4ac1 4673 8540 1ecd 25c0
000000e0: edb5 b2c0 eaf5 8040 ae27 16be b3ff d3c1
000000f0: cfbe 8740 9466 aec1 97dc 4e3e 02c3 4e41
00000100: 7cd4 cfc0 75cc 4f40 38a7 17c1 c880 b83f
00000110: a9e0 89c1 a012 b141 d5a9 18c1 f2a9 cc41
00000120: d988 a5c0 33a2 3341 51a5 9141 331a a041
00000130: d55e fb41 052e d0c1 802c 8d40 383c a040
00000140: 5425 aa41 db64 26c1 2601 0041 b0e3 0c41
00000150: ff57 5e41 3373 9141 b01c e2c0 2465 1142
00000160: 00ac a23f c4c4 3940 0d58 99c1 ad05 8d41
00000170: 33be 37be 159f 9a41 3adf 6bc0 6c7d 4fbf
00000180: a3bb 1d41 b5f1 7c41 db52 6841 ff62 7241
00000190: 34d6 1241 249b 0bc1 9441 c141 ec7d 7d40
000001a0: 927c 1bc1 a40d bdc1 698d a741 d86b 5640
000001b0: 45a7 94c0 9d60 4dc1 c34b f13e 612f af41
000001c0: e669 7241 9fe4 c641 185e b541 7076 6840
000001d0: eff5 80c1 0466 9540 e7b8 873f 0b4f 8dc1
000001e0: 12d1 0ac1 ae48 26c2 23ba dbc1 c9b3 3dc1
000001f0: d95d d5c0 d2cd d240 1949 aac1 32d9 8b41
00000200: c73b 28c1 81c0 f741 39ba 51c1 18aa 8240
00000210: 3033 a9c1 3513 40be b82e 51bf 6e0d f1c0
00000220: 6dab fdc1 f390 cd40 b77e 8cc0 02be a341
00000230: c0db 983f 4209 69c1 86cb 04c2 d93a e740

encoder.0.bias f4 [16]
13.565141 54.638493 -4.5712633 21.165287 -9.939494 11.662806 19.365383 -22.183472
-17.386272 2.2305572 -30.274067 -24.584387 -2.698725 0.43735176 -15.452641 -9.665979
00000000: d10a 5941 d18d 5a42 ca47 92c0 8252 a941
00000010: 2b08 1fc1 da9a 3a41 4eec 9a41 c077 b1c1
00000020: 1617 8bc1 73c1 0e40 4a31 f2c1 d3ac c4c1
00000030: e9b7 2cc0 92ec df3e 043e 77c1 daa7 1ac1

encoder.2.weight f4 [32, 16, 3, 3]
3.2570262 -13.761037 -8.357068 3.4914942 -35.1704 -8.432098 -33.100044 7.063274
10.950893 -8.660911 -6.883063 49.104076 -21.612324 10.386494 -50.600887 -12.257801
-31.435991 -14.329586 -18.278608 -15.931289 -19.255434 -11.60176 6.138921 -6.619631
-37.850956 0.69068205 -19.89352 -3.4874187 -10.321485 14.502458 -14.117154 10.479769
-2.4855576 -5.3319507 28.682926 40.343803 -5.1181226 7.6022983 7.8750772 -4.9152746
-8.634868 21.758839 -3.3490076 -29.124012 -11.307587 -17.501472 -0.92308986 -4.9993796
-10.231989 -22.893473 -20.982649 2.2572076 -12.854132 18.912718 27.791275 15.576683
-19.51813 -56.08281 -22.422115 -17.353106 -7.4862986 -11.217031 -6.1758842 13.759349
12.175323 -20.227367 -2.06875 13.535267 0.3601072 -20.575476 -12.74193 -4.984082
-2.9762738 1.9756585 12.297797 18.029274 -1.7770684 5.4442644 27.710999 -11.862297
20.614481 24.68893 -13.121995 -13.081172 -5.6826053 20.619772 -9.521811 -5.597731
15.303148 -10.676527 0.4538277 24.160439 -2.568445 -10.633077 -5.5396667 -7.4846396
-8.47935 -18.488846 -15.203429 -6.6737156 -16.430355 35.89571 5.5052466 -16.493525
5.2163253 -22.431768 -8.40839 -18.74597 9.457894 26.748705 23.807283 6.7239237
-19.241886 6.2102346 37.186657 5.9540205 35.993484 -8.212107 -14.458663 12.8399725
-12.686914 -8.521552 10.819297 1.5896275 -11.8051195 9.00169 12.797519 -25.317991
17.643482 -16.260164 26.858076 -9.588657 5.182722 14.148157 -18.304434 -24.112982
-1.7735436 7.347493 3.9324772 22.84278 8.953786 -0.8340954 -10.312948 -32.06713
16.316391 5.3079658 8.051238 -3.1973348 4.287947 -24.918932 -12.932019 -14.521952
-18.52154 -12.579012 -0.559877 -0.3938953 16.737408 8.986027 25.016996 -0.23621131
30.467953 26.974762 -6.9248786 8.221952 -10.817054 24.278505 -5.766917 9.859987
27.403837 -14.371671 3.3614283 -9.088627 -31.570534 3.7909515 23.789762 -0.8585125
15.410318 -20.823195 -13.068976 6.3037763 7.977079 13.320546 18.498508 14.609615
8.516706 9.974882 -1.3456508 6.8197565 20.309158 17.411451 44.635807 3.433288
19.582397 16.347057 -8.556888 -0.29690993 7.8262777 -2.566781 -31.809614 35.104023
22.897928 18.095253 -4.7778764 -16.089893 -10.591766 -18.814245 -7.6648035 8.828029
18.075193 28.066828 -19.079737 13.276727 23.42956 1.1355 -47.006058 -8.961435
-16.81824 -15.097583 0.70508087 -3.598481 -0.9443146 -38.451973 12.447991 47.69213
-7.797702 -22.533352 -8.521551 20.713757 -0.06430867 4.72368 40.466354 -7.231968
-2.3856792 -37.837547 -15.451713 -7.966633 -11.433643 17.451038 16.02901 -22.452505
-2.6066146 -4.4822645 -8.645063 35.16295 -10.511519 1.6995256 -7.7512903 -27.763975
32.452194 -11.995019 -13.050588 -8.673288 -4.063977 -23.535397 -3.509895 -10.095861
00000000: 1e73 5040 352d 5cc1 8db6 05c1 a474 5f40
00000010: 7dae 0cc2 e0e9 06c1 7266 04c2 5706 e240
00000020: dc36 2f41 1793 0ac1 0d42 dcc0 936a 4442
00000030: 0ae6 acc1 142f 2641 4f67 4ac2 f41f 44c1
00000040: e97c fbc1 fc45 65c1 973a 92c1 8fe6 7ec1
00000050: 210b 9ac1 cfa0 39c1 0a72 c440 04d4 d3c0
00000060: 6167 17c2 8ad0 303f ee25 9fc1 de31 5fc0
00000070: cd24 25c1 110a 6841 dddf 61c1 22ad 2741
00000080: 6013 1fc0 579f aac0 a276 e541 0e60 2142
00000090: a9c7 a3c0 0746 f340 a200 fc40 ee49 9dc0
000000a0: 6b28 0ac1 1a12 ae41 2456 56c0 fafd e8c1
000000b0: e0eb 34c1 0403 8cc1 9e4f 6cbf ebfa 9fc0
000000c0: 3ab6 23c1 d525 b7c1 77dc a7c1 1776 1040
000000d0: 86aa 4dc1 3f4d 9741 8854 de41 183a 7941
000000e0: 2125 9cc1 cc54 60c2 7e60 b3c1 29d3 8ac1
000000f0: c28f efc0 f578 33c1 d8a0 c5c0 4b26 5c41
00000100: 1fce 4241 a6d1 a1c1 6666 04c0 7490 5841
00000110: f95f b83e 939a a4c1 f2de 4bc1 9a7d 9fc0
00000120: 457b 3ec0 61e2 fc3f c7c3 4441 f43b 9041
00000130: fa76 e3bf 6a37 ae40 20b0 dd41 f8cb 3dc1
00000140: 75ea a441 ee82 c541 b1f3 51c1 7b4c 51c1
00000150: e7d7 b5c0 4bf5 a441 5659 18c1 9d20 b3c0
00000160: b2d9 7441 0ed3 2ac1 1b5c e83e 9448 c141
00000170: 6761 24c0 1521 2ac1 f344 b1c0 2b82 efc0
00000180: 6bab 07c1 28e9 93c1 3f41 73c1 148f d5c0
00000190: 5e71 83c1 3595 0f42 fb2a b040 bdf2 83c1
000001a0: 23ec a640 4374 b3c1 c488 06c1 bff7 95c1
000001b0: 8953 1741 59fd d541 5175 be41 622a d740
000001c0: 62ef 99c1 3eba c640 23bf 1442 5687 be40
000001d0: 54f9 0f42 ca64 03c1 af56 67c1 8770 4d41
000001e0: 9afd 4ac1 4758 08c1 d71b 2d41 ea78 cb3f
000001f0: c5e1 3cc1 ec06 1041 a3c2 4c41 3f8b cac1
00000200: da25 8d41 d114 82c1 57dd d641 246b 19c1
00000210: dcd8 a540 da5e 6241 7b6f 92c1 63e7 c0c1
00000220: 7a03 e3bf aa1e eb40 b5ad 7b40 03be b641
00000230: b542 0f41 4787 55bf d601 25c1 be44 00c2
00000240: f887 8241 dbda a940 dfd1 0041 22a1 4cc0
00000250: dd36 8940 f959 c7c1 8de9 4ec1 ea59 68c1
00000260: 1d2c 94c1 a243 49c1 1954 0fbf a5ac c9be
00000270: 36e6 8541 c4c6 0f41 cf22 c841 61e1 71be
00000280: 5ebe f341 50cc d741 9b98 ddc0 1e8d 0341
00000290: a712 2dc1 613a c241 968a b8c0 82c2 1d41
000002a0: 0f3b db41 5df2 65c1 a421 5740 046b 11c1
000002b0: 7490 fcc1 f39e 7240 6f51 be41 7ac7 5bbf
000002c0: aa90 7641 e795 a6c1 871a 51c1 89b8 c940
000002d0: 3b44 ff40 f520 5541 f2fc 9341 fcc0 6941
000002e0: 6e44 0841 1e99 1f41 493e acbf 723b da40
000002f0: 2879 a241 a74a 8b41 118b 3242 feba 5b40
00000300: c0a8 9c41 c6c6 8241 03e9 08c1 9404 98be
00000310: de70 fa40 2446 24c0 177a fec1 856a 0c42
00000320: f52e b741 14c3 9041 5de4 98c0 1ab8 80c1
00000330: e077 29c1 9383 96c1 1246 f5c0 9b3f 0d41
00000340: ff99 9041 dd88 e041 4da3 98c1 796d 5441
00000350: bd6f bb41 1058 913f 3406 3cc2 0a62 0fc1
00000360: c18b 86c1 b38f 71c1 2e80 343f 834d 66c0
00000370: 9abe 71bf d2ce 19c2 f92a 4741 bec4 3e42
00000380: c686 f9c0 4e44 b4c1 4658 08c1 c6b5 a541
00000390: 44b4 83bd 6328 9740 8cdd 2142 486c e7c0
000003a0: f8ae 18c0 a659 17c2 373a 77c1 a8ee fec0
000003b0: 34f0 36c1 ba9b 8b41 6a3b 8041 bb9e b3c1
000003c0: c6d2 26c0 b66e 8fc0 2e52 0ac1 dca6 0c42
000003d0: 2f2f 28c1 0e8a d93f 920a f8c0 9f1c dec1
000003e0: 0ccf 0142 99eb 3fc1 35cf 50c1 cac5 0ac1
000003f0: 190c 82c0 7e48 bcc1 1fa2 60c0 a688 21c1

encoder.2.bias f4 [32]
4.9679956 3.8693106 0.9085816 -4.2635026 -10.373558 4.029774 10.618048 -6.5118494
-10.034443 2.2680128 -16.436575 -20.157576 7.108237 -30.197832 -41.803917 -2.2452674
-39.039436 1.2344992 30.028301 22.030685 24.796867 22.095007 -34.181934 -7.971169
-2.6495728 1.367877 -6.767864 9.311207 2.8806913 23.963884 23.114723 -6.024847
00000000: d2f9 9e40 c9a2 7740 ce98 683f 9d6e 88c0
00000010: 18fa 25c1 e9f3 8040 86e3 2941 1261 d0c0
00000020: 148d 20c1 1f27 1140 1b7e 83c1 b742 a1c1
00000030: ad76 e340 2995 f1c1 3637 27c2 76b2 0fc0
00000040: 6228 1cc2 1204 9e3f f639 f041 d83e b041
00000050: fc5f c641 93c2 b041 4dba 08c2 d113 ffc0
00000060: 9a92 29c0 9816 af3f 5892 d8c0 b4fa 1441
00000070: 3f5d 3840 09b6 bf41 f4ea b841 8ccb c0c0

decoder.0.weight f4 [16, 32, 3, 3]
-16.956358 8.428409 31.1761 -2.7074692 18.493914 -14.059614 -9.563905 10.344164
9.380311 -21.72366 -1.3436353 -13.734264 -11.606395 -25.196083 32.992836 30.87655
36.65839 13.198218 7.3713756 30.23151 17.512875 7.456082 -33.615158 9.726167
-26.95429 10.954887 -11.099165 14.751799 21.540648 4.136022 7.527656 -1.2743534
-8.210085 10.18486 2.28104 -14.812247 -2.6540046 5.269853 1.2690716 4.2913446
33.038635 -12.929045 -14.587155 -6.8130026 17.207952 0.37154362 -34.405 25.226856
17.401667 -0.39559773 -0.5009468 18.927559 24.361492 -12.740032 13.733558 -0.77652377
-6.411722 4.3053412 -28.9856 -4.528429 -16.473234 -19.423706 10.103236 -18.096443
3.4512327 14.222136 -21.702705 -25.666824 16.458069 11.722354 -22.158175 0.63145816
3.0285342 -17.424267 1.4532815 -6.607435 -28.460566 26.261675 -10.028552 18.829426
-30.43786 -5.5196395 -3.4986024 -11.233318 18.999954 1.3242579 -3.3494015 -0.94114417
-20.34374 -0.051621974 -4.23697 24.20207 6.5803328 32.13917 -15.70405 -14.35169
-10.830376 -12.345784 -25.86983 -4.7778544 24.609064 5.068724 4.791693 32.756104
-3.6359253 21.906492 -2.684993 -15.136823 -46.498768 11.610916 22.637226 5.576771
-0.15951739 21.857548 -19.306818 18.809006 11.771651 12.61205 4.2665653 -8.178658
19.991638 10.394316 -24.050804 19.025394 -14.262581 23.318747 -4.5233088 -36.787994
-24.18827 30.444675 13.48348 18.28462 16.541851 -17.220865 13.006342 -4.424754
-18.03573 -17.760101 7.9104786 1.4582063 -2.828726 -40.207928 0.33268708 -30.079405
1.457568 -11.689203 -4.988829 3.5263638 -8.955091 -15.744696 -29.13984 -0.4537354
26.169228 23.032534 18.519749 26.85677 1.4427977 31.306568 18.03557 24.358973
2.100631 -3.7439456 -16.073437 9.494798 8.863791 9.713667 3.522373 20.127901
7.1344614 -4.2910767 -6.923514 -12.952668 9.503947 -10.221535 16.947641 -5.9210205
18.822842 13.074118 15.346636 -3.760114 -27.14562 13.149738 1.1759279 1.6477271
7.59475 -24.025236 3.4077044 -13.438484 17.306421 -10.9665165 9.629777 -10.965922
-31.241867 -38.814507 -9.9154625 22.297813 -2.3413432 27.588865 23.81736 4.4424176
-0.99683654 -8.990395 5.660331 -38.526585 -18.414446 -30.585978 -6.7004595 15.514509
-2.5619016 -15.669666 -9.916915 18.520908 -21.586166 13.357412 0.38571814 19.944782
-0.64252865 22.90506 8.500251 4.339678 18.055387 -1.3240024 -14.004209 1.805527
-10.2452135 -31.12837 -2.9134736 0.7315221 -42.0122 -3.3228726 18.949926 -12.82352
-19.644943 11.427785 -9.403678 14.166466 13.794586 0.5023333 11.59343 10.874824
-13.392992 6.8108873 -16.747234 8.092091 15.9089365 11.796534 -24.886234 0.61091244
2.8028944 -25.50185 21.005941 -14.869101 8.597497 6.4797015 10.864846 -9.244338
00000000: 9fa6 87c1 c3da 0641 a768 f941 2d47 2dc0
00000010: 89f3 9341 2ef4 60c1 c105 19c1 b281 2541
00000020: c115 1641 0eca adc1 3efc abbf 8cbf 5bc1
00000030: cbb3 39c1 9491 c9c1 aaf8 0342 2d03 f741
00000040: 31a2 1242 e72b 5341 4fe2 eb40 22da f141
00000050: 5e1a 8c41 3998 ee40 ec75 06c2 619e 1b41
00000060: 63a2 d7c1 3847 2f41 2e96 31c1 5e07 6c41
00000070: 3f53 ac41 4b5a 8440 8fe2 f040 031e a3bf
00000080: 825c 03c1 30f5 2241 8ffc 1140 f7fe 6cc1
00000090: 36db 29c0 a3a2 a840 f070 a23f b252 8940
000000a0: 9027 0442 5edd 4ec1 fd64 69c1 1e04 dac0
000000b0: e3a9 8941 f73a be3e b89e 09c2 9ad0 c941
000000c0: 9d36 8b41 c98b cabe 0d3e 00bf a46b 9741
000000d0: 56e4 c241 2cd7 4bc1 a7bc 5b41 43ca 46bf
000000e0: d42c cdc0 5bc5 8940 82e2 e7c1 e4e8 90c0
000000f0: 2fc9 83c1 c063 9bc1 dba6 2141 84c5 90c1
00000100: ffe0 5c40 de8d 6341 249f adc1 a855 cdc1
00000110: 20aa 8341 c38e 3b41 f143 b1c1 3ea7 213f
00000120: 81d3 4140 e664 8bc1 2105 ba3f 1c70 d3c0
00000130: 3daf e3c1 e917 d241 f374 20c1 aaa2 9641
00000140: bd80 f3c1 e3a0 b0c0 1ae9 5fc0 acbb 33c1
00000150: e8ff 9741 4881 a93f 985c 56c0 d3ee 70bf
00000160: fbbf a2c1 9071 53bd 4295 87c0 d79d c141
00000170: 1692 d240 838e 0042 ca43 7bc1 86a0 65c1
00000180: 3849 2dc1 5588 45c1 69f5 cec1 2fe4 98c0
00000190: 5ddf c441 fd32 a240 8d55 9940 4006 0342
000001a0: 00b3 68c0 7f40 af41 edd6 2bc0 6d30 72c1
000001b0: bdfe 39c2 50c6 3941 0a19 b541 e874 b240
000001c0: 8758 23be 42dc ae41 5d74 9ac1 d878 9641
000001d0: af58 3c41 f5ca 4941 b487 8840 c8db 02c1
000001e0: e0ee 9f41 1e4f 2641 0c68 c0c1 0234 9841
000001f0: 8833 64c1 cb8c ba41 f2be 90c0 e826 13c2
00000200: 9481 c1c1 b28e f341 56bc 5741 e746 9241
00000210: b655 8441 55c4 89c1 fa19 5041 9697 8dc0
00000220: 2d49 90c1 b014 8ec1 a422 fd40 81a6 ba3f
00000230: d909 35c0 ebd4 20c2 f655 aa3e 9fa2 f0c1
00000240: 9791 ba3f fa06 3bc1 7da4 9fc0 f2af 6140
00000250: 0e48 0fc1 46ea 7bc1 641e e9c1 0250 e8be
00000260: 945a d141 a142 b841 7228 9441 aada d641
00000270: 98ad b83f da73 fa41 d948 9041 2ddf c241
00000280: bd70 0640 ce9c 6fc0 6696 80c1 b1ea 1741
00000290: 17d2 0d41 2e6b 1b41 8f6e 6140 f105 a141
000002a0: 824d e440 8050 89c0 6d8d ddc0 213e 4fc1
000002b0: 2b10 1841 688b 23c1 c594 8741 0079 bdc0
000002c0: 2e95 9641 962f 5141 d28b 7541 b5a5 70c0
000002d0: 3b2a d9c1 5465 5241 ce84 963f b9e8 d23f
000002e0: 3108 f340 af33 c0c1 d417 5a40 0804 57c1
000002f0: 8d73 8a41 da76 2fc1 9113 1a41 6b74 2fc1
00000300: 58ef f9c1 0e42 1bc2 bca5 1ec1 ec61 b241
00000310: 91d8 15c0 ffb5 dc41 f489 be41 4928 8e40
00000320: ae30 7fbf a8d8 0fc1 6e21 b540 391b 1ac2
00000330: c950 93c1 15b0 f4c1 2a6a d6c0 6e3b 7841
00000340: 32f6 23c0 f4b6 7ac1 afab 1ec1 d22a 9441
00000350: 78b0 acc1 f6b7 5541 d97c c53e ea8e 9f41
00000360: c27c 24bf 903d b741 0701 0841 a4de 8a40
00000370: 6f71 9041 e978 a9bf 3d11 60c1 821b e73f
00000380: 65ec 23c1 e706 f9c1 5a76 3ac0 0845 3b3f
00000390: 7e0c 28c2 f2a9 54c0 7399 9741 232d 4dc1
000003a0: d828 9dc1 35d8 3641 7775 16c1 d8a9 6241
000003b0: a0b6 5c41 ea98 003f b07e 3941 47ff 2d41
000003c0: b249 56c1 caf2 d940 56fa 85c1 3479 0141
000003d0: 018b 7e41 9abe 3c41 0217 c7c1 c264 1c3f
000003e0: 9f62 3340 ca03 ccc1 2b0c a841 d6e7 6dc1
000003f0: 598f 0941 b759 cf40 69d6 2d41 cfe8 13c1

decoder.0.bias f4 [16]
2.8445466 0.7976054 -0.9483044 -4.2523623 -31.394037 1.8428061 0.77398396 -24.969143
16.083479 -30.211193 -12.226745 -11.672559 -19.998167 0.88037246 1.3488066 -16.075476
00000000: 0d0d 3640 de2f 4c3f 14c4 72bf 5a13 88c0
00000010: fd26 fbc1 12e1 eb3f d023 463f cec0 c7c1
00000020: f7aa 8041 86b0 f1c1 bfa0 43c1 cdc2 3ac1
00000030: 3ffc 9fc1 1760 613f b2a5 ac3f 939a 80c1

decoder.2.weight f4 [1, 16, 3, 3]
-12.976295 -22.766247 17.473629 5.7546515 -11.132631 -6.020349 -11.984344 -19.682625
0.93637294 -10.159776 29.347881 -5.3982882 26.153812 -5.733941 10.281018 5.9847093
0.9977392 -34.85691 3.1663754 0.37738922 -16.462566 9.841552 -13.587411 22.409014
-19.332315 -16.822407 -7.1518693 -20.328157 -9.99963 -22.997427 0.8067305 -25.382334
-23.819468 -0.055257164 14.610479 -26.760227 2.7050283 -35.833775 -1.9652928 -30.310112
-4.8901167 -20.588072 -9.828035 -40.609417 20.81191 1.4369049 -2.5336318 7.2054753
-16.13069 4.8328943 -14.2810335 -0.49741355 4.837665 -25.125801 -4.9502864 -6.649651
-11.516356 -15.10567 16.84663 -3.9976962 20.13231 8.454738 -19.05738 -3.5498667
16.265625 -14.146751 8.100659 -28.265356 4.0769615 0.27675885 7.0233994 -12.846276
-4.9904847 -27.384695 3.9857552 -4.914287 -14.964533 -13.659559 13.579044 -14.6452675
19.68674 -22.589697 -9.616082 15.956228 -21.20289 -29.03637 -12.088878 -0.9666637
-16.579008 -20.606974 -0.16657096 -7.750315 35.2624 8.337547 16.505093 -6.8311834
10.25816 -18.55997 0.3678141 -1.8815557 2.3069715 -2.9847696 -3.9865026 -6.4696474
-5.1294365 -10.653353 7.2783365 -24.685108 -0.7980132 -6.4430394 -13.054997 -11.466104
-29.66587 7.850241 -30.918554 -3.0504248 -16.817396 7.677749 -5.435959 21.7336
-28.515518 6.5477886 -45.301243 24.295858 -19.200056 16.675179 10.965193 -3.026156
-7.0387115 11.847331 -14.576308 -6.2522135 22.320356 6.0408273 -13.2601 23.316633
-20.789555 32.70864 -18.62384 18.916765 -6.1196017 -2.549406 12.761308 36.20062
00000000: e89e 4fc1 4621 b6c1 fec9 8b41 1b26 b840
00000010: 421f 32c1 b3a6 c0c0 dfbf 3fc1 0476 9dc1
00000020: 23b6 6f3f 718e 22c1 76c8 ea41 c7be acc0
00000030: 023b d141 727c b7c0 0d7f 2441 bd82 bf40
00000040: d66b 7f3f 7a6d 0bc2 e5a5 4a40 2939 c13e
00000050: 56b3 83c1 ff76 1d41 0966 59c1 a945 b341
00000060: 95a8 9ac1 4a94 86c1 1ddc e4c0 11a0 a2c1
00000070: 7cfe 1fc1 bbfa b7c1 e485 4e3f 050f cbc1
00000080: 458e bec1 5655 62bd 86c4 6941 f214 d6c1
00000090: 2f1f 2d40 c955 0fc2 b78e fbbf 1c7b f2c1
000000a0: d67b 9cc0 5fb4 a4c1 a23f 1dc1 0b70 22c2
000000b0: cb7e a641 80ec b73f 0627 22c0 4193 e640
000000c0: a70b 81c1 12a7 9a40 1d7f 64c1 fdac febe
000000d0: 27ce 9a40 a401 c9c1 bf68 9ec0 f1c9 d4c0
000000e0: ff42 38c1 d3b0 71c1 e6c5 8641 41da 7fc0
000000f0: f90e a141 9b46 0741 8475 98c1 0431 63c0
00000100: 0020 8241 1859 62c1 4d9c 0141 731f e2c1
00000110: 7876 8240 56b3 8d3e b0bf e040 598a 4dc1
00000120: 0db2 9fc0 db13 dbc1 9d16 7f40 d741 9dc0
00000130: ba6e 6fc1 8e8d 5ac1 c443 5941 0453 6ac1
00000140: 727e 9d41 b3b7 b4c1 79db 19c1 b64c 7f41
00000150: 859f a9c1 7c4a e8c1 0b6c 41c1 4677 77bf
00000160: cfa1 84c1 15db a4c1 9491 2abe 9502 f8c0
00000170: b30c 0d42 9866 0541 6e0a 8441 0e99 dac0
00000180: 6c21 2441 d27a 94c1 2152 bc3e d1d6 f0bf
00000190: 6ca5 1340 7706 3fc0 dc22 7fc0 5a07 cfc0
000001a0: 5824 a4c0 2274 2ac1 22e8 e840 1a7b c5c1
000001b0: 984a 4cbf 612d cec0 45e1 50c1 2975 37c1
000001c0: b453 edc1 2d35 fb40 3359 f7c1 293a 43c0
000001d0: 078a 86c1 1fb0 f540 60f3 adc0 6ade ad41
000001e0: c81f e4c1 7c87 d140 7934 35c2 eb5d c241
000001f0: b799 99c1 c466 8541 6e71 2f41 8aac 41c0
00000200: 203d e1c0 ab8e 3d41 8f38 69c1 2212 c8c0
00000210: 1790 b241 754e c140 5f29 54c1 7788 ba41
00000220: 0251 a6c1 a6d5 0242 a0fd 94c1 8955 9741
00000230: c7d3 c3c0 7829 23c0 512e 4c41 6fcd 1042
