candidate_networks/inet6_1.pt (torch, 41295 bytes, 14 tensors)

c1.weight f4 [16, 1, 3, 3]
00000000: ea0a b9c1 029d 44c2 7e03 9ec1 dd75 b541
00000010: 5869 a6c0 36a9 9fc0 c078 8d41 e124 3a41
00000020: 08bb dac1 2d42 30c0 5796 1341 da71 9dbf
00000030: df72 5341 f9d5 a2c1 2b1d 14c1 da49 8241
00000040: ce82 31c1 2d33 6741 711b 0cc1 d181 c541
00000050: eed5 fcc0 04ef b141 2117 77be 8f4a 0142
00000060: c18b 95c1 274c d741 d02d b43e 7e8d e3c0
00000070: d8f0 4fc2 caae e2c0 975b 8ec0 c024 9841
00000080: d59b c1c1 b746 4941 d9cc e5c1 b3c7 7ac0
00000090: d9d0 c5c0 f3c3 02c1 2753 69c1 d3c4 d2c0
000000a0: 2643 cac1 b2c0 b9c1 36a6 93c1 48e1 a5c0
000000b0: 6578 12c1 49ed 97c1 ea28 9cbe 62cd 27bf
000000c0: 10ad 92c1 14e8 acc1 200a 5fc0 2cac 96c1
000000d0: 9d7e afc1 8a60 46c1 8491 7e40 e209 42c0
000000e0: f1f3 acc0 9b59 8540 1b51 6cbf 3ed5 d4c1
000000f0: 447f 8040 4f26 abc1 8106 3c3f d370 4c41
00000100: 277b c7c0 056a 5e40 fd18 21c1 795c 933f
00000110: 8202 85c1 f39c aa41 6bce 16c1 b3d0 ca41
00000120: 829b a1c0 c0a6 3241 3e9f 9441 6591 9d41
00000130: cc46 fc41 075c d0c1 fa86 8740 1ebe 9940
00000140: c841 ab41 2a5f 2cc1 2776 0241 a97b 0b41
00000150: a51d 5b41 8644 8f41 3462 dec0 26a4 0f42
00000160: dbf7 e23f 9aa0 4040 83ae 98c1 1ca2 8d41
00000170: 2e63 9dbe 20e8 9841 07a2 58c0 85cf 8dbf
00000180: e87d 2a41 19b4 7841 b6df 6941 83a8 6d41
00000190: 434f 1741 bc9d 0cc1 7243 c041 3ac6 6240
000001a0: f946 17c1 f996 bac1 a92a a941 e81f 8140
000001b0: 40bd 9cc0 5ac7 4dc1 7d44 ce3e 72bc ab41
000001c0: b072 7141 c1e3 c541 36a3 b341 c89e 6940
000001d0: 1d20 80c1 cc25 9040 7e1b 083f 2476 90c1
000001e0: 41f2 14c1 7ddf 25c2 a9c7 d7c1 c203 3bc1
000001f0: 0425 d1c0 669a e140 be87 a5c1 7703 8b41
00000200: edbf 28c1 8b27 f641 b975 50c1 ea6b 7540
00000210: 8df1 aac1 9022 cf3c fb75 10bf 9506 03c1
00000220: d61c 00c2 1177 d940 4c2e 8ec0 8d1a a441
00000230: 6b43 433f b9e5 66c1 a9ea 04c2 d23d e340
-23.13033 -49.153328 -19.751705 22.68255 -5.2003593 -4.9894056 17.68396 11.634004
-27.341324 -2.754039 9.224204 -1.230037 13.215545 -20.354479 -9.257121 16.28606
-11.094435 14.449994 -8.7567 24.688387 -7.9011145 22.241707 -0.24129917 32.32281
-18.69324 26.912184 0.35191202 -7.111022 -51.9852 -7.0838366 -4.4486804 19.017944
-24.20109 12.579764 -28.725023 -3.9184387 -6.181744 -8.172839 -14.582801 -6.5865264
-25.282787 -23.21909 -18.456158 -5.18375 -9.154393 -18.990862 -0.30499965 -0.65547764
-18.334503 -21.61332 -3.484993 -18.834068 -21.936823 -12.398569 3.9776316 -3.0318532
-5.404778 4.167188 -0.9231126 -26.604122 4.0155354 -21.393705 0.73447424 12.777545
-6.2337832 3.475221 -10.068601 1.1512595 -16.626225 21.326635 -9.425395 25.351904
-5.050233 11.16571 18.577755 19.695993 31.534569 -26.044935 4.2352266 4.8044577
21.40712 -10.773233 8.153846 8.71769 13.694737 17.908459 -6.9494877 35.9103
1.773189 3.0098023 -19.08521 17.704155 -0.3073973 19.113342 -3.3848894 -1.1078955
10.655739 15.543969 14.617117 14.853641 9.456851 -8.788509 24.032932 3.5433488
-9.454827 -23.323717 21.14583 4.035145 -4.898102 -12.86117 0.40286627 21.467014
15.0905 24.736208 22.454693 3.6503162 -16.01568 4.504614 0.5316695 -18.057686
-9.309144 -41.46825 -26.97249 -11.688417 -6.5357685 7.0500975 -20.69128 17.376692
-10.546857 30.769308 -13.028741 3.8347116 -21.367945 0.025285035 -0.56430024 -8.189107
-32.02816 6.7957845 -4.4431515 20.512964 0.76274747 -14.431085 -33.22916 7.1012964

c1.bias f4 [16]
00000000: 16ac 5c41 74c9 5942 fae0 8ac0 c9cc a741
00000010: 8e7c 21c1 6610 3c41 0e96 9741 45cc afc1
00000020: 6a45 8ec1 52f6 3540 c7f0 efc1 9dba c6c1
00000030: cd29 1bc0 501a 5abe 07f8 79c1 6300 21c1
13.792013 54.44673 -4.339963 20.974993 -10.092909 11.754004 18.948269 -21.974741
-17.783894 2.8431592 -29.992567 -24.84112 -2.4244263 -0.212991 -15.623054 -10.062594

c2.weight f4 [32, 16, 3, 3]
00000000: d157 4540 b4a3 59c1 5189 02c1 13d1 6440
00000010: e7f5 0cc2 3d8e 05c1 418a 02c2 687b f740
00000020: 4d9b 2841 ac94 11c1 01e8 cec0 ab95 4542
00000030: 183e b0c1 d497 2741 fb59 46c2 cf2f 3cc1
00000040: 53be fbc1 4ff2 61c1 8cf6 8dc1 d287 87c1
00000050: 703f 9bc1 dcb9 44c1 fe30 c240 97ed c9c0
00000060: e4ac 19c2 411c bd3e 2358 9ac1 737b 73c0
00000070: 505e 2ec1 7422 6141 38fb 68c1 6aaf 2141
00000080: 39fd 24c0 16c6 b7c0 f79a e441 bad7 1f42
00000090: be44 8fc0 7cb4 f640 c88d ef40 5bcc 98c0
000000a0: dbe2 14c1 6828 b241 b1dd 60c0 a619 e7c1
000000b0: 5024 31c1 f78d 8dc1 4251 99bf 5b22 9ec0
000000c0: 7ef3 1bc1 2725 bcc1 ac25 adc1 7bab 1b40
000000d0: 791e 52c1 162a 9541 740c e141 e522 8341
000000e0: e434 9bc1 f29c 5fc2 ce9c b1c1 fef9 85c1
000000f0: 2236 f3c0 0f7a 33c1 a1fc d4c0 3bf2 5c41
00000100: 740d 4041 f5c0 9bc1 bb27 19c0 6107 5b41
00000110: 202f 52bd b324 a2c1 fee8 48c1 d967 abc0
00000120: f065 57c0 354a 0540 85a7 3941 cd3f 8d41
00000130: 1671 03c0 c938 9b40 c3f2 df41 0565 36c1
00000140: 4e99 a441 3b17 c641 eb25 4ec1 d9a9 4ec1
00000150: d9f8 a4c0 4d13 a241 1e29 21c1 b759 afc0
00000160: 6ad6 7b41 96ed 2bc1 4e00 393f ad5b bd41
00000170: 563b 16c0 3118 2ec1 505d b1c0 5080 f5c0
00000180: 14b4 03c1 da76 90c1 70df 71c1 b3d6 e3c0
00000190: 2835 82c1 14a9 0f42 b217 c440 08e9 87c1
000001a0: 9f35 a040 c1c0 b1c1 62ab 08c1 62c0 94c1
000001b0: 919c 1b41 4657 cf41 7a36 bf41 ec42 d240
000001c0: b94b 9bc1 98d2 c940 f13c 1542 2c6f bc40
000001d0: 055f 1142 5ef1 fec0 1389 6bc1 8377 4c41
000001e0: 2c5b 50c1 c25e 0bc1 ed77 2141 5c7c 553f
000001f0: 69c2 41c1 341b 1141 fac0 5041 5633 ccc1
00000200: 0e3b 9041 1a5b 83c1 7fb1 d641 1c69 11c1
00000210: 852d b840 a18c 6341 dcb8 90c1 f8d9 c2c1
00000220: 90ac 16c0 a48b e840 b164 6f40 f8f6 b641
00000230: 2117 0c41 d71b 45bf 60ce 20c1 0dfb fac1
00000240: b96a 7f41 e150 9f40 c0be ec40 69e9 75c0
00000250: 340f 9140 985e c6c1 9ac9 4cc1 17b1 6fc1
00000260: 93d2 93c1 2554 45c1 2db5 88bf 14da 5fbf
00000270: c2f0 8641 5daf 0b41 da35 ca41 c286 d2be
00000280: 576d f741 1d76 dd41 a58d ecc0 6090 0241
00000290: 3bf5 24c1 6559 c441 9dcb abc0 17ba 2641
000002a0: d0fc d741 d215 6ac1 7d34 8240 8a9e 0fc1
000002b0: fe15 00c2 1e89 8440 ce0b c041 5626 8bbf
000002c0: e564 6b41 c3b3 a9c1 4bd2 4cc1 19e7 ca40
000002d0: d959 fa40 11d8 5541 e76c 9341 4842 7341
000002e0: 0488 0841 cc4f 1e41 92ba d9bf 7958 da40
000002f0: 5ee9 a141 ef99 8941 7fa9 3442 5a23 7f40
00000300: d0bf 9b41 f5bc 8241 0272 08c1 3373 8cbe
00000310: f7e5 0441 0d2f 0ac0 9661 00c2 0818 0c42
00000320: d2b6 b341 631e 9241 6fb8 adc0 3d36 76c1
00000330: e775 2dc1 43cf 94c1 5ef0 fdc0 6664 1441
00000340: fceb 8f41 dcdd e041 e854 97c1 86e8 4d41
00000350: 3653 b941 7c4d a13f 4c99 3cc2 4cc2 10c1
00000360: fef2 82c1 3af6 74c1 ce04 6d3f be1d 79c0
00000370: d593 8dbf 861c 1bc2 d770 4841 c97f 3d42
00000380: 250e e5c0 7db3 b5c1 bb39 00c1 6091 a141
00000390: 9c6b fa3e 522e 9640 91ef 2242 52c8 d4c0
000003a0: 3ced 1bc0 fefc 17c2 d6a1 76c1 db1a f9c0
000003b0: a57f 3bc1 3608 8b41 d0e9 8041 cc69 bbc1
000003c0: e369 23c0 9be7 90c0 456f 0cc1 d9c8 0c42
000003d0: 8c22 1cc1 7996 aa3f 13cc ffc0 17be e0c1
000003e0: 0002 0242 0c77 3dc1 e4f0 4fc1 4f18 12c1
000003f0: c736 80c0 9c2e bcc1 4ff3 6ec0 a3c5 19c1
3.083485 -13.602467 -8.1585245 3.5752609 -35.24014 -8.347226 -32.635014 7.7338142
10.537915 -9.098797 -6.465821 49.39616 -22.03032 10.474567 -49.58787 -11.761672
-31.467932 -14.121657 -17.745384 -16.941319 -19.405975 -12.295376 6.0684805 -6.3102527
-38.41884 0.3693562 -19.293036 -3.8044097 -10.8980255 14.070911 -14.561333 10.105326
-2.5779555 -5.7429304 28.575666 39.96067 -4.4771414 7.709532 7.4860573 -4.7749457
-9.305385 22.26973 -3.513531 -28.887524 -11.071365 -17.694319 -1.1977923 -4.941694
-9.746946 -23.51814 -21.643394 2.4323413 -13.13244 18.64555 28.13108 16.392038
-19.400826 -55.903267 -22.201565 -16.747066 -7.600358 -11.217299 -6.6558385 13.809138
12.003284 -19.469217 -2.39305 13.6893015 -0.051314473 -20.26792 -12.556883 -5.3564267
-3.3655968 2.0826542 11.603398 17.656153 -2.0537772 4.850682 27.993536 -11.399663
20.574856 24.761343 -12.884257 -12.916467 -5.155377 20.259424 -10.072538 -5.4797015
15.739847 -10.745504 0.7226609 23.669764 -2.3473716 -10.880906 -5.5426407 -7.671913
-8.231464 -18.058033 -15.11705 -7.1199584 -16.275955 35.915115 6.1278925 -16.988785
5.0065455 -22.219118 -8.5418415 -18.593937 9.725724 25.917614 23.9016 6.570669
-19.411974 6.3069572 37.309513 5.888571 36.342793 -7.966964 -14.720965 12.779178
-13.022259 -8.710634 10.091779 0.8339288 -12.109963 9.069141 13.047113 -25.525066
18.028835 -16.419483 26.836668 -9.088161 5.7555566 14.221833 -18.090263 -24.35643
-2.3542824 7.267046 3.7405207 22.87059 8.755647 -0.76995605 -10.0503845 -31.372583
15.963555 4.978623 7.398285 -3.8423712 4.533106 -24.796188 -12.799219 -14.980735
-18.47782 -12.333043 -1.068029 -0.87442136 16.867558 8.730313 25.276295 -0.41118437
30.928389 27.682673 -7.3922906 8.160248 -10.309871 24.54365 -5.368605 10.420432
26.998444 -14.630327 4.0689073 -8.976206 -32.021477 4.141738 24.005764 -1.0871074
14.712132 -21.212774 -12.801341 6.34071 7.8234677 13.365251 18.428175 15.203682
8.533207 9.894482 -1.7010062 6.8233 20.238949 17.200163 45.165524 3.9865327
19.468658 16.342264 -8.527834 -0.2743164 8.306144 -2.1591218 -32.0953 35.023468
22.464268 18.264837 -5.428764 -15.388242 -10.841285 -18.601202 -7.9355917 9.274511
17.990227 28.10833 -18.916458 12.869268 23.16563 1.2601771 -47.149704 -9.047436
-16.368649 -15.310114 0.92585456 -3.8924403 -1.106074 -38.777855 12.527549 47.37479
-7.1579766 -22.71264 -8.014094 20.195984 0.48910224 4.6931543 40.73395 -6.649453
-2.4363546 -37.997063 -15.414511 -7.7845283 -11.718663 17.37901 16.114166 -23.426659
-2.5533378 -4.528272 -8.777165 35.19614 -9.758434 1.3327171 -7.9936614 -28.092817
32.501953 -11.841564 -12.996311 -9.130935 -4.0066867 -23.522758 -3.7336004 -9.610751

c2.bias f4 [32]
00000000: 1c0c 8d40 9642 8840 00b2 323f a19f 92c0
00000010: afa6 27c1 ba04 7a40 379b 2341 bf46 cbc0
00000020: 8028 16c1 f73d ee3f 53f4 81c1 6442 a1c1
00000030: 7092 de40 49a5 f5c1 d3d9 26c2 8485 3ac0
00000040: a525 1bc2 04df e73f 99ae f541 d8e7 b041
00000050: 7574 c941 c750 b041 4a8c 08c2 adfc f0c0
00000060: a3a7 30c0 f447 8b3f bba0 dac0 5f04 1c41
00000070: 290b 3640 e036 be41 12c1 b841 6ac1 b7c0
4.407728 4.258128 0.69802856 -4.581986 -10.478194 3.9065385 10.225394 -6.352386
-9.384888 1.861266 -16.244299 -20.157417 6.9553757 -30.705706 -41.71272 -2.9143991
-38.786762 1.8114934 30.710253 22.113205 25.181864 22.039442 -34.137 -7.530844
-2.7602317 1.0881333 -6.8321204 9.751067 2.8444312 23.776794 23.094273 -5.74236

d1.weight f4 [16, 32, 3, 3]
00000000: 36bb 88c1 4b6e 0541 a529 f841 1e37 1ec0
00000010: bcbf 9741 810d 57c1 4ed8 08c1 546b 2241
00000020: 658d 1e41 e3b1 afc1 54f9 bbbf 90f7 57c1
00000030: d199 49c1 da79 c4c1 74b3 0542 217a f541
00000040: be04 1142 f7d9 5341 38be 0041 73d8 f141
00000050: 24ee 8741 9b5c da40 f853 07c2 c9fc 1741
00000060: e163 d4c1 0ad7 2c41 1988 38c1 7f3b 6c41
00000070: 4f53 aa41 0a04 a440 7eb8 0441 baad 67bf
00000080: 70c1 05c1 b583 1c41 9fc1 0a40 798a 73c1
00000090: 6801 41c0 d601 a040 473a ea3f 08cf 9140
000000a0: 8bab 0542 f7e9 54c1 a7b8 67c1 f76d cdc0
000000b0: 5c6e 8641 6f4e fb3e 832d 09c2 063c cd41
000000c0: 2a1c 8a41 445c 633e af4a 15bf 14f6 9941
000000d0: 166d bf41 8a97 4cc1 6831 5541 a8e8 4ebf
000000e0: cc27 cac0 f2bc 8440 ca02 e6c1 665b 8ec0
000000f0: 2558 82c1 ddf9 9cc1 afcb 2841 fbe0 8fc1
00000100: 4f21 6740 f8d6 5e41 1e25 afc1 e951 c8c1
00000110: b7f9 8141 9330 3c41 d2c7 afc1 bbde 4b3f
00000120: f087 3e40 4960 87c1 11e9 bf3f 81d4 cbc0
00000130: 1210 e5c1 6a80 cd41 d162 1ec1 fcee 9341
00000140: 7199 f4c1 4b1c a2c0 c197 63c0 0d63 3ec1
00000150: dced 9241 7bc7 a33f 27b8 45c0 9114 00c0
00000160: 4d35 a3c1 8eb7 693d ceaf 8dc0 aa95 c041
00000170: 6dfd d240 59fb fc41 f988 7dc1 4aa7 61c1
00000180: 3c12 31c1 b226 53c1 d446 ccc1 826e aac0
00000190: 6dcb c441 f9be 9740 dec9 9240 246c 0442
000001a0: 3168 3dc0 a127 af41 0640 2dc0 6446 6fc1
000001b0: cb5b 37c2 f619 3041 fa53 ae41 f8f7 a840
000001c0: f471 51be 5c7a ae41 2b04 9cc1 e9fd 9841
000001d0: 3d67 3c41 6067 4e41 8e63 8740 71a9 fac0
000001e0: a754 9c41 a9b6 2741 6218 bdc1 3bc5 9a41
000001f0: 9486 65c1 c62c bb41 c8ab 75c0 cafd 13c2
00000200: 7035 bfc1 24fe f341 42bc 5341 ea62 9541
00000210: 4219 7f41 156e 88c1 ed9d 5441 7e96 9ac0
00000220: 34ae 93c1 348c 91c1 e65e ec40 ffed b33f
00000230: c4fe 17c0 02de 21c2 b94e 5c3f 1c4e f2c1
00000240: b056 ec3f 0534 38c1 772e 98c0 598e 6640
00000250: b31c 17c1 42f4 79c1 11ea e7c1 fa1c 01bf
00000260: f5a1 cc41 8952 b641 7fc6 9241 6ef1 da41
00000270: af31 fd3f fce8 f741 9492 9141 7a92 c641
00000280: 3c16 3a40 0deb 61c0 5be9 7cc1 695b 1841
00000290: 3993 0c41 a913 1a41 0886 6b40 3452 9e41
000002a0: 11b6 e940 4171 7ac0 efff e0c0 c47d 4ec1
000002b0: 297a 1841 fc34 21c1 0a19 8941 e4c8 a8c0
000002c0: 88fd 9741 7832 5441 1582 6c41 8665 4ac0
000002d0: 985e d9c1 b49a 5041 1046 b33f cef6 db3f
000002e0: 91ef e540 5b88 bbc1 7626 5040 3e1d 5dc1
000002f0: 6de8 8741 fae2 2cc1 3d47 1441 faa9 33c1
00000300: 05cc fcc1 c37b 19c2 1658 22c1 4586 b241
00000310: 2533 1ec0 dfd5 dc41 8684 c241 4de9 8e40
00000320: 8735 b5bf 89b0 10c1 5c2f bd40 10c7 19c2
00000330: f5ab 94c1 1e37 f4c1 4598 c2c0 07a4 7141
00000340: 4ec0 4ac0 c3b9 81c1 ae2d 1ac1 e053 8f41
00000350: 04a7 abc1 ffcb 5641 d71b b23e 1b0a a541
00000360: 46da e6be 2b4c ba41 dc68 0941 8481 8a40
00000370: 09c7 9141 3a7e abbf f203 5ec1 86df c93f
00000380: 1447 22c1 9af3 f8c1 ae89 27c0 5691 863f
00000390: c793 26c2 97c7 58c0 5156 9841 f406 47c1
000003a0: 3d1a 9cc1 216f 3141 20b5 12c1 6f93 6941
000003b0: 099a 6341 44a5 e63e b709 2d41 27c9 2a41
000003c0: d422 55c1 e8f5 d840 ce73 85c1 a627 fc40
000003d0: 6d04 7941 64fc 3941 028b c7c1 fd3f 583f
000003e0: 09f0 1740 2065 ccc1 b42e a241 2945 69c1
000003f0: 578a 0741 d387 c040 85e1 2f41 c739 15c1
-17.091412 8.339427 31.020334 -2.472114 18.96862 -13.440797 -8.552809 10.151203
9.90952 -21.961859 -1.4685464 -13.49794 -12.600053 -24.559498 33.425247 30.684633
36.25463 13.240714 8.04644 30.230688 16.99128 6.8238044 -33.832 9.499215
-26.548769 10.8025 -11.533227 14.764525 21.290678 5.125493 8.295042 -0.9049946
-8.359726 9.782155 2.1680677 -15.221307 -3.0157108 5.000224 1.8299035 4.5565224
33.417522 -13.30712 -14.482581 -6.4196734 16.803886 0.49083278 -34.294445 25.654308
17.263752 0.22203165 -0.58317083 19.245155 23.928265 -12.786997 13.324562 -0.80823755
-6.317358 4.1480646 -28.751362 -4.448657 -16.29304 -19.622004 10.549727 -17.984854
3.611408 13.927483 -21.893124 -25.039995 16.246931 11.761859 -21.972569 0.79636735
2.977047 -16.922014 1.4993001 -6.3696904 -28.632847 25.687702 -9.899125 18.491692
-30.574923 -5.0659537 -3.5561373 -11.899182 18.366142 1.2795252 -3.0893648 -2.0012553
-20.401026 0.057059817 -4.4277105 24.073078 6.593436 31.622728 -15.845941 -14.103342
-11.066952 -13.196947 -25.534584 -5.3259897 24.599329 4.742062 4.587142 33.105606
-2.9594843 21.89435 -2.7070327 -14.954685 -45.83964 11.006338 21.791004 5.2802696
-0.20453626 21.809746 -19.502035 19.12398 11.775205 12.900238 4.2309027 -7.833184
19.541334 10.482095 -23.636906 19.346304 -14.345356 23.396862 -3.8386097 -36.99784
-23.901093 30.499092 13.233461 18.673298 15.943666 -17.053751 13.288556 -4.8308706
-18.46006 -18.193459 7.3865843 1.4057006 -2.3749247 -40.466805 0.8605762 -30.28814
1.8463955 -11.5127 -4.755672 3.6024382 -9.444507 -15.622133 -28.98929 -0.5043484
25.57908 22.7903 18.346922 27.367886 1.9780787 30.988762 18.196571 24.821522
2.907607 -3.5299714 -15.806972 9.522317 8.785943 9.6298 3.6800556 19.790138
7.303475 -3.9131625 -7.031242 -12.9057045 9.529824 -10.075436 17.137226 -5.274523
18.998795 13.262321 14.781758 -3.1624465 -27.171188 13.037769 1.4005756 1.7184694
7.185494 -23.44158 3.2523475 -13.819639 16.98849 -10.805414 9.267392 -11.228998
-31.599619 -38.37086 -10.146505 22.315561 -2.4718716 27.60443 24.314709 4.465979
-1.415696 -9.043099 5.912031 -38.444397 -18.583963 -30.526913 -6.0810876 15.102546
-3.1679873 -16.215704 -9.636152 17.915955 -21.45655 13.424804 0.34786865 20.629934
-0.45088404 23.287191 8.5881 4.32831 18.222185 -1.3397896 -13.875963 1.5771339
-10.142353 -31.118946 -2.6177783 1.0513103 -41.644314 -3.387182 19.042147 -12.439198
-19.512812 11.089631 -9.16922 14.598495 14.225106 0.45047963 10.814872 10.674109
-13.321003 6.780018 -16.681545 7.87984 15.5635805 11.624119 -24.942875 0.8447264
2.3740256 -25.549377 20.272804 -14.579385 8.471274 6.01658 10.9925585 -9.326606

d1.bias f4 [16]
00000000: ed78 0840 106f 673f 30d8 9dbf 43f9 88c0
00000010: bdd1 fcc1 c035 d43f 76c0 3f3f 2f9d c8c1
00000020: 32ad 7d41 f1eb f2c1 366e 3dc1 6f7b 38c1
00000030: 890c a2c1 fdf5 0e3f 94dd 543f bc4c 7dc1
2.1323807 0.9040384 -1.23316 -4.2804275 -31.602411 1.6578903 0.7490305 -25.07675
15.854784 -30.365206 -11.839407 -11.530135 -20.25612 0.558441 0.831506 -15.831234

d2.weight f4 [1, 16, 3, 3]
00000000: 9e40 4dc1 d982 b8c1 92e9 8a41 e297 cd40
00000010: 0797 3ec1 0a7d b3c0 ab98 36c1 7fd4 9bc1
00000020: 6137 a63e 238c 28c1 b37d ed41 a412 a0c0
00000030: 2a8a ce41 8cd9 b5c0 ae6a 1f41 87be c740
00000040: b68a 5f3f e310 0bc2 3f9c 4d40 4861 a3be
00000050: 2de0 81c1 3636 1c41 b018 59c1 90ab b341
00000060: 21c3 99c1 3dec 86c1 0e06 e2c0 5d27 9fc1
00000070: aa35 21c1 94cd b5c1 04e3 a93e cda4 c7c1
00000080: ce60 bec1 f2da cdbe f5fd 6841 cf94 d8c1
00000090: 194e 5840 9dfd 0ec2 7652 e0bf 3cfb f6c1
000000a0: 8561 9fc0 8e11 a7c1 0848 15c1 fa22 22c2
000000b0: df3f a541 66be 963f 1fbd 2ac0 3ba9 e640
000000c0: 6ec8 79c1 874d a340 de10 63c1 370e 4ebf
000000d0: 9c01 8d40 dc08 c9c1 4975 9ec0 2371 dcc0
000000e0: d491 3dc1 d878 76c1 61d3 8641 60ce 85c0
000000f0: ef07 a741 5728 0841 560d 97c1 bd2c 67c0
00000100: 39a9 8141 a31c 68c1 0b4a ed40 896e e7c1
00000110: 9e5f 5940 287e 3c3e bbe4 d840 0468 56c1
00000120: 4f3f 9ec0 9169 dec1 2707 8740 5cae a1c0
00000130: 514e 6ec1 8c23 57c1 f80d 5b41 dfb7 61c1
00000140: 5754 9e41 dbd2 b6c1 c0cf 1dc1 ec47 7d41
00000150: 157a a9c1 d477 eac1 1071 45c1 b08f 7abf
00000160: 4908 7fc1 3806 a5c1 e12e 25bf 9c2b 01c1
00000170: f135 0e42 edd5 0641 203f 8041 1d71 edc0
00000180: f099 2041 25f2 95c1 c0f9 c43d 0e85 f4bf
00000190: 5128 1040 6d6f 52c0 4f85 8cc0 3490 ccc0
000001a0: 7ce3 98c0 e177 2ac1 cedc 0341 0642 c8c1
000001b0: 4336 0ebf 8ba0 cec0 0f27 56c1 7df5 32c1
000001c0: e791 eac1 bd17 fb40 c293 f5c1 1990 3bc0
000001d0: 37f6 8cc1 7c07 ef40 2a43 b2c0 5b6c ac41
000001e0: dbdd e5c1 d6ae d240 99db 34c2 0d19 c641
000001f0: 5e84 9cc1 9885 8541 785b 2641 c537 48c0
00000200: 871f e7c0 1a44 3a41 f486 6cc1 5ee8 b3c0
00000210: 65b0 b541 cafe ad40 d793 4ec1 94e1 b741
00000220: d206 a3c1 8ee3 0242 29f1 95c1 759e 9341
00000230: fd3c c4c0 e46a f8bf f638 4b41 44b1 1042
-12.828276 -23.06389 17.364048 6.4247904 -11.911872 -5.6090136 -11.412272 -19.478758
0.32464126 -10.534213 29.686377 -5.0022755 25.817463 -5.682806 9.963545 6.2420077
0.8732103 -34.76649 3.2126615 -0.31910157 -16.23446 9.763235 -13.568527 22.45877
-19.220278 -16.86535 -7.063239 -19.89422 -10.075602 -22.72538 0.33181012 -24.95547
-23.797268 -0.40206105 14.562001 -27.07266 3.3797667 -35.74767 -1.7525165 -30.872673
-4.9806542 -20.883572 -9.330086 -40.534157 20.656187 1.1776855 -2.667793 7.208158
-15.611433 5.103214 -14.191618 -0.8049044 4.4064465 -25.129326 -4.951817 -6.8888106
-11.848103 -15.404503 16.853212 -4.1814423 20.878874 8.509849 -18.881512 -3.6121056
16.207628 -14.506991 7.4152884 -28.928972 3.396461 0.184075 6.777921 -13.400394
-4.945228 -27.801546 4.219623 -5.052534 -14.89412 -13.446178 13.69091 -14.10739
19.791182 -22.852957 -9.86322 15.830059 -21.18461 -29.30851 -12.340103 -0.978755
-15.939523 -20.628036 -0.64524657 -8.073147 35.552677 8.427228 16.030823 -7.420058
10.037582 -18.743235 0.096179485 -1.9103105 2.2524607 -3.288051 -4.391273 -6.392603
-4.777769 -10.654267 8.241407 -25.032238 -0.55551547 -6.4570975 -13.384536 -11.184934
-29.321241 7.8466477 -30.697147 -2.93067 -17.620222 7.4696636 -5.5706987 21.552908
-28.733328 6.5838423 -45.21445 24.762232 -19.564632 16.690231 10.397331 -3.128404
-7.2225986 11.641626 -14.782948 -5.622115 22.71113 5.437352 -12.911094 22.985146
-20.37833 32.72222 -18.742754 18.452372 -6.132445 -1.940762 12.7014065 36.17311

encoder.0.weight f4 [16, 1, 3, 3]
00000000: ea0a b9c1 029d 44c2 7e03 9ec1 dd75 b541
00000010: 5869 a6c0 36a9 9fc0 c078 8d41 e124 3a41
00000020: 08bb dac1 2d42 30c0 5796 1341 da71 9dbf
00000030: df72 5341 f9d5 a2c1 2b1d 14c1 da49 8241
00000040: ce82 31c1 2d33 6741 711b 0cc1 d181 c541
00000050: eed5 fcc0 04ef b141 2117 77be 8f4a 0142
00000060: c18b 95c1 274c d741 d02d b43e 7e8d e3c0
00000070: d8f0 4fc2 caae e2c0 975b 8ec0 c024 9841
00000080: d59b c1c1 b746 4941 d9cc e5c1 b3c7 7ac0
00000090: d9d0 c5c0 f3c3 02c1 2753 69c1 d3c4 d2c0
000000a0: 2643 cac1 b2c0 b9c1 36a6 93c1 48e1 a5c0
000000b0: 6578 12c1 49ed 97c1 ea28 9cbe 62cd 27bf
000000c0: 10ad 92c1 14e8 acc1 200a 5fc0 2cac 96c1
000000d0: 9d7e afc1 8a60 46c1 8491 7e40 e209 42c0
000000e0: f1f3 acc0 9b59 8540 1b51 6cbf 3ed5 d4c1
000000f0: 447f 8040 4f26 abc1 8106 3c3f d370 4c41
00000100: 277b c7c0 056a 5e40 fd18 21c1 795c 933f
00000110: 8202 85c1 f39c aa41 6bce 16c1 b3d0 ca41
00000120: 829b a1c0 c0a6 3241 3e9f 9441 6591 9d41
00000130: cc46 fc41 075c d0c1 fa86 8740 1ebe 9940
00000140: c841 ab41 2a5f 2cc1 2776 0241 a97b 0b41
00000150: a51d 5b41 8644 8f41 3462 dec0 26a4 0f42
00000160: dbf7 e23f 9aa0 4040 83ae 98c1 1ca2 8d41
00000170: 2e63 9dbe 20e8 9841 07a2 58c0 85cf 8dbf
00000180: e87d 2a41 19b4 7841 b6df 6941 83a8 6d41
00000190: 434f 1741 bc9d 0cc1 7243 c041 3ac6 6240
000001a0: f946 17c1 f996 bac1 a92a a941 e81f 8140
000001b0: 40bd 9cc0 5ac7 4dc1 7d44 ce3e 72bc ab41
000001c0: b072 7141 c1e3 c541 36a3 b341 c89e 6940
000001d0: 1d20 80c1 cc25 9040 7e1b 083f 2476 90c1
000001e0: 41f2 14c1 7ddf 25c2 a9c7 d7c1 c203 3bc1
000001f0: 0425 d1c0 669a e140 be87 a5c1 7703 8b41
00000200: edbf 28c1 8b27 f641 b975 50c1 ea6b 7540
00000210: 8df1 aac1 9022 cf3c fb75 10bf 9506 03c1
00000220: d61c 00c2 1177 d940 4c2e 8ec0 8d1a a441
00000230: 6b43 433f b9e5 66c1 a9ea 04c2 d23d e340
-23.13033 -49.153328 -19.751705 22.68255 -5.2003593 -4.9894056 17.68396 11.634004
-27.341324 -2.754039 9.224204 -1.230037 13.215545 -20.354479 -9.257121 16.28606
-11.094435 14.449994 -8.7567 24.688387 -7.9011145 22.241707 -0.24129917 32.32281
-18.69324 26.912184 0.35191202 -7.111022 -51.9852 -7.0838366 -4.4486804 19.017944
-24.20109 12.579764 -28.725023 -3.9184387 -6.181744 -8.172839 -14.582801 -6.5865264
-25.282787 -23.21909 -18.456158 -5.18375 -9.154393 -18.990862 -0.30499965 -0.65547764
-18.334503 -21.61332 -3.484993 -18.834068 -21.936823 -12.398569 3.9776316 -3.0318532
-5.404778 4.167188 -0.9231126 -26.604122 4.0155354 -21.393705 0.73447424 12.777545
-6.2337832 3.475221 -10.068601 1.1512595 -16.626225 21.326635 -9.425395 25.351904
-5.050233 11.16571 18.577755 19.695993 31.534569 -26.044935 4.2352266 4.8044577
21.40712 -10.773233 8.153846 8.71769 13.694737 17.908459 -6.9494877 35.9103
1.773189 3.0098023 -19.08521 17.704155 -0.3073973 19.113342 -3.3848894 -1.1078955
10.655739 15.543969 14.617117 14.853641 9.456851 -8.788509 24.032932 3.5433488
-9.454827 -23.323717 21.14583 4.035145 -4.898102 -12.86117 0.40286627 21.467014
15.0905 24.736208 22.454693 3.6503162 -16.01568 4.504614 0.5316695 -18.057686
-9.309144 -41.46825 -26.97249 -11.688417 -6.5357685 7.0500975 -20.69128 17.376692
-10.546857 30.769308 -13.028741 3.8347116 -21.367945 0.025285035 -0.56430024 -8.189107
-32.02816 6.7957845 -4.4431515 20.512964 0.76274747 -14.431085 -33.22916 7.1012964

encoder.0.bias f4 [16]
00000000: 16ac 5c41 74c9 5942 fae0 8ac0 c9cc a741
00000010: 8e7c 21c1 6610 3c41 0e96 9741 45cc afc1
00000020: 6a45 8ec1 52f6 3540 c7f0 efc1 9dba c6c1
00000030: cd29 1bc0 501a 5abe 07f8 79c1 6300 21c1
13.792013 54.44673 -4.339963 20.974993 -10.092909 11.754004 18.948269 -21.974741
-17.783894 2.8431592 -29.992567 -24.84112 -2.4244263 -0.212991 -15.623054 -10.062594

encoder.2.weight f4 [32, 16, 3, 3]
00000000: d157 4540 b4a3 59c1 5189 02c1 13d1 6440
00000010: e7f5 0cc2 3d8e 05c1 418a 02c2 687b f740
00000020: 4d9b 2841 ac94 11c1 01e8 cec0 ab95 4542
00000030: 183e b0c1 d497 2741 fb59 46c2 cf2f 3cc1
00000040: 53be fbc1 4ff2 61c1 8cf6 8dc1 d287 87c1
00000050: 703f 9bc1 dcb9 44c1 fe30 c240 97ed c9c0
00000060: e4ac 19c2 411c bd3e 2358 9ac1 737b 73c0
00000070: 505e 2ec1 7422 6141 38fb 68c1 6aaf 2141
00000080: 39fd 24c0 16c6 b7c0 f79a e441 bad7 1f42
00000090: be44 8fc0 7cb4 f640 c88d ef40 5bcc 98c0
000000a0: dbe2 14c1 6828 b241 b1dd 60c0 a619 e7c1
000000b0: 5024 31c1 f78d 8dc1 4251 99bf 5b22 9ec0
000000c0: 7ef3 1bc1 2725 bcc1 ac25 adc1 7bab 1b40
000000d0: 791e 52c1 162a 9541 740c e141 e522 8341
000000e0: e434 9bc1 f29c 5fc2 ce9c b1c1 fef9 85c1
000000f0: 2236 f3c0 0f7a 33c1 a1fc d4c0 3bf2 5c41
00000100: 740d 4041 f5c0 9bc1 bb27 19c0 6107 5b41
00000110: 202f 52bd b324 a2c1 fee8 48c1 d967 abc0
00000120: f065 57c0 354a 0540 85a7 3941 cd3f 8d41
00000130: 1671 03c0 c938 9b40 c3f2 df41 0565 36c1
00000140: 4e99 a441 3b17 c641 eb25 4ec1 d9a9 4ec1
00000150: d9f8 a4c0 4d13 a241 1e29 21c1 b759 afc0
00000160: 6ad6 7b41 96ed 2bc1 4e00 393f ad5b bd41
00000170: 563b 16c0 3118 2ec1 505d b1c0 5080 f5c0
00000180: 14b4 03c1 da76 90c1 70df 71c1 b3d6 e3c0
00000190: 2835 82c1 14a9 0f42 b217 c440 08e9 87c1
000001a0: 9f35 a040 c1c0 b1c1 62ab 08c1 62c0 94c1
000001b0: 919c 1b41 4657 cf41 7a36 bf41 ec42 d240
000001c0: b94b 9bc1 98d2 c940 f13c 1542 2c6f bc40
000001d0: 055f 1142 5ef1 fec0 1389 6bc1 8377 4c41
000001e0: 2c5b 50c1 c25e 0bc1 ed77 2141 5c7c 553f
000001f0: 69c2 41c1 341b 1141 fac0 5041 5633 ccc1
00000200: 0e3b 9041 1a5b 83c1 7fb1 d641 1c69 11c1
00000210: 852d b840 a18c 6341 dcb8 90c1 f8d9 c2c1
00000220: 90ac 16c0 a48b e840 b164 6f40 f8f6 b641
00000230: 2117 0c41 d71b 45bf 60ce 20c1 0dfb fac1
00000240: b96a 7f41 e150 9f40 c0be ec40 69e9 75c0
00000250: 340f 9140 985e c6c1 9ac9 4cc1 17b1 6fc1
00000260: 93d2 93c1 2554 45c1 2db5 88bf 14da 5fbf
00000270: c2f0 8641 5daf 0b41 da35 ca41 c286 d2be
00000280: 576d f741 1d76 dd41 a58d ecc0 6090 0241
00000290: 3bf5 24c1 6559 c441 9dcb abc0 17ba 2641
000002a0: d0fc d741 d215 6ac1 7d34 8240 8a9e 0fc1
000002b0: fe15 00c2 1e89 8440 ce0b c041 5626 8bbf
000002c0: e564 6b41 c3b3 a9c1 4bd2 4cc1 19e7 ca40
000002d0: d959 fa40 11d8 5541 e76c 9341 4842 7341
000002e0: 0488 0841 cc4f 1e41 92ba d9bf 7958 da40
000002f0: 5ee9 a141 ef99 8941 7fa9 3442 5a23 7f40
00000300: d0bf 9b41 f5bc 8241 0272 08c1 3373 8cbe
00000310: f7e5 0441 0d2f 0ac0 9661 00c2 0818 0c42
00000320: d2b6 b341 631e 9241 6fb8 adc0 3d36 76c1
00000330: e775 2dc1 43cf 94c1 5ef0 fdc0 6664 1441
00000340: fceb 8f41 dcdd e041 e854 97c1 86e8 4d41
00000350: 3653 b941 7c4d a13f 4c99 3cc2 4cc2 10c1
00000360: fef2 82c1 3af6 74c1 ce04 6d3f be1d 79c0
00000370: d593 8dbf 861c 1bc2 d770 4841 c97f 3d42
00000380: 250e e5c0 7db3 b5c1 bb39 00c1 6091 a141
00000390: 9c6b fa3e 522e 9640 91ef 2242 52c8 d4c0
000003a0: 3ced 1bc0 fefc 17c2 d6a1 76c1 db1a f9c0
000003b0: a57f 3bc1 3608 8b41 d0e9 8041 cc69 bbc1
000003c0: e369 23c0 9be7 90c0 456f 0cc1 d9c8 0c42
000003d0: 8c22 1cc1 7996 aa3f 13cc ffc0 17be e0c1
000003e0: 0002 0242 0c77 3dc1 e4f0 4fc1 4f18 12c1
000003f0: c736 80c0 9c2e bcc1 4ff3 6ec0 a3c5 19c1
3.083485 -13.602467 -8.1585245 3.5752609 -35.24014 -8.347226 -32.635014 7.7338142
10.537915 -9.098797 -6.465821 49.39616 -22.03032 10.474567 -49.58787 -11.761672
-31.467932 -14.121657 -17.745384 -16.941319 -19.405975 -12.295376 6.0684805 -6.3102527
-38.41884 0.3693562 -19.293036 -3.8044097 -10.8980255 14.070911 -14.561333 10.105326
-2.5779555 -5.7429304 28.575666 39.96067 -4.4771414 7.709532 7.4860573 -4.7749457
-9.305385 22.26973 -3.513531 -28.887524 -11.071365 -17.694319 -1.1977923 -4.941694
-9.746946 -23.51814 -21.643394 2.4323413 -13.13244 18.64555 28.13108 16.392038
-19.400826 -55.903267 -22.201565 -16.747066 -7.600358 -11.217299 -6.6558385 13.809138
12.003284 -19.469217 -2.39305 13.6893015 -0.051314473 -20.26792 -12.556883 -5.3564267
-3.3655968 2.0826542 11.603398 17.656153 -2.0537772 4.850682 27.993536 -11.399663
20.574856 24.761343 -12.884257 -12.916467 -5.155377 20.259424 -10.072538 -5.4797015
15.739847 -10.745504 0.7226609 23.669764 -2.3473716 -10.880906 -5.5426407 -7.671913
-8.231464 -18.058033 -15.11705 -7.1199584 -16.275955 35.915115 6.1278925 -16.988785
5.0065455 -22.219118 -8.5418415 -18.593937 9.725724 25.917614 23.9016 6.570669
-19.411974 6.3069572 37.309513 5.888571 36.342793 -7.966964 -14.720965 12.779178
-13.022259 -8.710634 10.091779 0.8339288 -12.109963 9.069141 13.047113 -25.525066
18.028835 -16.419483 26.836668 -9.088161 5.7555566 14.221833 -18.090263 -24.35643
-2.3542824 7.267046 3.7405207 22.87059 8.755647 -0.76995605 -10.0503845 -31.372583
15.963555 4.978623 7.398285 -3.8423712 4.533106 -24.796188 -12.799219 -14.980735
-18.47782 -12.333043 -1.068029 -0.87442136 16.867558 8.730313 25.276295 -0.41118437
30.928389 27.682673 -7.3922906 8.160248 -10.309871 24.54365 -5.368605 10.420432
26.998444 -14.630327 4.0689073 -8.976206 -32.021477 4.141738 24.005764 -1.0871074
14.712132 -21.212774 -12.801341 6.34071 7.8234677 13.365251 18.428175 15.203682
8.533207 9.894482 -1.7010062 6.8233 20.238949 17.200163 45.165524 3.9865327
19.468658 16.342264 -8.527834 -0.2743164 8.306144 -2.1591218 -32.0953 35.023468
22.464268 18.264837 -5.428764 -15.388242 -10.841285 -18.601202 -7.9355917 9.274511
17.990227 28.10833 -18.916458 12.869268 23.16563 1.2601771 -47.149704 -9.047436
-16.368649 -15.310114 0.92585456 -3.8924403 -1.106074 -38.777855 12.527549 47.37479
-7.1579766 -22.71264 -8.014094 20.195984 0.48910224 4.6931543 40.73395 -6.649453
-2.4363546 -37.997063 -15.414511 -7.7845283 -11.718663 17.37901 16.114166 -23.426659
-2.5533378 -4.528272 -8.777165 35.19614 -9.758434 1.3327171 -7.9936614 -28.092817
32.501953 -11.841564 -12.996311 -9.130935 -4.0066867 -23.522758 -3.7336004 -9.610751

encoder.2.bias f4 [32]
00000000: 1c0c 8d40 9642 8840 00b2 323f a19f 92c0
00000010: afa6 27c1 ba04 7a40 379b 2341 bf46 cbc0
00000020: 8028 16c1 f73d ee3f 53f4 81c1 6442 a1c1
00000030: 7092 de40 49a5 f5c1 d3d9 26c2 8485 3ac0
00000040: a525 1bc2 04df e73f 99ae f541 d8e7 b041
00000050: 7574 c941 c750 b041 4a8c 08c2 adfc f0c0
00000060: a3a7 30c0 f447 8b3f bba0 dac0 5f04 1c41
00000070: 290b 3640 e036 be41 12c1 b841 6ac1 b7c0
4.407728 4.258128 0.69802856 -4.581986 -10.478194 3.9065385 10.225394 -6.352386
-9.384888 1.861266 -16.244299 -20.157417 6.9553757 -30.705706 -41.71272 -2.9143991
-38.786762 1.8114934 30.710253 22.113205 25.181864 22.039442 -34.137 -7.530844
-2.7602317 1.0881333 -6.8321204 9.751067 2.8444312 23.776794 23.094273 -5.74236

decoder.0.weight f4 [16, 32, 3, 3]
00000000: 36bb 88c1 4b6e 0541 a529 f841 1e37 1ec0
00000010: bcbf 9741 810d 57c1 4ed8 08c1 546b 2241
00000020: 658d 1e41 e3b1 afc1 54f9 bbbf 90f7 57c1
00000030: d199 49c1 da79 c4c1 74b3 0542 217a f541
00000040: be04 1142 f7d9 5341 38be 0041 73d8 f141
00000050: 24ee 8741 9b5c da40 f853 07c2 c9fc 1741
00000060: e163 d4c1 0ad7 2c41 1988 38c1 7f3b 6c41
00000070: 4f53 aa41 0a04 a440 7eb8 0441 baad 67bf
00000080: 70c1 05c1 b583 1c41 9fc1 0a40 798a 73c1
00000090: 6801 41c0 d601 a040 473a ea3f 08cf 9140
000000a0: 8bab 0542 f7e9 54c1 a7b8 67c1 f76d cdc0
000000b0: 5c6e 8641 6f4e fb3e 832d 09c2 063c cd41
000000c0: 2a1c 8a41 445c 633e af4a 15bf 14f6 9941
000000d0: 166d bf41 8a97 4cc1 6831 5541 a8e8 4ebf
000000e0: cc27 cac0 f2bc 8440 ca02 e6c1 665b 8ec0
000000f0: 2558 82c1 ddf9 9cc1 afcb 2841 fbe0 8fc1
00000100: 4f21 6740 f8d6 5e41 1e25 afc1 e951 c8c1
00000110: b7f9 8141 9330 3c41 d2c7 afc1 bbde 4b3f
00000120: f087 3e40 4960 87c1 11e9 bf3f 81d4 cbc0
00000130: 1210 e5c1 6a80 cd41 d162 1ec1 fcee 9341
00000140: 7199 f4c1 4b1c a2c0 c197 63c0 0d63 3ec1
00000150: dced 9241 7bc7 a33f 27b8 45c0 9114 00c0
00000160: 4d35 a3c1 8eb7 693d ceaf 8dc0 aa95 c041
00000170: 6dfd d240 59fb fc41 f988 7dc1 4aa7 61c1
00000180: 3c12 31c1 b226 53c1 d446 ccc1 826e aac0
00000190: 6dcb c441 f9be 9740 dec9 9240 246c 0442
000001a0: 3168 3dc0 a127 af41 0640 2dc0 6446 6fc1
000001b0: cb5b 37c2 f619 3041 fa53 ae41 f8f7 a840
000001c0: f471 51be 5c7a ae41 2b04 9cc1 e9fd 9841
000001d0: 3d67 3c41 6067 4e41 8e63 8740 71a9 fac0
000001e0: a754 9c41 a9b6 2741 6218 bdc1 3bc5 9a41
000001f0: 9486 65c1 c62c bb41 c8ab 75c0 cafd 13c2
00000200: 7035 bfc1 24fe f341 42bc 5341 ea62 9541
00000210: 4219 7f41 156e 88c1 ed9d 5441 7e96 9ac0
00000220: 34ae 93c1 348c 91c1 e65e ec40 ffed b33f
00000230: c4fe 17c0 02de 21c2 b94e 5c3f 1c4e f2c1
00000240: b056 ec3f 0534 38c1 772e 98c0 598e 6640
00000250: b31c 17c1 42f4 79c1 11ea e7c1 fa1c 01bf
00000260: f5a1 cc41 8952 b641 7fc6 9241 6ef1 da41
00000270: af31 fd3f fce8 f741 9492 9141 7a92 c641
00000280: 3c16 3a40 0deb 61c0 5be9 7cc1 695b 1841
00000290: 3993 0c41 a913 1a41 0886 6b40 3452 9e41
000002a0: 11b6 e940 4171 7ac0 efff e0c0 c47d 4ec1
000002b0: 297a 1841 fc34 21c1 0a19 8941 e4c8 a8c0
000002c0: 88fd 9741 7832 5441 1582 6c41 8665 4ac0
000002d0: 985e d9c1 b49a 5041 1046 b33f cef6 db3f
000002e0: 91ef e540 5b88 bbc1 7626 5040 3e1d 5dc1
000002f0: 6de8 8741 fae2 2cc1 3d47 1441 faa9 33c1
00000300: 05cc fcc1 c37b 19c2 1658 22c1 4586 b241
00000310: 2533 1ec0 dfd5 dc41 8684 c241 4de9 8e40
00000320: 8735 b5bf 89b0 10c1 5c2f bd40 10c7 19c2
00000330: f5ab 94c1 1e37 f4c1 4598 c2c0 07a4 7141
00000340: 4ec0 4ac0 c3b9 81c1 ae2d 1ac1 e053 8f41
00000350: 04a7 abc1 ffcb 5641 d71b b23e 1b0a a541
00000360: 46da e6be 2b4c ba41 dc68 0941 8481 8a40
00000370: 09c7 9141 3a7e abbf f203 5ec1 86df c93f
00000380: 1447 22c1 9af3 f8c1 ae89 27c0 5691 863f
00000390: c793 26c2 97c7 58c0 5156 9841 f406 47c1
000003a0: 3d1a 9cc1 216f 3141 20b5 12c1 6f93 6941
000003b0: 099a 6341 44a5 e63e b709 2d41 27c9 2a41
000003c0: d422 55c1 e8f5 d840 ce73 85c1 a627 fc40
000003d0: 6d04 7941 64fc 3941 028b c7c1 fd3f 583f
000003e0: 09f0 1740 2065 ccc1 b42e a241 2945 69c1
000003f0: 578a 0741 d387 c040 85e1 2f41 c739 15c1
-17.091412 8.339427 31.020334 -2.472114 18.96862 -13.440797 -8.552809 10.151203
9.90952 -21.961859 -1.4685464 -13.49794 -12.600053 -24.559498 33.425247 30.684633
36.25463 13.240714 8.04644 30.230688 16.99128 6.8238044 -33.832 9.499215
-26.548769 10.8025 -11.533227 14.764525 21.290678 5.125493 8.295042 -0.9049946
-8.359726 9.782155 2.1680677 -15.221307 -3.0157108 5.000224 1.8299035 4.5565224
33.417522 -13.30712 -14.482581 -6.4196734 16.803886 0.49083278 -34.294445 25.654308
17.263752 0.22203165 -0.58317083 19.245155 23.928265 -12.786997 13.324562 -0.80823755
-6.317358 4.1480646 -28.751362 -4.448657 -16.29304 -19.622004 10.549727 -17.984854
3.611408 13.927483 -21.893124 -25.039995 16.246931 11.761859 -21.972569 0.79636735
2.977047 -16.922014 1.4993001 -6.3696904 -28.632847 25.687702 -9.899125 18.491692
-30.574923 -5.0659537 -3.5561373 -11.899182 18.366142 1.2795252 -3.0893648 -2.0012553
-20.401026 0.057059817 -4.4277105 24.073078 6.593436 31.622728 -15.845941 -14.103342
-11.066952 -13.196947 -25.534584 -5.3259897 24.599329 4.742062 4.587142 33.105606
-2.9594843 21.89435 -2.7070327 -14.954685 -45.83964 11.006338 21.791004 5.2802696
-0.20453626 21.809746 -19.502035 19.12398 11.775205 12.900238 4.2309027 -7.833184
19.541334 10.482095 -23.636906 19.346304 -14.345356 23.396862 -3.8386097 -36.99784
-23.901093 30.499092 13.233461 18.673298 15.943666 -17.053751 13.288556 -4.8308706
-18.46006 -18.193459 7.3865843 1.4057006 -2.3749247 -40.466805 0.8605762 -30.28814
1.8463955 -11.5127 -4.755672 3.6024382 -9.444507 -15.622133 -28.98929 -0.5043484
25.57908 22.7903 18.346922 27.367886 1.9780787 30.988762 18.196571 24.821522
2.907607 -3.5299714 -15.806972 9.522317 8.785943 9.6298 3.6800556 19.790138
7.303475 -3.9131625 -7.031242 -12.9057045 9.529824 -10.075436 17.137226 -5.274523
18.998795 13.262321 14.781758 -3.1624465 -27.171188 13.037769 1.4005756 1.7184694
7.185494 -23.44158 3.2523475 -13.819639 16.98849 -10.805414 9.267392 -11.228998
-31.599619 -38.37086 -10.146505 22.315561 -2.4718716 27.60443 24.314709 4.465979
-1.415696 -9.043099 5.912031 -38.444397 -18.583963 -30.526913 -6.0810876 15.102546
-3.1679873 -16.215704 -9.636152 17.915955 -21.45655 13.424804 0.34786865 20.629934
-0.45088404 23.287191 8.5881 4.32831 18.222185 -1.3397896 -13.875963 1.5771339
-10.142353 -31.118946 -2.6177783 1.0513103 -41.644314 -3.387182 19.042147 -12.439198
-19.512812 11.089631 -9.16922 14.598495 14.225106 0.45047963 10.814872 10.674109
-13.321003 6.780018 -16.681545 7.87984 15.5635805 11.624119 -24.942875 0.8447264
2.3740256 -25.549377 20.272804 -14.579385 8.471274 6.01658 10.9925585 -9.326606

decoder.0.bias f4 [16]
00000000: ed78 0840 106f 673f 30d8 9dbf 43f9 88c0
00000010: bdd1 fcc1 c035 d43f 76c0 3f3f 2f9d c8c1
00000020: 32ad 7d41 f1eb f2c1 366e 3dc1 6f7b 38c1
00000030: 890c a2c1 fdf5 0e3f 94dd 543f bc4c 7dc1
2.1323807 0.9040384 -1.23316 -4.2804275 -31.602411 1.6578903 0.7490305 -25.07675
15.854784 -30.365206 -11.839407 -11.530135 -20.25612 0.558441 0.831506 -15.831234

decoder.2.weight f4 [1, 16, 3, 3]
00000000: 9e40 4dc1 d982 b8c1 92e9 8a41 e297 cd40
00000010: 0797 3ec1 0a7d b3c0 ab98 36c1 7fd4 9bc1
00000020: 6137 a63e 238c 28c1 b37d ed41 a412 a0c0
00000030: 2a8a ce41 8cd9 b5c0 ae6a 1f41 87be c740
00000040: b68a 5f3f e310 0bc2 3f9c 4d40 4861 a3be
00000050: 2de0 81c1 3636 1c41 b018 59c1 90ab b341
00000060: 21c3 99c1 3dec 86c1 0e06 e2c0 5d27 9fc1
00000070: aa35 21c1 94cd b5c1 04e3 a93e cda4 c7c1
00000080: ce60 bec1 f2da cdbe f5fd 6841 cf94 d8c1
00000090: 194e 5840 9dfd 0ec2 7652 e0bf 3cfb f6c1
000000a0: 8561 9fc0 8e11 a7c1 0848 15c1 fa22 22c2
000000b0: df3f a541 66be 963f 1fbd 2ac0 3ba9 e640
000000c0: 6ec8 79c1 874d a340 de10 63c1 370e 4ebf
000000d0: 9c01 8d40 dc08 c9c1 4975 9ec0 2371 dcc0
000000e0: d491 3dc1 d878 76c1 61d3 8641 60ce 85c0
000000f0: ef07 a741 5728 0841 560d 97c1 bd2c 67c0
00000100: 39a9 8141 a31c 68c1 0b4a ed40 896e e7c1
00000110: 9e5f 5940 287e 3c3e bbe4 d840 0468 56c1
00000120: 4f3f 9ec0 9169 dec1 2707 8740 5cae a1c0
00000130: 514e 6ec1 8c23 57c1 f80d 5b41 dfb7 61c1
00000140: 5754 9e41 dbd2 b6c1 c0cf 1dc1 ec47 7d41
00000150: 157a a9c1 d477 eac1 1071 45c1 b08f 7abf
00000160: 4908 7fc1 3806 a5c1 e12e 25bf 9c2b 01c1
00000170: f135 0e42 edd5 0641 203f 8041 1d71 edc0
00000180: f099 2041 25f2 95c1 c0f9 c43d 0e85 f4bf
00000190: 5128 1040 6d6f 52c0 4f85 8cc0 3490 ccc0
000001a0: 7ce3 98c0 e177 2ac1 cedc 0341 0642 c8c1
000001b0: 4336 0ebf 8ba0 cec0 0f27 56c1 7df5 32c1
000001c0: e791 eac1 bd17 fb40 c293 f5c1 1990 3bc0
000001d0: 37f6 8cc1 7c07 ef40 2a43 b2c0 5b6c ac41
000001e0: dbdd e5c1 d6ae d240 99db 34c2 0d19 c641
000001f0: 5e84 9cc1 9885 8541 785b 2641 c537 48c0
00000200: 871f e7c0 1a44 3a41 f486 6cc1 5ee8 b3c0
00000210: 65b0 b541 cafe ad40 d793 4ec1 94e1 b741
00000220: d206 a3c1 8ee3 0242 29f1 95c1 759e 9341
00000230: fd3c c4c0 e46a f8bf f638 4b41 44b1 1042
-12.828276 -23.06389 17.364048 6.4247904 -11.911872 -5.6090136 -11.412272 -19.478758
0.32464126 -10.534213 29.686377 -5.0022755 25.817463 -5.682806 9.963545 6.2420077
0.8732103 -34.76649 3.2126615 -0.31910157 -16.23446 9.763235 -13.568527 22.45877
-19.220278 -16.86535 -7.063239 -19.89422 -10.075602 -22.72538 0.33181012 -24.95547
-23.797268 -0.40206105 14.562001 -27.07266 3.3797667 -35.74767 -1.7525165 -30.872673
-4.9806542 -20.883572 -9.330086 -40.534157 20.656187 1.1776855 -2.667793 7.208158
-15.611433 5.103214 -14.191618 -0.8049044 4.4064465 -25.129326 -4.951817 -6.8888106
-11.848103 -15.404503 16.853212 -4.1814423 20.878874 8.509849 -18.881512 -3.6121056
16.207628 -14.506991 7.4152884 -28.928972 3.396461 0.184075 6.777921 -13.400394
-4.945228 -27.801546 4.219623 -5.052534 -14.89412 -13.446178 13.69091 -14.10739
19.791182 -22.852957 -9.86322 15.830059 -21.18461 -29.30851 -12.340103 -0.978755
-15.939523 -20.628036 -0.64524657 -8.073147 35.552677 8.427228 16.030823 -7.420058
10.037582 -18.743235 0.096179485 -1.9103105 2.2524607 -3.288051 -4.391273 -6.392603
-4.777769 -10.654267 8.241407 -25.032238 -0.55551547 -6.4570975 -13.384536 -11.184934
-29.321241 7.8466477 -30.697147 -2.93067 -17.620222 7.4696636 -5.5706987 21.552908
-28.733328 6.5838423 -45.21445 24.762232 -19.564632 16.690231 10.397331 -3.128404
-7.2225986 11.641626 -14.782948 -5.622115 22.71113 5.437352 -12.911094 22.985146
-20.37833 32.72222 -18.742754 18.452372 -6.132445 -1.940762 12.7014065 36.17311
