candidate_networks/inet6_4.pt (torch, 41295 bytes, 14 tensors)

c1.weight f4 [16, 1, 3, 3]
0	0xc1c05e4f	-24.04605
1	0xc2447a8b	-49.11967
2	0xc19eb1c9	-19.83681
3	0x41b535f4	22.651344
4	0xc09deaac	-4.9348965
5	0xc08a1005	-4.3144555
6	0x418f49b3	17.910986
7	0x4133a201	11.227052
8	0xc1e29dcf	-28.327055
9	0xc03b0cd0	-2.922657
10	0x410d3dba	8.82757
11	0xbfa2f119	-1.2729827
12	0x414d4aea	12.83079
13	0xc19d6726	-19.675365
14	0xc11adb4c	-9.678539
15	0x41838044	16.43763
16	0xc13268c2	-11.150576
17	0x416403cf	14.25093
18	0xc1102e3e	-9.01129
19	0x41c02424	24.017647
20	0xc0f6d837	-7.7138934
21	0x41b27686	22.307873
22	0xbe9a21a0	-0.3010378
23	0x42039355	32.89388
24	0xc195cec8	-18.725967
25	0x41db8d46	27.443981
26	0x3f6d31fc	0.92654395
27	0xc0e3d1c8	-7.119358
28	0xc251440d	-52.316456
29	0xc0e13118	-7.037243
30	0xc0954697	-4.664867
31	0x419bb4a3	19.463202
32	0xc1c32941	-24.395144
33	0x4148e016	12.5547085
34	0xc1e74f0f	-28.913603
35	0xc072eec7	-3.7958238
36	0xc0c708f7	-6.2198443
37	0xc1073d62	-8.452486
38	0xc171e3ce	-15.118116
39	0xc0ef59fe	-7.4797354
40	0xc1c4cab7	-24.598982
41	0xc1b5bd10	-22.717316
42	0xc191578d	-18.16775
43	0xc099809d	-4.79695
44	0xc10e525f	-8.89511
45	0xc1980c2d	-19.005945
46	0x3f022096	0.5083097
47	0xbf2f26a0	-0.6841831
48	0xc190bda5	-18.0926
49	0xc1ae002a	-21.75008
50	0xc04b8eba	-3.1805863
51	0xc1952f6d	-18.648157
52	0xc1ac52d5	-21.540445
53	0xc1550e68	-13.316017
54	0x4082b3ed	4.0844636
55	0xc03a32fe	-2.9093623
56	0xc0c7fa2f	-6.24929
57	0x40917dd4	4.54661
58	0xbf1bb955	-0.6082967
59	0xc1d121fd	-26.141596
60	0x407e8f5d	3.9775002
61	0xc1af98a5	-21.949533
62	0x3ed40726	0.41411704
63	0x4141c101	12.10962
64	0xc0cc02c9	-6.37534
65	0x40559494	3.3371935
66	0xc11cc51a	-9.7981205
67	0x3f5a0324	0.8516104
68	0xc186b62b	-16.83895
69	0x41aa520a	21.290058
70	0xc10f6ffa	-8.964838
71	0x41ccab90	25.58377
72	0xc09e1da3	-4.941118
73	0x41363f84	11.390507
74	0x4192bf4a	18.343403
75	0x419cb390	19.587677
76	0x41ff7cdf	31.935972
77	0xc1d15169	-26.164751
78	0x407d4230	3.9571648
79	0x409f37ad	4.9755464
80	0x41a52d9f	20.647276
81	0xc12f0a32	-10.939989
82	0x40fc52f9	7.8851285
83	0x410d10c6	8.816595
84	0x4156d31b	13.426539
85	0x418de5fa	17.737293
86	0xc0e06890	-7.012764
87	0x42104440	36.06665
88	0x3fda82e6	1.7071197
89	0x402e0d4a	2.719561
90	0xc1985418	-19.041061
91	0x418d326b	17.649618
92	0x3ead6c8a	0.3387187
93	0x419981ee	19.188442
94	0xc06ca8ba	-3.6977983
95	0xbfb23f23	-1.3925518
96	0x411e9c94	9.913227
97	0x41782d4f	15.511062
98	0x4168cdb4	14.5502205
99	0x4177b56b	15.4817915
100	0x41164b7d	9.39343
101	0xc10cecc7	-8.807807
102	0x41c31b26	24.388256
103	0x407f1157	3.9854333
104	0xc1103740	-9.013489
105	0xc1b9d68d	-23.229761
106	0x41a4f974	20.621803
107	0x4084a437	4.1450458
108	0xc0a14417	-5.0395617
109	0xc1502dd2	-13.011187
110	0x3f2872d8	0.6580024
111	0x41aff9ee	21.997036
112	0x4172ca55	15.174397
113	0x41c9d6d2	25.229893
114	0x41b54e01	22.663088
115	0x404f02d7	3.2345483
116	0xc17f93c2	-15.973574
117	0x40971318	4.721081
118	0x3f3c83dc	0.736387
119	0xc18da7d7	-17.706953
120	0xc10d1da2	-8.819735
121	0xc225215d	-41.28258
122	0xc1d6380b	-26.777365
123	0xc143f1f6	-12.2465725
124	0xc0cc2168	-6.379078
125	0x40daacda	6.8336
126	0xc1a538e1	-20.652773
127	0x418a366c	17.276573
128	0xc12c14f1	-10.755113
129	0x41f88c3d	31.068476
130	0xc14fbb44	-12.983219
131	0x408b81c3	4.35959
132	0xc1af229a	-21.891895
133	0xbeeff7c2	-0.46868712
134	0xbeeaee0c	-0.4588474
135	0xc0f279e1	-7.577378
136	0xc1feef4d	-31.866846
137	0x40e0bc8f	7.0230174
138	0xc084a5cb	-4.1452384
139	0x41a44b5f	20.536802
140	0x3e23bd98	0.15990293
141	0xc173665f	-15.212493
142	0xc2059319	-33.39365
143	0x40d5bf20	6.6795807

c1.bias f4 [16]
0	0x415bce50	13.737869
1	0x4258ab68	54.16739
2	0xc08beee1	-4.37291
3	0x41a5f8cb	20.74648
4	0xc1226aa0	-10.1510315
5	0x4133656b	11.21226
6	0x419a6d8e	19.303493
7	0xc1b1b954	-22.215492
8	0xc192aaa5	-18.333323
9	0x403a8be0	2.9147873
10	0xc1f0601a	-30.046925
11	0xc1c6685d	-24.800959
12	0xc01b846f	-2.429958
13	0x3cc16c30	0.023611158
14	0xc1721753	-15.130694
15	0xc11bee83	-9.74573

c2.weight f4 [32, 16, 3, 3]
0	0x40551008	3.3291035
1	0xc157f2f6	-13.496817
2	0xc0fffa9e	-7.999343
3	0x407b4cd3	3.926564
4	0xc20c1c85	-35.02785
5	0xc1096af0	-8.588608
6	0xc201ea4a	-32.478798
7	0x40de5f25	6.9491143
8	0x41319750	11.099442
9	0xc108ec20	-8.557648
10	0xc0c812b8	-6.252285
11	0x42442176	49.032677
12	0xc1a882a1	-21.063784
13	0x4121ce98	10.112938
14	0xc2492a1b	-50.29112
15	0xc13d6504	-11.837162
16	0xc201a27a	-32.40867
17	0xc169bf74	-14.6092415
18	0xc1947212	-18.555698
19	0xc184b49e	-16.588192
20	0xc198dc5d	-19.1076
21	0xc13bd987	-11.740607
22	0x40b96694	5.7937717
23	0xc0ca8fe7	-6.330066
24	0xc217493c	-37.821518
25	0x3efe9f97	0.49731132
26	0xc19e5c32	-19.795017
27	0xc081d298	-4.0569572
28	0xc12c9249	-10.785714
29	0x4167f8f1	14.498277
30	0xc15daf5c	-13.855312
31	0x41262dbb	10.386165
32	0xc033946f	-2.8059347
33	0xc0ae5f21	-5.4491124
34	0x41e44086	28.531506
35	0x4222da4b	40.713177
36	0xc08f9713	-4.4871917
37	0x40e7eb16	7.247447
38	0x40f10cb2	7.5327997
39	0xc099944b	-4.799352
40	0xc10f2fa7	-8.949134
41	0x41b37058	22.429855
42	0xc06bf74b	-3.6869686
43	0xc1e9b163	-29.211615
44	0xc130739f	-11.028228
45	0xc18a255d	-17.268244
46	0xbe985e8c	-0.29759634
47	0xc0a5089d	-5.1573014
48	0xc11b2afa	-9.697992
49	0xc1b9b1b2	-23.211765
50	0xc1ae1ca2	-21.76398
51	0x400a844a	2.1643243
52	0xc156f2b6	-13.434256
53	0x41946ce7	18.553175
54	0x41df8dbf	27.944212
55	0x417ebc45	15.920964
56	0xc19af15b	-19.36785
57	0xc2621377	-56.51901
58	0xc1b2aa83	-22.333258
59	0xc187b88e	-16.965115
60	0xc0ec2b1a	-7.3802614
61	0xc13aa568	-11.665382
62	0xc0dda35b	-6.926191
63	0x4162f95a	14.185877
64	0x4140fd29	12.061807
65	0xc19fa894	-19.957314
66	0xc0037d51	-2.0545237
67	0x415bfd90	13.749405
68	0xbd807dd8	-0.06274003
69	0xc1a637f9	-20.77733
70	0xc14295cf	-12.161574
71	0xc0a8525f	-5.260055
72	0xc04621f5	-3.0958226
73	0x4009950e	2.1497226
74	0x41412301	12.071046
75	0x41905acc	18.044334
76	0xc03b23e0	-2.9240646
77	0x40ba2bdb	5.8178535
78	0x41e05bf4	28.044899
79	0xc138954b	-11.5364485
80	0x41a62e2e	20.772549
81	0x41c4881a	24.566456
82	0xc14d0e04	-12.815922
83	0xc147570b	-12.458751
84	0xc0b60435	-5.6880136
85	0x41a93612	21.151402
86	0xc11e12c9	-9.879586
87	0xc0b31451	-5.59623
88	0x41714d71	15.081407
89	0xc12c8b82	-10.78406
90	0x3f055e26	0.52096784
91	0x41bd15c7	23.635633
92	0xc014cdd4	-2.3250628
93	0xc1300618	-11.001488
94	0xc0af6dbe	-5.4821463
95	0xc0ebfb07	-7.374393
96	0xc1068956	-8.408529
97	0xc1916292	-18.17313
98	0xc16ad119	-14.676049
99	0xc0dc68c3	-6.8877883
100	0xc186878f	-16.81619
101	0x42113201	36.298832
102	0x40bbaaff	5.8646235
103	0xc1864b66	-16.786816
104	0x40ad1ecd	5.41001
105	0xc1af7498	-21.93193
106	0xc1085013	-8.519549
107	0xc1922624	-18.268623
108	0x4115f664	9.372654
109	0x41d6b773	26.839575
110	0x41be6c2a	23.802814
111	0x40d5469c	6.6648693
112	0xc19aeb6a	-19.364948
113	0x40c806cc	6.2508297
114	0x42162cdd	37.54381
115	0x40b4962a	5.6433306
116	0x4211ca81	36.447758
117	0xc0fcadba	-7.896207
118	0xc171ab21	-15.1042795
119	0x4145fb99	12.373925
120	0xc1439101	-12.222901
121	0xc0fc0093	-7.87507
122	0x4129d1cb	10.613719
123	0x3f9b1bc3	1.2117847
124	0xc140d83a	-12.05279
125	0x410e7dfb	8.905757
126	0x4149643b	12.58697
127	0xc1c4d1f5	-24.602518
128	0x418df4d7	17.74455
129	0xc18302db	-16.376394
130	0x41d85078	27.039291
131	0xc11899f3	-9.537585
132	0x409d1897	4.9092517
133	0x4160e7f4	14.056629
134	0xc1935948	-18.418594
135	0xc1c3cfbb	-24.47643
136	0xc02f919c	-2.7432623
137	0x40db5e34	6.8552494
138	0x4075832f	3.8361318
139	0x41b5fd05	22.748545
140	0x41049cba	8.288263
141	0xbfbeda37	-1.4910344
142	0xc122474a	-10.142405
143	0xc1fbb54b	-31.463522
144	0x4183ed4f	16.490873
145	0x40ad64ef	5.418571
146	0x40f4b13b	7.6466346
147	0xc072382e	-3.784679
148	0x4090d7bf	4.526336
149	0xc1c4d16c	-24.602257
150	0xc152cfd7	-13.175742
151	0xc167aabf	-14.479186
152	0xc1951d12	-18.639194
153	0xc14192fb	-12.098384
154	0xbf231ed5	-0.6371892
155	0xbf638154	-0.88869214
156	0x418944f1	17.158663
157	0x410a0932	8.627245
158	0x41c91301	25.13428
159	0x3e23e7c6	0.16006383
160	0x41f78011	30.937532
161	0x41d995c2	27.198124
162	0xc0dda7ac	-6.9267178
163	0x41057326	8.340612
164	0xc1247c23	-10.280307
165	0x41c6c2c5	24.845102
166	0xc0bac494	-5.8364964
167	0x4129bda1	10.608796
168	0x41d5c511	26.721224
169	0xc16beb3c	-14.74493
170	0x408b4c95	4.3530984
171	0xc11416c8	-9.255562
172	0xc1fce812	-31.613316
173	0x4083a790	4.1142044
174	0x41c00b7f	24.005613
175	0xbf0f600c	-0.5600593
176	0x41709af7	15.037833
177	0xc1a88c04	-21.068367
178	0xc146e1fe	-12.430174
179	0x40d05f3e	6.5116262
180	0x40fea4ad	7.957602
181	0x415d0e68	13.816017
182	0x41939a3f	18.450315
183	0x41727db7	15.155692
184	0x410bb6f5	8.732167
185	0x41263dc1	10.390077
186	0xbfc7c762	-1.5607722
187	0x40da7468	6.8267097
188	0x41a404de	20.502377
189	0x418ca8f4	17.582497
190	0x42331fba	44.780983
191	0x4080c3d9	4.023907
192	0x419e7931	19.809175
193	0x418479fa	16.559559
194	0xc10989b4	-8.596119
195	0x3eff7d54	0.49900305
196	0x4101bf3d	8.109189
197	0xbff950c0	-1.9477768
198	0xc2010ba7	-32.26138
199	0x420edd13	35.715893
200	0x41b64c0c	22.787132
201	0x418f0666	17.878124
202	0xc0a8e978	-5.2784996
203	0xc1796660	-15.587494
204	0xc12837a1	-10.513581
205	0xc194d74d	-18.605127
206	0xc10254e5	-8.145726
207	0x410cf653	8.810138
208	0x418eda75	17.856668
209	0x41e09aff	28.075682
210	0xc1980661	-19.003115
211	0x414d354b	12.825511
212	0x41bd981f	23.699278
213	0x3fa6193e	1.2976453
214	0xc23b30be	-46.7976
215	0xc114a308	-9.289803
216	0xc1833c9f	-16.4046
217	0xc1750a35	-15.314992
218	0x3f3d0923	0.73842067
219	0xc06424a0	-3.5647354
220	0xbf9fb3bd	-1.2476727
221	0xc21be902	-38.977547
222	0x4149c75f	12.611175
223	0x423a937e	46.644035
224	0xc0ed45e4	-7.4147816
225	0xc1b52d4f	-22.647123
226	0xc1131c95	-9.194478
227	0x41a3a556	20.45573
228	0x3f0f82ce	0.5605897
229	0x408bd5c0	4.3698425
230	0x4223b70f	40.92877
231	0xc0df05d3	-6.969461
232	0xc0151672	-2.329495
233	0xc21768bf	-37.85229
234	0xc179896d	-15.596051
235	0xc10450c6	-8.26972
236	0xc136d931	-11.428025
237	0x418d1e03	17.639654
238	0x41804779	16.034899
239	0xc1b771c5	-22.930552
240	0xc060b800	-3.5112305
241	0xc0813e46	-4.0388517
242	0xc105b72e	-8.357222
243	0x420be1e8	34.97061
244	0xc11be7b4	-9.744068
245	0x3fac132f	1.3443354
246	0xc0fa95b5	-7.830775
247	0xc1dca761	-27.581728
248	0x42018b92	32.3863
249	0xc13b15a2	-11.692781
250	0xc14a7530	-12.65361
251	0xc101962a	-8.099161
252	0xc085b921	-4.1788487
253	0xc1bfc0b9	-23.969103
254	0xc075dd54	-3.8416338
255	0xc117d274	-9.48888

c2.bias f4 [32]
0	0x408d7797	4.4208484
1	0x40822303	4.066774
2	0x3f8ab4de	1.0836446
3	0xc08e19d6	-4.440654
4	0xc1211eb6	-10.069998
5	0x406f964a	3.743548
6	0x412610e1	10.379121
7	0xc0cde5ad	-6.4342866
8	0xc11c0ccf	-9.753127
9	0x400ac9bd	2.1685631
10	0xc184e553	-16.611975
11	0xc1a43a25	-20.52839
12	0x40e23453	7.068887
13	0xc1f1a296	-30.204388
14	0xc22829f6	-42.040977
15	0xc0103beb	-2.253657
16	0xc21ba9a9	-38.915684
17	0x3ff2964d	1.8952118
18	0x41f200cb	30.250387
19	0x41b154d6	22.166424
20	0x41c99d8d	25.20193
21	0x41ae4c82	21.787357
22	0xc208e4e4	-34.223526
23	0xc0ff390d	-7.975714
24	0xc01b23a1	-2.4240496
25	0x3f86c67c	1.0529323
26	0xc0bbb94e	-5.86637
27	0x410fc485	8.985478
28	0x40444c72	3.0671659
29	0x41bd2cb1	23.646822
30	0x41ba83e8	23.314407
31	0xc0b49d0a	-5.64417

d1.weight f4 [16, 32, 3, 3]
0	0xc1864399	-16.783007
1	0x41044984	8.267948
2	0x41f9f351	31.243807
3	0xc036e4e0	-2.8577194
4	0x4196a359	18.82976
5	0xc1634a01	-14.205567
6	0xc115b7c3	-9.357364
7	0x412a344f	10.637771
8	0x4117c1c7	9.484809
9	0xc1af7313	-21.931189
10	0xbf291335	-0.6604493
11	0xc1549d69	-13.28843
12	0xc13daa00	-11.854004
13	0xc1c353dc	-24.415947
14	0x42034635	32.81856
15	0x41f8ad7e	31.084713
16	0x4210d003	36.203136
17	0x41541371	13.254746
18	0x41032c7e	8.198362
19	0x41f42ae0	30.520935
20	0x418903fe	17.12695
21	0x40f29560	7.5807343
22	0xc207b452	-33.926094
23	0x4118153b	9.505183
24	0xc1d627c4	-26.769417
25	0x412710d7	10.441611
26	0xc12f68b4	-10.963062
27	0x4167aee5	14.480199
28	0x41a9659c	21.174614
29	0x409888ae	4.7666845
30	0x41018e28	8.097206
31	0xbf80bdd2	-1.0057929
32	0xc1052bd5	-8.323201
33	0x41279b35	10.475392
34	0x3fec536f	1.8462962
35	0xc168c175	-14.547231
36	0xc042371a	-3.0346131
37	0x40b6ebb4	5.7162724
38	0x3fd728bb	1.6809305
39	0x4095e3fb	4.6840796
40	0x4205f7fc	33.492172
41	0xc153fcf8	-13.24926
42	0xc16a37eb	-14.638652
43	0xc0d21f51	-6.566323
44	0x4184dd21	16.607973
45	0x3d995c54	0.07488313
46	0xc208c10b	-34.18852
47	0x41d01075	26.008036
48	0x418ed2d1	17.852938
49	0xbf13b73a	-0.57701457
50	0xbf3ef13c	-0.74586844
51	0x4193cf51	18.476229
52	0x41c09359	24.071947
53	0xc1566bd5	-13.401326
54	0x4159ae15	13.6050005
55	0xbf856748	-1.0422144
56	0xc0d8e26b	-6.777639
57	0x4084c8c5	4.149508
58	0xc1e51eb4	-28.639992
59	0xc0837acb	-4.1087394
60	0xc18424d0	-16.517975
61	0xc19c07f8	-19.503891
62	0x411c97d4	9.787067
63	0xc1913a70	-18.153534
64	0x405785e6	3.3675475
65	0x415ab3c9	13.668893
66	0xc1abad48	-21.45961
67	0xc1ccf7fa	-25.621082
68	0x41815c37	16.170027
69	0x4142c4c1	12.173036
70	0xc1ade2e1	-21.73578
71	0x3f840deb	1.0316747
72	0x405cb95b	3.4488132
73	0xc18a37f3	-17.277319
74	0x3fb8253a	1.4386361
75	0xc0cf4ad0	-6.4778824
76	0xc1e11019	-28.13286
77	0x41ce25a5	25.768381
78	0xc11f0fda	-9.94137
79	0x41954567	18.658888
80	0xc1f49c33	-30.57627
81	0xc09f2023	-4.972673
82	0xc05428ad	-3.3149827
83	0xc1365493	-11.395648
84	0x41987e53	19.061682
85	0x3f689a8a	0.9086081
86	0xc0472b51	-3.1120188
87	0xbfbce5a7	-1.4757584
88	0xc1a45609	-20.54201
89	0x3c4d8b90	0.012545481
90	0xc096b32f	-4.709373
91	0x41c19140	24.195923
92	0x40cb1ab6	6.3470106
93	0x41ff6745	31.925425
94	0xc17c9553	-15.786456
95	0xc16566bb	-14.337581
96	0xc139c483	-11.6104765
97	0xc1521a03	-13.1313505
98	0xc1cad73c	-25.355095
99	0xc0a02aaa	-5.005208
100	0x41caacd3	25.334387
101	0x40a70ccc	5.220312
102	0x4080a9a6	4.020709
103	0x4201f34b	32.48759
104	0xc054f56d	-3.3274796
105	0x41b1e707	22.237806
106	0xc0097b32	-2.1481442
107	0xc17385f6	-15.220205
108	0xc238a1ce	-46.158012
109	0x413a38c4	11.638859
110	0x41b1ed91	22.241
111	0x40b079a1	5.5148473
112	0xbee19e0e	-0.440659
113	0x41ac2ad0	21.520905
114	0xc19b41f6	-19.407207
115	0x419831f6	19.024395
116	0x413aaff2	11.667955
117	0x413e681c	11.900417
118	0x40861c69	4.190968
119	0xc10302b1	-8.188157
120	0x41a19b90	20.200958
121	0x412a381d	10.6387
122	0xc1c1c78e	-24.222439
123	0x41986ca5	19.05305
124	0xc1641739	-14.25567
125	0x41be5daf	23.795744
126	0xc0827f5f	-4.078048
127	0xc21276ea	-36.616127
128	0xc1bfb23c	-23.962029
129	0x41f18998	30.192184
130	0x4155f8a6	13.373205
131	0x4197c091	18.969027
132	0x4180e09b	16.10967
133	0xc18ad870	-17.355682
134	0x414fb6ab	12.982097
135	0xc0ac98dd	-5.39366
136	0xc192a519	-18.330614
137	0xc192fdb8	-18.373886
138	0x40ebd777	7.370052
139	0x3fc84236	1.5645206
140	0xc0407b32	-3.0075192
141	0xc220b323	-40.17494
142	0x3fa40240	1.2813187
143	0xc1ef511c	-29.914604
144	0x3fed037a	1.8516686
145	0xc13e2b38	-11.885551
146	0xc0a50cad	-5.1577973
147	0x4052136f	3.2824361
148	0xc11934cd	-9.575391
149	0xc174a52c	-15.290325
150	0xc1e97e7d	-29.186762
151	0xbf535356	-0.82549036
152	0x41cd05ca	25.627827
153	0x41b4dd69	22.60811
154	0x4190f356	18.118816
155	0x41dba584	27.455818
156	0x3fcdc012	1.607424
157	0x41f86a69	31.051958
158	0x41937567	18.432325
159	0x41c5b0e5	24.711374
160	0x401f961c	2.493537
161	0xc05ddd1a	-3.46662
162	0xc181f220	-16.243225
163	0x4119303f	9.574279
164	0x41091407	8.5673895
165	0x411891ab	9.535563
166	0x4067e886	3.623567
167	0x41a468eb	20.55123
168	0x40ee7415	7.45167
169	0xc06c6409	-3.6936057
170	0xc0dc3711	-6.881722
171	0xc14c8f0c	-12.784924
172	0x411a2ff3	9.636706
173	0xc118525c	-9.520107
174	0x4187c22e	16.969814
175	0xc09ced70	-4.903984
176	0x4199330c	19.149925
177	0x4151f2a1	13.121736
178	0x41760397	15.375876
179	0xc05af3bf	-3.421127
180	0xc1d6a4cb	-26.830465
181	0x414d818a	12.844126
182	0x3fa5f8d7	1.2966565
183	0x3fbdbf97	1.4824094
184	0x40f45f5b	7.63664
185	0xc1bb052e	-23.37753
186	0x4055f174	3.3428621
187	0xc159a689	-13.603158
188	0x418968f1	17.17624
189	0xc131345c	-11.075283
190	0x411435d7	9.2631445
191	0xc13ae958	-11.681969
192	0xc1fb1ab2	-31.388035
193	0xc21acb35	-38.698444
194	0xc129878a	-10.595591
195	0x41b3ac57	22.45915
196	0xc01a689e	-2.4126353
197	0x41d7d28d	26.977808
198	0x41bf6162	23.92255
199	0x40a9448a	5.2896166
200	0xbfd9c7d8	-1.7014112
201	0xc10e3b88	-8.889534
202	0x40ab6439	5.355984
203	0xc21b38b4	-38.805374
204	0xc1911232	-18.133884
205	0xc1f3abc8	-30.458878
206	0xc0cfb99a	-6.4914064
207	0x4179b9b5	15.607839
208	0xc028d431	-2.6379511
209	0xc177fa12	-15.498552
210	0xc12236a5	-10.138341
211	0x4192acf6	18.334454
212	0xc1aaffa7	-21.37483
213	0x414f0f7c	12.94128
214	0x3f00ca89	0.50309044
215	0x41a0c7bc	20.097527
216	0x3b2f7f00	0.0026778579
217	0x41b53fec	22.656212
218	0x411049ff	9.018065
219	0x40796fc9	3.8974478
220	0x41919ac8	18.200577
221	0xbfc35bea	-1.5262425
222	0xc15d725e	-13.840422
223	0x3fa604ba	1.2970192
224	0xc1258d38	-10.346977
225	0xc1f7a1bc	-30.953972
226	0xc01c9ea7	-2.4471834
227	0x3f584178	0.844749
228	0xc2250cb9	-41.262424
229	0xc037ba59	-2.8707488
230	0x419c9938	19.574814
231	0xc14bcb4b	-12.737132
232	0xc1a28de7	-20.319288
233	0x412fba3c	10.982967
234	0xc11098c0	-9.0372925
235	0x415c1fb4	13.75774
236	0x415e277b	13.884639
237	0x3f2e99a9	0.68203217
238	0x4130d8ed	11.05296
239	0x4138d219	11.551293
240	0xc15f6db6	-13.964285
241	0x40da88e0	6.8292084
242	0xc1872f11	-16.897982
243	0x410667d1	8.400346
244	0x4179bd00	15.608643
245	0x413e4fa0	11.89444
246	0xc1c51970	-24.63742
247	0x3ee2800a	0.4423831
248	0x401f485a	2.488791
249	0xc1cc619f	-25.547667
250	0x41a35b59	20.419603
251	0xc167a9ff	-14.479003
252	0x41029cc7	8.163276
253	0x40b978eb	5.7960105
254	0x41294101	10.57837
255	0xc113eac7	-9.244819

d1.bias f4 [16]
0	0x400b11c7	2.17296
1	0x3f48e693	0.7847683
2	0xbf7e058d	-0.9922722
3	0xc0846bda	-4.1381655
4	0xc1fad7d6	-31.355389
5	0x3ffbf816	1.9685085
6	0x3ea06c14	0.31332457
7	0xc1c6be2a	-24.842854
8	0x417fd761	15.990083
9	0xc1f6fad7	-30.87248
10	0xc144ced0	-12.300491
11	0xc132ec70	-11.182724
12	0xc1a368e2	-20.426212
13	0x3f40feae	0.7538861
14	0x3f878dcb	1.0590147
15	0xc17b12e2	-15.69211

d2.weight f4 [1, 16, 3, 3]
0	0xc1506042	-13.0235
1	0xc1ba5b6e	-23.294643
2	0x4187c34f	16.970366
3	0x40bc84a2	5.8911905
4	0xc149415f	-12.57846
5	0xc0bc0108	-5.875126
6	0xc13e531d	-11.895291
7	0xc19f7d84	-19.936287
8	0x3f00381d	0.5008562
9	0xc12ab2b8	-10.6686325
10	0x41edc727	29.722242
11	0xc09f9ce8	-4.9879036
12	0x41cb8cb1	25.443697
13	0xc0a92e4f	-5.286903
14	0x411ce757	9.806479
15	0x40bc2c92	5.8804407
16	0x3f9a913c	1.2075572
17	0xc20a71f6	-34.61129
18	0x404b78f1	3.1792567
19	0xbe256f2e	-0.16155693
20	0xc183f571	-16.494844
21	0x41174fa7	9.456946
22	0xc15f0f48	-13.941231
23	0x41b812ec	23.00924
24	0xc19b5eba	-19.421253
25	0xc188c80f	-17.097685
26	0xc0ead2b2	-7.3382196
27	0xc1a4fd7c	-20.623772
28	0xc11f4671	-9.954698
29	0xc1b85f5c	-23.046562
30	0x3db02be4	0.086021215
31	0xc1ca45e1	-25.28412
32	0xc1bf3ca0	-23.904602
33	0xbf42a9df	-0.7604045
34	0x416a95d3	14.661578
35	0xc1d49b90	-26.575958
36	0x4036b34c	2.8546934
37	0xc210adc8	-36.16971
38	0xbff21184	-1.8911595
39	0xc1f3cf1d	-30.47613
40	0xc090a07d	-4.519591
41	0xc1a67be1	-20.810488
42	0xc11943cb	-9.579051
43	0xc2229567	-40.6459
44	0x41a4bce6	20.592236
45	0x3fc81dff	1.5634154
46	0xc02721cd	-2.611438
47	0x40e241c9	7.0705304
48	0xc1808ee5	-16.069773
49	0x40a2d2e7	5.088245
50	0xc15db985	-13.857793
51	0xbee02f4b	-0.43786082
52	0x40856868	4.168995
53	0xc1cb88b7	-25.441755
54	0xc088c1c4	-4.273653
55	0xc0daabe4	-6.8334827
56	0xc13c92b1	-11.785813
57	0xc1710b01	-15.0651865
58	0x418be9de	17.489193
59	0xc086072f	-4.188377
60	0x41a6f2e0	20.868591
61	0x41089900	8.5373535
62	0xc19555d3	-18.666906
63	0xc046b235	-3.104627
64	0x4181b15a	16.211597
65	0xc1618bc7	-14.096625
66	0x410217a8	8.130775
67	0xc1e4a380	-28.579834
68	0x40873434	4.2251225
69	0x3e7ef300	0.24897385
70	0x40d55fd9	6.66795
71	0xc154b114	-13.293232
72	0xc09d6395	-4.918406
73	0xc1e0efbc	-28.117058
74	0x40739b97	3.8063715
75	0xc0a06336	-5.0121107
76	0xc16c7377	-14.77819
77	0xc153bdc4	-13.2338295
78	0x4161d94b	14.11555
79	0xc16e75eb	-14.903789
80	0x419b3ea9	19.405596
81	0xc1b6a9aa	-22.832844
82	0xc1128e83	-9.159793
83	0x417a2f5e	15.636564
84	0xc1a76e6d	-20.928919
85	0xc1ea60d0	-29.297272
86	0xc146a7a4	-12.415928
87	0xbf217c37	-0.6308016
88	0xc181cef7	-16.226057
89	0xc1a46eeb	-20.55416
90	0xbf1d2d46	-0.61397207
91	0xc0fb8baa	-7.860799
92	0x420dcbc7	35.449
93	0x40ebca35	7.3684335
94	0x4182db42	16.35706
95	0xc0eadc6b	-7.3394065
96	0x4126a44d	10.4151125
97	0xc1944101	-18.53174
98	0x3f24fe40	0.64450455
99	0xbfcb345e	-1.5875356
100	0x401e1c22	2.470467
101	0xc05ef2a8	-3.4835606
102	0xc084a744	-4.145418
103	0xc0dabd2b	-6.835592
104	0xc0a48cc4	-5.1421833
105	0xc12ec48b	-10.922984
106	0x40e326fe	7.09851
107	0xc1cb2b3c	-25.39611
108	0xbed869d2	-0.42268234
109	0xc0be4581	-5.9459844
110	0xc15a7319	-13.6531
111	0xc12a4d75	-10.64391
112	0xc1e97d0a	-29.186054
113	0x410284d7	8.157432
114	0xc1f7e30a	-30.985859
115	0xc0441eac	-3.064372
116	0xc187f7cb	-16.995993
117	0x40f4ba54	7.647745
118	0xc0af4a44	-5.4778156
119	0x41ad7b46	21.685192
120	0xc1e45d3c	-28.545525
121	0x40d1e870	6.5596237
122	0xc234d0e2	-45.203987
123	0x41c2aeb2	24.3353
124	0xc19feeaa	-19.991535
125	0x4182df1a	16.358936
126	0x412c7595	10.778707
127	0xc03e1b16	-2.9704032
128	0xc0e9e7d6	-7.3095503
129	0x41400f11	12.003678
130	0xc16dc656	-14.860922
131	0xc0c2c619	-6.086682
132	0x41b29cae	22.326504
133	0x40b91920	5.784317
134	0xc157004b	-13.437572
135	0x41b6b2f3	22.837378
136	0xc1a593f4	-20.697243
137	0x4202b4c0	32.676514
138	0xc19203dc	-18.251884
139	0x4195cf92	18.726353
140	0xc0bf3355	-5.975016
141	0xc01fdb84	-2.4977732
142	0x414703b2	12.438402
143	0x420e53c3	35.5818

encoder.0.weight f4 [16, 1, 3, 3]
0	0xc1c05e4f	-24.04605
1	0xc2447a8b	-49.11967
2	0xc19eb1c9	-19.83681
3	0x41b535f4	22.651344
4	0xc09deaac	-4.9348965
5	0xc08a1005	-4.3144555
6	0x418f49b3	17.910986
7	0x4133a201	11.227052
8	0xc1e29dcf	-28.327055
9	0xc03b0cd0	-2.922657
10	0x410d3dba	8.82757
11	0xbfa2f119	-1.2729827
12	0x414d4aea	12.83079
13	0xc19d6726	-19.675365
14	0xc11adb4c	-9.678539
15	0x41838044	16.43763
16	0xc13268c2	-11.150576
17	0x416403cf	14.25093
18	0xc1102e3e	-9.01129
19	0x41c02424	24.017647
20	0xc0f6d837	-7.7138934
21	0x41b27686	22.307873
22	0xbe9a21a0	-0.3010378
23	0x42039355	32.89388
24	0xc195cec8	-18.725967
25	0x41db8d46	27.443981
26	0x3f6d31fc	0.92654395
27	0xc0e3d1c8	-7.119358
28	0xc251440d	-52.316456
29	0xc0e13118	-7.037243
30	0xc0954697	-4.664867
31	0x419bb4a3	19.463202
32	0xc1c32941	-24.395144
33	0x4148e016	12.5547085
34	0xc1e74f0f	-28.913603
35	0xc072eec7	-3.7958238
36	0xc0c708f7	-6.2198443
37	0xc1073d62	-8.452486
38	0xc171e3ce	-15.118116
39	0xc0ef59fe	-7.4797354
40	0xc1c4cab7	-24.598982
41	0xc1b5bd10	-22.717316
42	0xc191578d	-18.16775
43	0xc099809d	-4.79695
44	0xc10e525f	-8.89511
45	0xc1980c2d	-19.005945
46	0x3f022096	0.5083097
47	0xbf2f26a0	-0.6841831
48	0xc190bda5	-18.0926
49	0xc1ae002a	-21.75008
50	0xc04b8eba	-3.1805863
51	0xc1952f6d	-18.648157
52	0xc1ac52d5	-21.540445
53	0xc1550e68	-13.316017
54	0x4082b3ed	4.0844636
55	0xc03a32fe	-2.9093623
56	0xc0c7fa2f	-6.24929
57	0x40917dd4	4.54661
58	0xbf1bb955	-0.6082967
59	0xc1d121fd	-26.141596
60	0x407e8f5d	3.9775002
61	0xc1af98a5	-21.949533
62	0x3ed40726	0.41411704
63	0x4141c101	12.10962
64	0xc0cc02c9	-6.37534
65	0x40559494	3.3371935
66	0xc11cc51a	-9.7981205
67	0x3f5a0324	0.8516104
68	0xc186b62b	-16.83895
69	0x41aa520a	21.290058
70	0xc10f6ffa	-8.964838
71	0x41ccab90	25.58377
72	0xc09e1da3	-4.941118
73	0x41363f84	11.390507
74	0x4192bf4a	18.343403
75	0x419cb390	19.587677
76	0x41ff7cdf	31.935972
77	0xc1d15169	-26.164751
78	0x407d4230	3.9571648
79	0x409f37ad	4.9755464
80	0x41a52d9f	20.647276
81	0xc12f0a32	-10.939989
82	0x40fc52f9	7.8851285
83	0x410d10c6	8.816595
84	0x4156d31b	13.426539
85	0x418de5fa	17.737293
86	0xc0e06890	-7.012764
87	0x42104440	36.06665
88	0x3fda82e6	1.7071197
89	0x402e0d4a	2.719561
90	0xc1985418	-19.041061
91	0x418d326b	17.649618
92	0x3ead6c8a	0.3387187
93	0x419981ee	19.188442
94	0xc06ca8ba	-3.6977983
95	0xbfb23f23	-1.3925518
96	0x411e9c94	9.913227
97	0x41782d4f	15.511062
98	0x4168cdb4	14.5502205
99	0x4177b56b	15.4817915
100	0x41164b7d	9.39343
101	0xc10cecc7	-8.807807
102	0x41c31b26	24.388256
103	0x407f1157	3.9854333
104	0xc1103740	-9.013489
105	0xc1b9d68d	-23.229761
106	0x41a4f974	20.621803
107	0x4084a437	4.1450458
108	0xc0a14417	-5.0395617
109	0xc1502dd2	-13.011187
110	0x3f2872d8	0.6580024
111	0x41aff9ee	21.997036
112	0x4172ca55	15.174397
113	0x41c9d6d2	25.229893
114	0x41b54e01	22.663088
115	0x404f02d7	3.2345483
116	0xc17f93c2	-15.973574
117	0x40971318	4.721081
118	0x3f3c83dc	0.736387
119	0xc18da7d7	-17.706953
120	0xc10d1da2	-8.819735
121	0xc225215d	-41.28258
122	0xc1d6380b	-26.777365
123	0xc143f1f6	-12.2465725
124	0xc0cc2168	-6.379078
125	0x40daacda	6.8336
126	0xc1a538e1	-20.652773
127	0x418a366c	17.276573
128	0xc12c14f1	-10.755113
129	0x41f88c3d	31.068476
130	0xc14fbb44	-12.983219
131	0x408b81c3	4.35959
132	0xc1af229a	-21.891895
133	0xbeeff7c2	-0.46868712
134	0xbeeaee0c	-0.4588474
135	0xc0f279e1	-7.577378
136	0xc1feef4d	-31.866846
137	0x40e0bc8f	7.0230174
138	0xc084a5cb	-4.1452384
139	0x41a44b5f	20.536802
140	0x3e23bd98	0.15990293
141	0xc173665f	-15.212493
142	0xc2059319	-33.39365
143	0x40d5bf20	6.6795807

encoder.0.bias f4 [16]
0	0x415bce50	13.737869
1	0x4258ab68	54.16739
2	0xc08beee1	-4.37291
3	0x41a5f8cb	20.74648
4	0xc1226aa0	-10.1510315
5	0x4133656b	11.21226
6	0x419a6d8e	19.303493
7	0xc1b1b954	-22.215492
8	0xc192aaa5	-18.333323
9	0x403a8be0	2.9147873
10	0xc1f0601a	-30.046925
11	0xc1c6685d	-24.800959
12	0xc01b846f	-2.429958
13	0x3cc16c30	0.023611158
14	0xc1721753	-15.130694
15	0xc11bee83	-9.74573

encoder.2.weight f4 [32, 16, 3, 3]
0	0x40551008	3.3291035
1	0xc157f2f6	-13.496817
2	0xc0fffa9e	-7.999343
3	0x407b4cd3	3.926564
4	0xc20c1c85	-35.02785
5	0xc1096af0	-8.588608
6	0xc201ea4a	-32.478798
7	0x40de5f25	6.9491143
8	0x41319750	11.099442
9	0xc108ec20	-8.557648
10	0xc0c812b8	-6.252285
11	0x42442176	49.032677
12	0xc1a882a1	-21.063784
13	0x4121ce98	10.112938
14	0xc2492a1b	-50.29112
15	0xc13d6504	-11.837162
16	0xc201a27a	-32.40867
17	0xc169bf74	-14.6092415
18	0xc1947212	-18.555698
19	0xc184b49e	-16.588192
20	0xc198dc5d	-19.1076
21	0xc13bd987	-11.740607
22	0x40b96694	5.7937717
23	0xc0ca8fe7	-6.330066
24	0xc217493c	-37.821518
25	0x3efe9f97	0.49731132
26	0xc19e5c32	-19.795017
27	0xc081d298	-4.0569572
28	0xc12c9249	-10.785714
29	0x4167f8f1	14.498277
30	0xc15daf5c	-13.855312
31	0x41262dbb	10.386165
32	0xc033946f	-2.8059347
33	0xc0ae5f21	-5.4491124
34	0x41e44086	28.531506
35	0x4222da4b	40.713177
36	0xc08f9713	-4.4871917
37	0x40e7eb16	7.247447
38	0x40f10cb2	7.5327997
39	0xc099944b	-4.799352
40	0xc10f2fa7	-8.949134
41	0x41b37058	22.429855
42	0xc06bf74b	-3.6869686
43	0xc1e9b163	-29.211615
44	0xc130739f	-11.028228
45	0xc18a255d	-17.268244
46	0xbe985e8c	-0.29759634
47	0xc0a5089d	-5.1573014
48	0xc11b2afa	-9.697992
49	0xc1b9b1b2	-23.211765
50	0xc1ae1ca2	-21.76398
51	0x400a844a	2.1643243
52	0xc156f2b6	-13.434256
53	0x41946ce7	18.553175
54	0x41df8dbf	27.944212
55	0x417ebc45	15.920964
56	0xc19af15b	-19.36785
57	0xc2621377	-56.51901
58	0xc1b2aa83	-22.333258
59	0xc187b88e	-16.965115
60	0xc0ec2b1a	-7.3802614
61	0xc13aa568	-11.665382
62	0xc0dda35b	-6.926191
63	0x4162f95a	14.185877
64	0x4140fd29	12.061807
65	0xc19fa894	-19.957314
66	0xc0037d51	-2.0545237
67	0x415bfd90	13.749405
68	0xbd807dd8	-0.06274003
69	0xc1a637f9	-20.77733
70	0xc14295cf	-12.161574
71	0xc0a8525f	-5.260055
72	0xc04621f5	-3.0958226
73	0x4009950e	2.1497226
74	0x41412301	12.071046
75	0x41905acc	18.044334
76	0xc03b23e0	-2.9240646
77	0x40ba2bdb	5.8178535
78	0x41e05bf4	28.044899
79	0xc138954b	-11.5364485
80	0x41a62e2e	20.772549
81	0x41c4881a	24.566456
82	0xc14d0e04	-12.815922
83	0xc147570b	-12.458751
84	0xc0b60435	-5.6880136
85	0x41a93612	21.151402
86	0xc11e12c9	-9.879586
87	0xc0b31451	-5.59623
88	0x41714d71	15.081407
89	0xc12c8b82	-10.78406
90	0x3f055e26	0.52096784
91	0x41bd15c7	23.635633
92	0xc014cdd4	-2.3250628
93	0xc1300618	-11.001488
94	0xc0af6dbe	-5.4821463
95	0xc0ebfb07	-7.374393
96	0xc1068956	-8.408529
97	0xc1916292	-18.17313
98	0xc16ad119	-14.676049
99	0xc0dc68c3	-6.8877883
100	0xc186878f	-16.81619
101	0x42113201	36.298832
102	0x40bbaaff	5.8646235
103	0xc1864b66	-16.786816
104	0x40ad1ecd	5.41001
105	0xc1af7498	-21.93193
106	0xc1085013	-8.519549
107	0xc1922624	-18.268623
108	0x4115f664	9.372654
109	0x41d6b773	26.839575
110	0x41be6c2a	23.802814
111	0x40d5469c	6.6648693
112	0xc19aeb6a	-19.364948
113	0x40c806cc	6.2508297
114	0x42162cdd	37.54381
115	0x40b4962a	5.6433306
116	0x4211ca81	36.447758
117	0xc0fcadba	-7.896207
118	0xc171ab21	-15.1042795
119	0x4145fb99	12.373925
120	0xc1439101	-12.222901
121	0xc0fc0093	-7.87507
122	0x4129d1cb	10.613719
123	0x3f9b1bc3	1.2117847
124	0xc140d83a	-12.05279
125	0x410e7dfb	8.905757
126	0x4149643b	12.58697
127	0xc1c4d1f5	-24.602518
128	0x418df4d7	17.74455
129	0xc18302db	-16.376394
130	0x41d85078	27.039291
131	0xc11899f3	-9.537585
132	0x409d1897	4.9092517
133	0x4160e7f4	14.056629
134	0xc1935948	-18.418594
135	0xc1c3cfbb	-24.47643
136	0xc02f919c	-2.7432623
137	0x40db5e34	6.8552494
138	0x4075832f	3.8361318
139	0x41b5fd05	22.748545
140	0x41049cba	8.288263
141	0xbfbeda37	-1.4910344
142	0xc122474a	-10.142405
143	0xc1fbb54b	-31.463522
144	0x4183ed4f	16.490873
145	0x40ad64ef	5.418571
146	0x40f4b13b	7.6466346
147	0xc072382e	-3.784679
148	0x4090d7bf	4.526336
149	0xc1c4d16c	-24.602257
150	0xc152cfd7	-13.175742
151	0xc167aabf	-14.479186
152	0xc1951d12	-18.639194
153	0xc14192fb	-12.098384
154	0xbf231ed5	-0.6371892
155	0xbf638154	-0.88869214
156	0x418944f1	17.158663
157	0x410a0932	8.627245
158	0x41c91301	25.13428
159	0x3e23e7c6	0.16006383
160	0x41f78011	30.937532
161	0x41d995c2	27.198124
162	0xc0dda7ac	-6.9267178
163	0x41057326	8.340612
164	0xc1247c23	-10.280307
165	0x41c6c2c5	24.845102
166	0xc0bac494	-5.8364964
167	0x4129bda1	10.608796
168	0x41d5c511	26.721224
169	0xc16beb3c	-14.74493
170	0x408b4c95	4.3530984
171	0xc11416c8	-9.255562
172	0xc1fce812	-31.613316
173	0x4083a790	4.1142044
174	0x41c00b7f	24.005613
175	0xbf0f600c	-0.5600593
176	0x41709af7	15.037833
177	0xc1a88c04	-21.068367
178	0xc146e1fe	-12.430174
179	0x40d05f3e	6.5116262
180	0x40fea4ad	7.957602
181	0x415d0e68	13.816017
182	0x41939a3f	18.450315
183	0x41727db7	15.155692
184	0x410bb6f5	8.732167
185	0x41263dc1	10.390077
186	0xbfc7c762	-1.5607722
187	0x40da7468	6.8267097
188	0x41a404de	20.502377
189	0x418ca8f4	17.582497
190	0x42331fba	44.780983
191	0x4080c3d9	4.023907
192	0x419e7931	19.809175
193	0x418479fa	16.559559
194	0xc10989b4	-8.596119
195	0x3eff7d54	0.49900305
196	0x4101bf3d	8.109189
197	0xbff950c0	-1.9477768
198	0xc2010ba7	-32.26138
199	0x420edd13	35.715893
200	0x41b64c0c	22.787132
201	0x418f0666	17.878124
202	0xc0a8e978	-5.2784996
203	0xc1796660	-15.587494
204	0xc12837a1	-10.513581
205	0xc194d74d	-18.605127
206	0xc10254e5	-8.145726
207	0x410cf653	8.810138
208	0x418eda75	17.856668
209	0x41e09aff	28.075682
210	0xc1980661	-19.003115
211	0x414d354b	12.825511
212	0x41bd981f	23.699278
213	0x3fa6193e	1.2976453
214	0xc23b30be	-46.7976
215	0xc114a308	-9.289803
216	0xc1833c9f	-16.4046
217	0xc1750a35	-15.314992
218	0x3f3d0923	0.73842067
219	0xc06424a0	-3.5647354
220	0xbf9fb3bd	-1.2476727
221	0xc21be902	-38.977547
222	0x4149c75f	12.611175
223	0x423a937e	46.644035
224	0xc0ed45e4	-7.4147816
225	0xc1b52d4f	-22.647123
226	0xc1131c95	-9.194478
227	0x41a3a556	20.45573
228	0x3f0f82ce	0.5605897
229	0x408bd5c0	4.3698425
230	0x4223b70f	40.92877
231	0xc0df05d3	-6.969461
232	0xc0151672	-2.329495
233	0xc21768bf	-37.85229
234	0xc179896d	-15.596051
235	0xc10450c6	-8.26972
236	0xc136d931	-11.428025
237	0x418d1e03	17.639654
238	0x41804779	16.034899
239	0xc1b771c5	-22.930552
240	0xc060b800	-3.5112305
241	0xc0813e46	-4.0388517
242	0xc105b72e	-8.357222
243	0x420be1e8	34.97061
244	0xc11be7b4	-9.744068
245	0x3fac132f	1.3443354
246	0xc0fa95b5	-7.830775
247	0xc1dca761	-27.581728
248	0x42018b92	32.3863
249	0xc13b15a2	-11.692781
250	0xc14a7530	-12.65361
251	0xc101962a	-8.099161
252	0xc085b921	-4.1788487
253	0xc1bfc0b9	-23.969103
254	0xc075dd54	-3.8416338
255	0xc117d274	-9.48888

encoder.2.bias f4 [32]
0	0x408d7797	4.4208484
1	0x40822303	4.066774
2	0x3f8ab4de	1.0836446
3	0xc08e19d6	-4.440654
4	0xc1211eb6	-10.069998
5	0x406f964a	3.743548
6	0x412610e1	10.379121
7	0xc0cde5ad	-6.4342866
8	0xc11c0ccf	-9.753127
9	0x400ac9bd	2.1685631
10	0xc184e553	-16.611975
11	0xc1a43a25	-20.52839
12	0x40e23453	7.068887
13	0xc1f1a296	-30.204388
14	0xc22829f6	-42.040977
15	0xc0103beb	-2.253657
16	0xc21ba9a9	-38.915684
17	0x3ff2964d	1.8952118
18	0x41f200cb	30.250387
19	0x41b154d6	22.166424
20	0x41c99d8d	25.20193
21	0x41ae4c82	21.787357
22	0xc208e4e4	-34.223526
23	0xc0ff390d	-7.975714
24	0xc01b23a1	-2.4240496
25	0x3f86c67c	1.0529323
26	0xc0bbb94e	-5.86637
27	0x410fc485	8.985478
28	0x40444c72	3.0671659
29	0x41bd2cb1	23.646822
30	0x41ba83e8	23.314407
31	0xc0b49d0a	-5.64417

decoder.0.weight f4 [16, 32, 3, 3]
0	0xc1864399	-16.783007
1	0x41044984	8.267948
2	0x41f9f351	31.243807
3	0xc036e4e0	-2.8577194
4	0x4196a359	18.82976
5	0xc1634a01	-14.205567
6	0xc115b7c3	-9.357364
7	0x412a344f	10.637771
8	0x4117c1c7	9.484809
9	0xc1af7313	-21.931189
10	0xbf291335	-0.6604493
11	0xc1549d69	-13.28843
12	0xc13daa00	-11.854004
13	0xc1c353dc	-24.415947
14	0x42034635	32.81856
15	0x41f8ad7e	31.084713
16	0x4210d003	36.203136
17	0x41541371	13.254746
18	0x41032c7e	8.198362
19	0x41f42ae0	30.520935
20	0x418903fe	17.12695
21	0x40f29560	7.5807343
22	0xc207b452	-33.926094
23	0x4118153b	9.505183
24	0xc1d627c4	-26.769417
25	0x412710d7	10.441611
26	0xc12f68b4	-10.963062
27	0x4167aee5	14.480199
28	0x41a9659c	21.174614
29	0x409888ae	4.7666845
30	0x41018e28	8.097206
31	0xbf80bdd2	-1.0057929
32	0xc1052bd5	-8.323201
33	0x41279b35	10.475392
34	0x3fec536f	1.8462962
35	0xc168c175	-14.547231
36	0xc042371a	-3.0346131
37	0x40b6ebb4	5.7162724
38	0x3fd728bb	1.6809305
39	0x4095e3fb	4.6840796
40	0x4205f7fc	33.492172
41	0xc153fcf8	-13.24926
42	0xc16a37eb	-14.638652
43	0xc0d21f51	-6.566323
44	0x4184dd21	16.607973
45	0x3d995c54	0.07488313
46	0xc208c10b	-34.18852
47	0x41d01075	26.008036
48	0x418ed2d1	17.852938
49	0xbf13b73a	-0.57701457
50	0xbf3ef13c	-0.74586844
51	0x4193cf51	18.476229
52	0x41c09359	24.071947
53	0xc1566bd5	-13.401326
54	0x4159ae15	13.6050005
55	0xbf856748	-1.0422144
56	0xc0d8e26b	-6.777639
57	0x4084c8c5	4.149508
58	0xc1e51eb4	-28.639992
59	0xc0837acb	-4.1087394
60	0xc18424d0	-16.517975
61	0xc19c07f8	-19.503891
62	0x411c97d4	9.787067
63	0xc1913a70	-18.153534
64	0x405785e6	3.3675475
65	0x415ab3c9	13.668893
66	0xc1abad48	-21.45961
67	0xc1ccf7fa	-25.621082
68	0x41815c37	16.170027
69	0x4142c4c1	12.173036
70	0xc1ade2e1	-21.73578
71	0x3f840deb	1.0316747
72	0x405cb95b	3.4488132
73	0xc18a37f3	-17.277319
74	0x3fb8253a	1.4386361
75	0xc0cf4ad0	-6.4778824
76	0xc1e11019	-28.13286
77	0x41ce25a5	25.768381
78	0xc11f0fda	-9.94137
79	0x41954567	18.658888
80	0xc1f49c33	-30.57627
81	0xc09f2023	-4.972673
82	0xc05428ad	-3.3149827
83	0xc1365493	-11.395648
84	0x41987e53	19.061682
85	0x3f689a8a	0.9086081
86	0xc0472b51	-3.1120188
87	0xbfbce5a7	-1.4757584
88	0xc1a45609	-20.54201
89	0x3c4d8b90	0.012545481
90	0xc096b32f	-4.709373
91	0x41c19140	24.195923
92	0x40cb1ab6	6.3470106
93	0x41ff6745	31.925425
94	0xc17c9553	-15.786456
95	0xc16566bb	-14.337581
96	0xc139c483	-11.6104765
97	0xc1521a03	-13.1313505
98	0xc1cad73c	-25.355095
99	0xc0a02aaa	-5.005208
100	0x41caacd3	25.334387
101	0x40a70ccc	5.220312
102	0x4080a9a6	4.020709
103	0x4201f34b	32.48759
104	0xc054f56d	-3.3274796
105	0x41b1e707	22.237806
106	0xc0097b32	-2.1481442
107	0xc17385f6	-15.220205
108	0xc238a1ce	-46.158012
109	0x413a38c4	11.638859
110	0x41b1ed91	22.241
111	0x40b079a1	5.5148473
112	0xbee19e0e	-0.440659
113	0x41ac2ad0	21.520905
114	0xc19b41f6	-19.407207
115	0x419831f6	19.024395
116	0x413aaff2	11.667955
117	0x413e681c	11.900417
118	0x40861c69	4.190968
119	0xc10302b1	-8.188157
120	0x41a19b90	20.200958
121	0x412a381d	10.6387
122	0xc1c1c78e	-24.222439
123	0x41986ca5	19.05305
124	0xc1641739	-14.25567
125	0x41be5daf	23.795744
126	0xc0827f5f	-4.078048
127	0xc21276ea	-36.616127
128	0xc1bfb23c	-23.962029
129	0x41f18998	30.192184
130	0x4155f8a6	13.373205
131	0x4197c091	18.969027
132	0x4180e09b	16.10967
133	0xc18ad870	-17.355682
134	0x414fb6ab	12.982097
135	0xc0ac98dd	-5.39366
136	0xc192a519	-18.330614
137	0xc192fdb8	-18.373886
138	0x40ebd777	7.370052
139	0x3fc84236	1.5645206
140	0xc0407b32	-3.0075192
141	0xc220b323	-40.17494
142	0x3fa40240	1.2813187
143	0xc1ef511c	-29.914604
144	0x3fed037a	1.8516686
145	0xc13e2b38	-11.885551
146	0xc0a50cad	-5.1577973
147	0x4052136f	3.2824361
148	0xc11934cd	-9.575391
149	0xc174a52c	-15.290325
150	0xc1e97e7d	-29.186762
151	0xbf535356	-0.82549036
152	0x41cd05ca	25.627827
153	0x41b4dd69	22.60811
154	0x4190f356	18.118816
155	0x41dba584	27.455818
156	0x3fcdc012	1.607424
157	0x41f86a69	31.051958
158	0x41937567	18.432325
159	0x41c5b0e5	24.711374
160	0x401f961c	2.493537
161	0xc05ddd1a	-3.46662
162	0xc181f220	-16.243225
163	0x4119303f	9.574279
164	0x41091407	8.5673895
165	0x411891ab	9.535563
166	0x4067e886	3.623567
167	0x41a468eb	20.55123
168	0x40ee7415	7.45167
169	0xc06c6409	-3.6936057
170	0xc0dc3711	-6.881722
171	0xc14c8f0c	-12.784924
172	0x411a2ff3	9.636706
173	0xc118525c	-9.520107
174	0x4187c22e	16.969814
175	0xc09ced70	-4.903984
176	0x4199330c	19.149925
177	0x4151f2a1	13.121736
178	0x41760397	15.375876
179	0xc05af3bf	-3.421127
180	0xc1d6a4cb	-26.830465
181	0x414d818a	12.844126
182	0x3fa5f8d7	1.2966565
183	0x3fbdbf97	1.4824094
184	0x40f45f5b	7.63664
185	0xc1bb052e	-23.37753
186	0x4055f174	3.3428621
187	0xc159a689	-13.603158
188	0x418968f1	17.17624
189	0xc131345c	-11.075283
190	0x411435d7	9.2631445
191	0xc13ae958	-11.681969
192	0xc1fb1ab2	-31.388035
193	0xc21acb35	-38.698444
194	0xc129878a	-10.595591
195	0x41b3ac57	22.45915
196	0xc01a689e	-2.4126353
197	0x41d7d28d	26.977808
198	0x41bf6162	23.92255
199	0x40a9448a	5.2896166
200	0xbfd9c7d8	-1.7014112
201	0xc10e3b88	-8.889534
202	0x40ab6439	5.355984
203	0xc21b38b4	-38.805374
204	0xc1911232	-18.133884
205	0xc1f3abc8	-30.458878
206	0xc0cfb99a	-6.4914064
207	0x4179b9b5	15.607839
208	0xc028d431	-2.6379511
209	0xc177fa12	-15.498552
210	0xc12236a5	-10.138341
211	0x4192acf6	18.334454
212	0xc1aaffa7	-21.37483
213	0x414f0f7c	12.94128
214	0x3f00ca89	0.50309044
215	0x41a0c7bc	20.097527
216	0x3b2f7f00	0.0026778579
217	0x41b53fec	22.656212
218	0x411049ff	9.018065
219	0x40796fc9	3.8974478
220	0x41919ac8	18.200577
221	0xbfc35bea	-1.5262425
222	0xc15d725e	-13.840422
223	0x3fa604ba	1.2970192
224	0xc1258d38	-10.346977
225	0xc1f7a1bc	-30.953972
226	0xc01c9ea7	-2.4471834
227	0x3f584178	0.844749
228	0xc2250cb9	-41.262424
229	0xc037ba59	-2.8707488
230	0x419c9938	19.574814
231	0xc14bcb4b	-12.737132
232	0xc1a28de7	-20.319288
233	0x412fba3c	10.982967
234	0xc11098c0	-9.0372925
235	0x415c1fb4	13.75774
236	0x415e277b	13.884639
237	0x3f2e99a9	0.68203217
238	0x4130d8ed	11.05296
239	0x4138d219	11.551293
240	0xc15f6db6	-13.964285
241	0x40da88e0	6.8292084
242	0xc1872f11	-16.897982
243	0x410667d1	8.400346
244	0x4179bd00	15.608643
245	0x413e4fa0	11.89444
246	0xc1c51970	-24.63742
247	0x3ee2800a	0.4423831
248	0x401f485a	2.488791
249	0xc1cc619f	-25.547667
250	0x41a35b59	20.419603
251	0xc167a9ff	-14.479003
252	0x41029cc7	8.163276
253	0x40b978eb	5.7960105
254	0x41294101	10.57837
255	0xc113eac7	-9.244819

decoder.0.bias f4 [16]
0	0x400b11c7	2.17296
1	0x3f48e693	0.7847683
2	0xbf7e058d	-0.9922722
3	0xc0846bda	-4.1381655
4	0xc1fad7d6	-31.355389
5	0x3ffbf816	1.9685085
6	0x3ea06c14	0.31332457
7	0xc1c6be2a	-24.842854
8	0x417fd761	15.990083
9	0xc1f6fad7	-30.87248
10	0xc144ced0	-12.300491
11	0xc132ec70	-11.182724
12	0xc1a368e2	-20.426212
13	0x3f40feae	0.7538861
14	0x3f878dcb	1.0590147
15	0xc17b12e2	-15.69211

decoder.2.weight f4 [1, 16, 3, 3]
0	0xc1506042	-13.0235
1	0xc1ba5b6e	-23.294643
2	0x4187c34f	16.970366
3	0x40bc84a2	5.8911905
4	0xc149415f	-12.57846
5	0xc0bc0108	-5.875126
6	0xc13e531d	-11.895291
7	0xc19f7d84	-19.936287
8	0x3f00381d	0.5008562
9	0xc12ab2b8	-10.6686325
10	0x41edc727	29.722242
11	0xc09f9ce8	-4.9879036
12	0x41cb8cb1	25.443697
13	0xc0a92e4f	-5.286903
14	0x411ce757	9.806479
15	0x40bc2c92	5.8804407
16	0x3f9a913c	1.2075572
17	0xc20a71f6	-34.61129
18	0x404b78f1	3.1792567
19	0xbe256f2e	-0.16155693
20	0xc183f571	-16.494844
21	0x41174fa7	9.456946
22	0xc15f0f48	-13.941231
23	0x41b812ec	23.00924
24	0xc19b5eba	-19.421253
25	0xc188c80f	-17.097685
26	0xc0ead2b2	-7.3382196
27	0xc1a4fd7c	-20.623772
28	0xc11f4671	-9.954698
29	0xc1b85f5c	-23.046562
30	0x3db02be4	0.086021215
31	0xc1ca45e1	-25.28412
32	0xc1bf3ca0	-23.904602
33	0xbf42a9df	-0.7604045
34	0x416a95d3	14.661578
35	0xc1d49b90	-26.575958
36	0x4036b34c	2.8546934
37	0xc210adc8	-36.16971
38	0xbff21184	-1.8911595
39	0xc1f3cf1d	-30.47613
40	0xc090a07d	-4.519591
41	0xc1a67be1	-20.810488
42	0xc11943cb	-9.579051
43	0xc2229567	-40.6459
44	0x41a4bce6	20.592236
45	0x3fc81dff	1.5634154
46	0xc02721cd	-2.611438
47	0x40e241c9	7.0705304
48	0xc1808ee5	-16.069773
49	0x40a2d2e7	5.088245
50	0xc15db985	-13.857793
51	0xbee02f4b	-0.43786082
52	0x40856868	4.168995
53	0xc1cb88b7	-25.441755
54	0xc088c1c4	-4.273653
55	0xc0daabe4	-6.8334827
56	0xc13c92b1	-11.785813
57	0xc1710b01	-15.0651865
58	0x418be9de	17.489193
59	0xc086072f	-4.188377
60	0x41a6f2e0	20.868591
61	0x41089900	8.5373535
62	0xc19555d3	-18.666906
63	0xc046b235	-3.104627
64	0x4181b15a	16.211597
65	0xc1618bc7	-14.096625
66	0x410217a8	8.130775
67	0xc1e4a380	-28.579834
68	0x40873434	4.2251225
69	0x3e7ef300	0.24897385
70	0x40d55fd9	6.66795
71	0xc154b114	-13.293232
72	0xc09d6395	-4.918406
73	0xc1e0efbc	-28.117058
74	0x40739b97	3.8063715
75	0xc0a06336	-5.0121107
76	0xc16c7377	-14.77819
77	0xc153bdc4	-13.2338295
78	0x4161d94b	14.11555
79	0xc16e75eb	-14.903789
80	0x419b3ea9	19.405596
81	0xc1b6a9aa	-22.832844
82	0xc1128e83	-9.159793
83	0x417a2f5e	15.636564
84	0xc1a76e6d	-20.928919
85	0xc1ea60d0	-29.297272
86	0xc146a7a4	-12.415928
87	0xbf217c37	-0.6308016
88	0xc181cef7	-16.226057
89	0xc1a46eeb	-20.55416
90	0xbf1d2d46	-0.61397207
91	0xc0fb8baa	-7.860799
92	0x420dcbc7	35.449
93	0x40ebca35	7.3684335
94	0x4182db42	16.35706
95	0xc0eadc6b	-7.3394065
96	0x4126a44d	10.4151125
97	0xc1944101	-18.53174
98	0x3f24fe40	0.64450455
99	0xbfcb345e	-1.5875356
100	0x401e1c22	2.470467
101	0xc05ef2a8	-3.4835606
102	0xc084a744	-4.145418
103	0xc0dabd2b	-6.835592
104	0xc0a48cc4	-5.1421833
105	0xc12ec48b	-10.922984
106	0x40e326fe	7.09851
107	0xc1cb2b3c	-25.39611
108	0xbed869d2	-0.42268234
109	0xc0be4581	-5.9459844
110	0xc15a7319	-13.6531
111	0xc12a4d75	-10.64391
112	0xc1e97d0a	-29.186054
113	0x410284d7	8.157432
114	0xc1f7e30a	-30.985859
115	0xc0441eac	-3.064372
116	0xc187f7cb	-16.995993
117	0x40f4ba54	7.647745
118	0xc0af4a44	-5.4778156
119	0x41ad7b46	21.685192
120	0xc1e45d3c	-28.545525
121	0x40d1e870	6.5596237
122	0xc234d0e2	-45.203987
123	0x41c2aeb2	24.3353
124	0xc19feeaa	-19.991535
125	0x4182df1a	16.358936
126	0x412c7595	10.778707
127	0xc03e1b16	-2.9704032
128	0xc0e9e7d6	-7.3095503
129	0x41400f11	12.003678
130	0xc16dc656	-14.860922
131	0xc0c2c619	-6.086682
132	0x41b29cae	22.326504
133	0x40b91920	5.784317
134	0xc157004b	-13.437572
135	0x41b6b2f3	22.837378
136	0xc1a593f4	-20.697243
137	0x4202b4c0	32.676514
138	0xc19203dc	-18.251884
139	0x4195cf92	18.726353
140	0xc0bf3355	-5.975016
141	0xc01fdb84	-2.4977732
142	0x414703b2	12.438402
143	0x420e53c3	35.5818
