candidate_networks/inet6_2.pt (torch, 41295 bytes, 14 tensors)

c1.weight f4 [16, 1, 3, 3]
-24.172396 -49.119007 -19.6551 22.656622 -5.2572722 -4.3276105 17.653072 11.12635
-27.253027 -2.751752 8.668417 -0.9277329 12.784235 -19.582964 -9.683024 16.589077
-10.9509535 14.194387 -8.839363 24.401722 -7.604859 22.395061 0.27531576 33.11971
-18.888042 27.007114 0.66756517 -7.1263156 -52.18049 -7.37764 -4.690325 19.887524
-24.248295 13.244543 -28.802475 -3.557451 -6.3531537 -8.422983 -14.686686 -6.9424696
-24.794632 -22.959751 -18.498905 -4.598386 -9.020802 -18.601404 0.075488 -0.7544153
-18.777403 -21.638334 -3.1885235 -18.81618 -21.363579 -12.492014 4.469851 -3.041133
-6.0668373 4.4422626 -0.486121 -26.92304 4.298509 -21.925682 0.1338321 12.282767
-6.590341 3.3665206 -10.146122 1.3012832 -16.299988 21.611303 -9.663286 25.479948
-4.8857093 10.795878 18.461147 19.408634 31.823826 -26.25693 4.284588 4.9682345
20.983929 -10.863872 7.9209785 9.027989 13.711961 18.106348 -7.297397 35.3847
2.075937 3.0093975 -19.900936 17.638391 0.097712904 19.005287 -3.5205703 -0.7936028
10.082533 15.096738 14.531749 15.115614 8.708372 -8.784956 23.949701 3.9594998
-9.190085 -23.78984 21.133053 3.7684686 -4.987429 -12.442516 0.73900825 22.145452
15.275145 24.422918 22.977728 3.6977222 -16.228642 4.689415 0.26434582 -18.1701
-9.231958 -41.58569 -26.7142 -12.098927 -6.8228345 6.8865576 -20.809193 17.585215
-10.917923 30.458696 -13.320972 3.9043531 -21.51027 -0.36809057 -0.74820995 -7.82529
-31.157675 6.5695024 -4.340805 20.73265 0.33448994 -14.182535 -33.441273 6.558985
00000000: 1161 c1c1 dd79 44c2 a53d 9dc1 c340 b541
00000010: 933b a8c0 c97b 8ac0 7e39 8d41 8805 3241
00000020: 3306 dac1 b41c 30c0 d6b1 0a41 e77f 6dbf
00000030: 3a8c 4c41 e9a9 9cc1 abed 1ac1 6eb6 8441
00000040: 1b37 2fc1 361c 6341 086e 0dc1 ba36 c341
00000050: 015b f3c0 1629 b341 30f6 8c3e 957a 0442
00000060: b61a 97c1 920e d841 8de5 2a3f c70a e4c0
00000070: d2b8 50c2 a015 ecc0 2417 96c0 a619 9f41
00000080: 82fc c1c1 a6e9 5341 786b e6c1 47ad 63c0
00000090: 094d cbc0 8ac4 06c1 aafc 6ac1 b628 dec0
000000a0: 685b c6c1 92ad b7c1 c2fd 93c1 fa25 93c0
000000b0: 3455 10c1 adcf 94c1 7499 9a3d 5c21 41bf
000000c0: 1f38 96c1 4f1b adc1 c510 4cc0 8987 96c1
000000d0: 9ce8 aac1 4adf 47c1 0509 8f40 eca1 42c0
000000e0: 8823 c2c0 0427 8e40 dae4 f8be 6362 d7c1
000000f0: 638d 8940 cc67 afc1 480b 093e 3786 4441
00000100: 13e4 d2c0 1375 5740 8456 22c1 7390 a63f
00000110: 6066 82c1 f3e3 ac41 d29c 1ac1 efd6 cb41
00000120: bb57 9cc0 ebbb 2c41 6eb0 9341 e244 9b41
00000130: 3297 fe41 310e d2c1 581b 8940 c7fb 9e40
00000140: 16df a741 6bd2 2dc1 a878 fd40 a572 1041
00000150: 3164 5b41 cdd9 9041 4784 e9c0 ef89 0d42
00000160: 27dc 0440 f899 4040 1e35 9fc1 6d1b 8d41
00000170: b41d c83d d40a 9841 0651 61c0 8e29 4bbf
00000180: 0e52 2141 3d8c 7141 0b82 6841 8ed9 7141
00000190: 7e55 0b41 2e8f 0cc1 fd98 bf41 7268 7d40
000001a0: 970a 13c1 9851 bec1 7e10 a941 972e 7140
000001b0: 0599 9fc0 8c14 47c1 a52f 3d3f e329 b141
000001c0: fe66 7441 2362 c341 63d2 b741 7ba7 6c40
000001d0: 42d4 81c1 b00f 9640 5658 873e 5d5c 91c1
000001e0: 1ab6 13c1 bf57 26c2 aeb6 d5c1 3495 41c1
000001f0: a954 dac0 ae5e dc40 3a79 a6c1 85ae 8c41
00000200: d0af 2ec1 69ab f341 b422 55c1 ece0 7940
00000210: 0815 acc1 5e76 bcbe b08a 3fbf c768 fac0
00000220: eb42 f9c1 5d39 d240 e0e7 8ac0 78dc a541
00000230: 4442 ab3e aaeb 62c1 ddc3 05c2 35e3 d140

c1.bias f4 [16]
13.993383 54.11703 -4.232559 20.898497 -10.162929 11.234062 19.308846 -21.470116
-17.536121 2.4899755 -29.610973 -24.917812 -2.054209 -0.057162285 -15.81918 -10.341377
00000000: e6e4 5f41 d777 5842 2071 87c0 1f30 a741
00000010: 5b9b 22c1 b8be 3341 8478 9a41 ccc2 abc1
00000020: fa49 8cc1 c25b 1f40 46e3 ecc1 ae57 c7c1
00000030: 2978 03c0 0023 6abd 5c1b 7dc1 4876 25c1

c2.weight f4 [32, 16, 3, 3]
3.482934 -13.901444 -8.336421 3.6523204 -35.505863 -8.537514 -32.987488 6.944082
10.765449 -8.80344 -6.7281055 49.148518 -21.422878 10.437949 -49.980125 -11.771695
-31.577106 -14.461377 -17.93025 -16.76939 -19.015089 -11.62962 5.234499 -6.6075115
-38.79613 0.6722992 -19.882349 -4.1157293 -10.610806 13.985026 -14.003861 9.946901
-2.4914365 -5.7305126 28.89809 40.334667 -4.227359 7.529042 7.4780197 -4.568378
-8.706951 22.160341 -3.4849448 -29.35682 -11.250348 -17.692698 -0.7338293 -5.362436
-9.92946 -23.436049 -21.431273 2.4557574 -13.563266 18.788635 27.643164 15.687081
-19.324577 -55.615677 -22.653502 -16.557205 -7.6161776 -11.333121 -6.8260636 14.011602
12.059058 -19.683052 -2.5885847 13.511486 0.22629878 -20.41228 -12.414631 -5.4381533
-3.4292514 1.2660172 12.104153 17.57205 -2.223866 4.4765787 28.208988 -11.556068
20.733284 24.483831 -13.024963 -12.561166 -5.00159 20.972204 -10.235553 -5.7269273
15.064039 -11.053414 0.759781 24.019041 -2.53468 -10.668848 -5.1408405 -7.1057262
-8.09315 -18.051605 -15.06429 -6.6999726 -16.257738 35.36524 5.28739 -16.54494
5.2702866 -22.533499 -8.750641 -18.19803 8.987301 26.402687 23.493008 7.1405573
-19.188688 6.3994036 37.70117 5.3850813 35.92951 -8.882187 -14.718083 12.875498
-12.282862 -8.483326 10.006385 1.2850043 -11.71019 8.568497 12.754095 -24.911108
17.663095 -15.694709 26.883757 -10.035697 5.092792 14.064811 -18.34686 -24.654665
-2.6002808 6.6498923 3.70318 22.869728 8.222721 -1.154574 -10.05664 -31.455788
16.319452 5.3730593 7.7916975 -3.7050745 4.5776067 -24.878561 -13.289751 -14.766262
-18.72407 -12.292941 -0.29483694 -0.9564817 16.74183 8.34527 25.106888 -0.14279565
31.113604 27.454828 -7.355395 8.792392 -10.508111 24.66175 -5.7651296 10.450741
26.7025 -14.509242 4.080603 -8.977309 -31.561434 4.24583 24.04094 -1.2094465
15.096304 -21.016 -13.014089 6.4278913 7.775824 13.580519 18.413036 15.127648
9.158582 10.218679 -1.6076906 6.7570825 20.174892 18.029024 44.863777 3.708204
19.871809 16.309538 -8.735813 -0.021707222 7.9418917 -2.3905456 -31.863949 35.308285
22.580559 18.465424 -4.9526615 -16.29034 -11.007683 -18.5571 -7.823242 8.9505415
17.840347 28.399466 -19.275352 13.168226 23.162771 1.188736 -46.35148 -9.332693
-16.579634 -14.671178 0.13816154 -3.7634773 -0.629763 -38.685883 12.955212 47.785133
-7.361335 -22.435663 -8.880012 20.512253 0.40328264 4.444861 40.318142 -7.0890355
-2.4853837 -37.70751 -15.695343 -8.673769 -11.591526 17.534485 15.6653595 -23.013704
-3.2057552 -4.0227523 -8.910557 34.98851 -10.069825 1.6796942 -7.950664 -27.722023
32.70634 -11.789339 -12.963231 -8.64385 -3.974789 -23.883535 -3.6492083 -9.369191
00000000: 64e8 5e40 516c 5ec1 fb61 05c1 9ebf 6940
00000010: 0106 0ec2 a899 08c1 30f3 03c2 eb35 de40
00000020: 473f 2c41 e4da 0cc1 a44c d7c0 1598 4442
00000030: 0e62 abc1 d701 2741 a6eb 47c2 dd58 3cc1
00000040: ea9d fcc1 cd61 67c1 2771 8fc1 b627 86c1
00000050: e71e 98c1 ec12 3ac1 0481 a740 bc70 d3c0
00000060: 3d2f 1bc2 cd1b 2c3f 0d0f 9fc1 0eb4 83c0
00000070: ddc5 29c1 abc2 5f41 d10f 60c1 8226 1f41
00000080: b273 1fc0 5c60 b7c0 4a2f e741 b356 2142
00000090: 8646 87c0 e9ed f040 f04b ef40 2730 92c0
000000a0: ac4f 0bc1 6148 b141 5609 5fc0 c4da eac1
000000b0: 6d01 34c1 a58a 8dc1 3ddc 3bbf 1399 abc0
000000c0: 11df 1ec1 077d bbc1 3f73 abc1 212b 1d40
000000d0: 2303 59c1 204f 9641 3325 dd41 49fe 7a41
000000e0: bc98 9ac1 7476 5ec2 5f3a b5c1 2875 84c1
000000f0: bab7 f3c0 7754 35c1 1d6f dac0 862f 6041
00000100: e7f1 4041 e476 9dc1 5fab 25c0 0c2f 5841
00000110: deba 673e 594c a3c1 54a2 46c1 5a05 aec0
00000120: db78 5bc0 da0c a23f 9caa 4141 8f93 8c41
00000130: d253 0ec0 2240 8f40 02ac e141 a8e5 38c1
00000140: c4dd a541 e3de c341 4066 50c1 89fa 48c1
00000150: 060d a0c0 13c7 a741 d3c4 23c1 fd42 b7c0
00000160: 4e06 7141 c9da 30c1 0281 423f ff26 c041
00000170: 3238 22c0 9ab3 2ac1 c481 a4c0 1c62 e3c0
00000180: 8b7d 01c1 b069 90c1 5507 71c1 2d66 d6c0
00000190: d90f 82c1 0176 0d42 4d32 a940 0a5c 84c1
000001a0: 30a6 a840 9b44 b4c1 a002 0cc1 9195 91c1
000001b0: fccb 0f41 b438 d341 aef1 bb41 727f e440
000001c0: 6f82 99c1 eac7 cc40 00ce 1642 9652 ac40
000001d0: d1b7 0f42 701d 0ec1 457d 6bc1 0a02 4e41
000001e0: 9a86 44c1 b4bb 07c1 271a 2041 057b a43f
000001f0: f05c 3bc1 9018 0941 c610 4c41 f349 c7c1
00000200: 054e 8d41 871d 7bc1 ef11 d741 3792 20c1
00000210: 27f8 a240 7709 6141 5fc6 92c1 c13c c5c1
00000220: 006b 26c0 ebcb d440 e700 6d40 34f5 b641
00000230: 4490 0341 15c9 93bf ffe7 20c1 74a5 fbc1
00000240: 3d8e 8241 1af0 ab40 9655 f940 f11f 6dc0
00000250: c17b 9240 4b07 c7c1 d2a2 54c1 9c42 6cc1
00000260: e5ca 95c1 e3af 44c1 def4 96be fcdb 74bf
00000270: 45ef 8541 3a86 0541 e8da c841 0639 12be
00000280: a9e8 f841 7da3 db41 655f ebc0 a3ad 0c41
00000290: 3921 28c1 444b c541 f17b b8c0 3c36 2741
000002a0: b89e d541 db25 68c1 4d94 8240 0fa3 0fc1
000002b0: d17d fcc1 d7dd 8740 d853 c041 25cf 9abf
000002c0: 768a 7141 c520 a8c1 b539 50c1 49b1 cd40
000002d0: 8dd3 f840 ce49 5941 e64d 9341 d90a 7241
000002e0: 8d89 1241 b67f 2341 cec8 cdbf 053a d840
000002f0: 2e66 a141 713b 9041 8274 3342 3753 6d40
00000300: 77f9 9e41 ef79 8241 e4c5 0bc1 58d3 b1bc
00000310: fa23 fe40 b3fe 18c0 5ee9 fec1 af3b 0d42
00000320: fca4 b441 30b9 9341 347c 9ec0 9e52 82c1
00000330: 781f 30c1 f174 94c1 0058 fac0 6b35 0f41
00000340: 08b9 8e41 1b32 e341 ec33 9ac1 0eb1 5241
00000350: 5b4d b941 8028 983f ea67 39c2 b652 15c1
00000360: 17a3 84c1 25bd 6ac1 387a 0d3e d0dc 70c0
00000370: 2638 21bf 58be 1ac2 8c48 4f41 fa23 3f42
00000380: 0e90 ebc0 3d7c b3c1 8714 0ec1 1819 a441
00000390: 107b ce3e 4d3c 8e40 c745 2142 61d9 e2c0
000003a0: 8710 1fc0 7ed4 16c2 2020 7bc1 c2c7 0ac1
000003b0: e476 39c1 a046 8c41 50a5 7a41 111c b8c1
000003c0: 182b 4dc0 63ba 80c0 a491 0ec1 3cf4 0b42
000003d0: 011e 21c1 3800 d73f d76b fec0 b4c6 ddc1
000003e0: 4bd3 0242 22a1 3cc1 6569 4fc1 364d 0ac1
000003f0: f162 7ec0 7b11 bfc1 a18c 69c0 35e8 15c1

c2.bias f4 [32]
4.4659395 4.0385513 0.5594576 -4.4431906 -10.464595 4.2859864 10.105042 -6.455944
-9.694486 1.9194194 -16.36669 -20.538357 6.6135855 -30.012577 -41.923687 -2.396258
-39.279644 1.8100456 30.282898 22.113066 24.676744 22.011421 -34.281853 -7.7527685
-2.9147472 1.263114 -6.780869 9.559319 3.0718985 23.539824 23.397665 -6.1090016
00000000: fae8 8e40 d03b 8140 9d38 0f3f 9e2e 8ec0
00000010: fb6e 27c1 cd26 8940 41ae 2141 1897 cec0
00000020: 9d1c 1bc1 89af f53f fbee 82c1 8e4e a4c1
00000030: 7ea2 d340 c219 f0c1 dbb1 27c2 4b5c 19c0
00000040: 5b1e 1dc2 93af e73f 6043 f241 8fe7 b041
00000050: f969 c541 6417 b041 9e20 09c2 ae16 f8c0
00000060: 388b 3ac0 b8ad a13f e1fc d8c0 f8f2 1841
00000070: fc99 4440 8f51 bc41 6b2e bb41 f17c c3c0

d1.weight f4 [16, 32, 3, 3]
-16.691809 7.792801 30.813791 -2.7131476 19.107328 -13.892069 -9.614567 10.463993
9.891787 -22.027815 -1.6753812 -13.268713 -12.183864 -23.929482 33.11337 31.277334
36.36366 13.037192 7.8176155 30.168797 17.452093 7.6833405 -33.651707 9.796354
-27.041313 10.611888 -10.997773 14.330374 21.871544 4.4439516 7.655529 -1.0624963
-7.9664135 9.977169 2.106294 -15.097788 -2.8046257 5.6006145 1.7211709 4.481028
33.121426 -12.976294 -14.224065 -6.432618 16.829046 0.28226495 -34.18117 25.048676
17.11843 -0.084070034 -0.60772836 19.02547 24.336624 -13.136564 13.638296 -1.1659083
-7.0165873 4.7674274 -28.104485 -4.6148396 -16.69397 -19.40911 10.028283 -18.407436
3.8739321 13.645052 -21.306194 -25.484797 16.468288 11.979957 -21.703041 0.46981674
3.9715354 -17.01875 1.2826693 -6.5107703 -28.19511 25.47252 -10.021071 18.59698
-30.559284 -5.469303 -2.9220428 -11.622534 19.324219 0.69341075 -2.7506592 -1.8296237
-20.464853 0.19738072 -4.8002853 23.916502 6.3847723 31.644289 -15.7129965 -14.195834
-11.459568 -13.038721 -25.62972 -4.893284 24.677433 4.6994467 4.193552 32.68722
-4.0118966 21.839922 -2.6927762 -14.42477 -46.1714 11.235063 21.8877 5.3402777
-0.14452854 21.8004 -19.310926 19.02024 11.318815 12.758689 4.215375 -8.472889
20.13011 10.939876 -24.3703 19.013416 -14.7168665 23.551224 -4.2927833 -37.147915
-23.627968 30.454676 13.256172 18.461334 16.103863 -17.010574 13.339757 -4.812562
-18.097376 -18.144352 7.5344796 1.1911902 -2.2003589 -40.33838 0.76609635 -30.27298
1.9511395 -11.447972 -4.7150044 3.2758904 -9.095937 -15.851157 -29.139914 -0.7727477
25.900429 22.616331 18.17591 26.841629 2.555802 30.751888 18.763071 24.49194
2.8247635 -3.7052593 -16.012081 9.3094635 9.054222 9.3431015 3.8077865 20.449251
7.4916296 -3.4665475 -7.182599 -13.3867855 9.268686 -10.375854 17.039314 -5.092737
18.607592 12.599365 15.231142 -3.7484815 -26.707588 12.77908 1.260564 1.712076
7.0521827 -23.680584 3.1360776 -13.504315 17.837875 -10.82086 9.31645 -11.338422
-31.708075 -38.269592 -10.58462 22.491514 -2.234101 27.815456 23.986683 4.859973
-1.2430351 -8.50217 5.88866 -38.72511 -17.915781 -30.624434 -6.4784493 14.929348
-2.8443255 -15.185218 -9.91657 18.223385 -21.560888 13.684022 0.38915247 19.762392
-0.2836401 22.349377 8.90791 3.9847853 18.20735 -1.4338967 -14.489783 1.522467
-10.817736 -30.939447 -2.126534 0.88992333 -41.9792 -3.6985133 19.280207 -12.348451
-20.255169 10.870112 -9.620552 14.346119 13.60523 0.28141162 11.35637 10.988747
-14.004832 6.5414634 -16.397789 8.575257 15.818003 11.871905 -24.08972 0.82837
2.9861932 -25.129232 20.564468 -14.66473 8.177305 5.915358 10.935957 -8.777933
00000000: d388 85c1 a05e f940 a582 f641 36a4 2dc0
00000010: cfdb 9841 ea45 5ec1 44d5 19c1 846c 2741
00000020: c244 1e41 f738 b0c1 e472 d6bf a64c 54c1
00000030: 1bf1 42c1 946f bfc1 1774 0442 fb37 fa41
00000040: 6374 1142 5798 5041 e829 fa40 b259 f141
00000050: e39d 8b41 eddd f540 599b 06c2 debd 1c41
00000060: 9c54 d8c1 4bca 2941 e1f6 2fc1 3649 6541
00000070: ecf8 ae41 da34 8e40 18fa f440 e1ff 87bf
00000080: dcec fec0 7ca2 1f41 85cd 0640 8a90 71c1
00000090: fd7e 33c0 3c38 b340 544f dc3f 9564 8f40
000000a0: 577c 0442 e69e 4fc1 c595 63c1 02d8 cdc0
000000b0: e3a1 8641 0885 903e 85b9 08c2 b063 c841
000000c0: 8bf2 8841 e92c acbd 1694 1bbf 2a34 9841
000000d0: 68b1 c241 5e2f 52c1 7636 5a41 7c3c 95bf
000000e0: e287 e0c0 c48e 9840 fcd5 e0c1 c4ac 93c0
000000f0: 408d 85c1 db45 9bc1 d973 2041 6e42 93c1
00000100: 81ee 7740 2252 5a41 1673 aac1 dde0 cbc1
00000110: 0ebf 8341 e7ad 3f41 d49f adc1 d28b f03e
00000120: a32d 7e40 6626 88c1 822e a43f 3b58 d0c0
00000130: 968f e1c1 b9c7 cb41 4f56 20c1 9dc6 9441
00000140: 6a79 f4c1 8804 afc0 c002 3bc0 e6f5 39c1
00000150: 0098 9a41 5e83 313f cd0a 30c0 1c31 eabf
00000160: 05b8 a3c1 2c1e 4a3e f09b 99c0 ff54 bf41
00000170: 0e50 cc40 8127 fd41 6f68 7bc1 2322 63c1
00000180: 645a 37c1 9a9e 50c1 ab09 cdc1 c895 9cc0
00000190: 626b c541 de61 9640 9431 8640 b7bf 0242
000001a0: 7561 80c0 29b8 ae41 7256 2cc0 dccb 66c1
000001b0: 83af 38c2 d1c2 3341 021a af41 8ee3 aa40
000001c0: 4aff 13be 3867 ae41 c77c 9ac1 7429 9841
000001d0: de19 3541 9723 4c41 5ae4 8640 f490 07c1
000001e0: 770a a141 bb09 2f41 60f6 c2c1 7a1b 9841
000001f0: 4978 6bc1 e868 bc41 7b5e 89c0 7797 14c2
00000200: 1406 bdc1 2da3 f341 4819 5441 d0b0 9341
00000210: b6d4 8041 a815 88c1 a56f 5541 8200 9ac0
00000220: 6dc7 90c1 a227 91c1 751a f140 ec78 983f
00000230: aed2 0cc0 805a 21c2 e41e 443f 102f f2c1
00000240: f0be f93f e52a 37c1 51e1 96c0 30a8 5140
00000250: f588 11c1 579e 7dc1 8b1e e9c1 cbd2 45bf
00000260: 1434 cf41 3fee b441 4468 9141 a8bb d641
00000270: 4392 2340 de03 f641 c51a 9641 7eef c341
00000280: edc8 3440 f822 6dc0 be18 80c1 90f3 1441
00000290: 18de 1041 587d 1541 c6b2 7340 1198 a341
000002a0: 6ebb ef40 eadb 5dc0 dad7 e5c0 4630 56c1
000002b0: 8a4c 1441 7f03 26c1 8450 8841 b4f7 a2c0
000002c0: 59dc 9441 0097 4941 c2b2 7341 1fe7 6fc0
000002d0: 24a9 d5c1 1d77 4c41 295a a13f 4e25 db3f
000002e0: 7bab e140 d671 bdc1 7fb5 4840 ad11 58c1
000002f0: f8b3 8e41 3e22 2dc1 2e10 1541 2d6a 35c1
00000300: 23aa fdc1 1014 19c2 9b5a 29c1 9fee b341
00000310: 83fb 0ec0 0e86 de41 bae4 bf41 e684 9b40
00000320: c61b 9fbf e308 08c1 e76f bc40 83e6 1ac2
00000330: 8553 8fc1 d7fe f4c1 754f cfc0 9cde 6e41
00000340: 6e09 36c0 a7f6 72c1 45aa 1ec1 7ec9 9141
00000350: b37c acc1 c1f1 5a41 fe3e c73e 6119 9e41
00000360: 4639 91be 86cb b241 cd86 0e41 b906 7f40
00000370: a7a8 9141 ed89 b7bf 27d6 67c1 33e0 c23f
00000380: 7215 2dc1 fd83 f7c1 2219 08c0 04d2 633f
00000390: b3ea 27c2 71b4 6cc0 dd3d 9a41 4193 45c1
000003a0: 960a a2c1 fbeb 2d41 c8ed 19c1 b489 6541
000003b0: 06af 5941 2f15 903e b1b3 3541 e8d1 2f41
000003c0: cb13 60c1 ab53 d140 ac2e 83c1 4134 0941
000003d0: 8a16 7d41 53f3 3d41 bfb7 c0c1 0e10 543f
000003e0: ca1d 3f40 ab08 c9c1 0884 a441 bca2 6ac1
000003f0: 3ed6 0241 9d4a bd40 aef9 2e41 6a72 0cc1

d1.bias f4 [16]
2.6714258 0.61709076 -1.0938572 -3.651419 -30.934584 2.5085278 0.44477084 -24.80141
15.609696 -30.764341 -12.502802 -11.456431 -20.451729 0.49429592 1.3241348 -16.002718
00000000: a4f8 2a40 a9f9 1d3f 8303 8cbf d9b0 69c0
00000010: 077a f7c1 b88b 2040 01b9 e33e 4a69 c6c1
00000020: 51c1 7941 5f1d f6c1 7a0b 48c1 8b4d 37c1
00000030: 249d a3c1 5b14 fd3e 407d a93f 9105 80c1

d2.weight f4 [1, 16, 3, 3]
-12.929717 -23.27249 17.497894 6.4358616 -11.612969 -5.7826166 -12.042629 -19.491968
0.9623194 -10.075593 29.452908 -4.8301387 25.928408 -5.688314 11.120877 6.034284
1.069965 -34.315445 3.063832 0.3827696 -16.286428 10.3774 -13.365747 22.634523
-19.85307 -16.524403 -7.5720787 -19.791582 -10.402564 -22.95979 0.84782946 -24.73654
-23.716967 -0.33516157 14.981854 -27.077478 3.1563988 -36.211773 -1.6938776 -30.684978
-4.91127 -20.999346 -9.752018 -40.152214 20.677494 2.0740392 -2.396963 6.6152596
-16.42472 4.6465096 -13.975464 -0.72274226 4.6152825 -24.881458 -4.595208 -6.29002
-12.191288 -14.514238 17.036795 -3.8884652 20.612402 8.484682 -18.78126 -3.6281755
16.495245 -14.346138 8.134135 -29.016062 3.2209284 0.22451927 6.5771155 -13.079576
-4.894881 -27.852707 4.275075 -5.028651 -14.298173 -13.009665 13.747452 -14.497025
19.612295 -22.88084 -9.526389 15.6061945 -20.539371 -29.420868 -12.057223 -0.48583722
-16.048658 -20.847404 -0.15833 -7.9149346 35.737362 8.031172 16.35736 -7.4480767
10.167185 -18.48316 0.79250467 -2.0026643 2.4207547 -3.6548193 -4.2314997 -6.8542976
-4.6684613 -10.758928 7.523698 -25.646315 -0.84001184 -6.1148734 -13.427612 -11.422364
-29.168802 8.010145 -30.87833 -2.6354303 -16.352304 7.746046 -5.84202 21.588352
-28.453955 6.6554084 -45.483395 23.73951 -19.77621 16.633486 11.026492 -2.9158146
-6.6944947 12.006282 -15.081822 -6.3452387 22.651976 5.653828 -13.318653 22.780876
-20.38579 33.19494 -18.881847 18.051405 -5.5940075 -2.4875932 12.540386 36.052776
00000000: 1fe0 4ec1 0f2e bac1 b0fb 8b41 94f2 cd40
00000010: b9ce 39c1 320b b9c0 9cae 40c1 8def 9bc1
00000020: 905a 763f a135 21c1 8e9f eb41 7f90 9ac0
00000030: 616d cf41 ab06 b6c0 1def 3141 db18 c140
00000040: 9df4 883f 0443 09c2 d315 4440 61fa c33e
00000050: 9b4a 82c1 d509 2641 1ada 55c1 8113 b541
00000060: 16d3 9ec1 fa31 84c1 784e f2c0 2955 9ec1
00000070: e770 26c1 a6ad b7c1 5a0b 593f 6fe4 c5c1
00000080: 59bc bdc1 4c9a abbe adb5 6f41 ad9e d8c1
00000090: 7002 4a40 dbd8 10c2 fbd0 d8bf d67a f5c1
000000a0: 2029 9dc0 a9fe a7c1 4408 1cc1 de9b 20c2
000000b0: 826b a541 0fbd 0440 d767 19c0 35b0 d340
000000c0: d465 83c1 35b0 9440 809b 5fc1 a305 39bf
000000d0: 65b0 9340 3a0d c7c1 f20b 93c0 d847 c9c0
000000e0: 840f 43c1 523a 68c1 5b4b 8841 9ddc 78c0
000000f0: 33e6 a441 42c1 0741 0540 96c1 0734 68c0
00000100: 43f6 8341 c889 65c1 6b25 0241 e520 e8c1
00000110: b123 4e40 61e8 653e bb77 d240 f145 51c1
00000120: dda2 9cc0 58d2 dec1 6acd 8840 b6ea a0c0
00000130: 51c5 64c1 9627 50c1 90f5 5b41 d0f3 67c1
00000140: fbe5 9c41 f60b b7c1 176c 18c1 f9b2 7941
00000150: a250 a4c1 f05d ebc1 63ea 40c1 a8bf f8be
00000160: a763 80c1 7cc7 a6c1 4221 22be 2547 fdc0
00000170: 0ff3 0e42 ae7f 0041 e0db 8241 a556 eec0
00000180: caac 2241 83dd 93c1 96e1 4a3f a72b 00c0
00000190: a5ed 1a40 8fe8 69c0 7268 87c0 6856 dbc0
000001a0: 0964 95c0 9224 2cc1 22c2 f040 a72b cdc1
000001b0: 040b 57bf 0bad c3c0 80d7 56c1 01c2 36c1
000001c0: b559 e9c1 8e29 0041 d206 f7c1 e4aa 28c0
000001d0: 85d1 82c1 9cdf f740 d4f1 bac0 f2b4 ac41
000001e0: b3a1 e3c1 1bf9 d440 ffee 35c2 84ea bd41
000001f0: ae35 9ec1 6111 8541 836c 3041 b59c 3ac0
00000200: 4d39 d6c0 bb19 4041 254f 71c1 320c cbc0
00000210: 3f37 b541 29ec b440 3419 55c1 3c3f b641
00000220: 1916 a3c1 9ec7 0442 060e 97c1 4769 9041
00000230: 1c02 b3c0 ba34 1fc0 6ca5 4841 0b36 1042

encoder.0.weight f4 [16, 1, 3, 3]
-24.172396 -49.119007 -19.6551 22.656622 -5.2572722 -4.3276105 17.653072 11.12635
-27.253027 -2.751752 8.668417 -0.9277329 12.784235 -19.582964 -9.683024 16.589077
-10.9509535 14.194387 -8.839363 24.401722 -7.604859 22.395061 0.27531576 33.11971
-18.888042 27.007114 0.66756517 -7.1263156 -52.18049 -7.37764 -4.690325 19.887524
-24.248295 13.244543 -28.802475 -3.557451 -6.3531537 -8.422983 -14.686686 -6.9424696
-24.794632 -22.959751 -18.498905 -4.598386 -9.020802 -18.601404 0.075488 -0.7544153
-18.777403 -21.638334 -3.1885235 -18.81618 -21.363579 -12.492014 4.469851 -3.041133
-6.0668373 4.4422626 -0.486121 -26.92304 4.298509 -21.925682 0.1338321 12.282767
-6.590341 3.3665206 -10.146122 1.3012832 -16.299988 21.611303 -9.663286 25.479948
-4.8857093 10.795878 18.461147 19.408634 31.823826 -26.25693 4.284588 4.9682345
20.983929 -10.863872 7.9209785 9.027989 13.711961 18.106348 -7.297397 35.3847
2.075937 3.0093975 -19.900936 17.638391 0.097712904 19.005287 -3.5205703 -0.7936028
10.082533 15.096738 14.531749 15.115614 8.708372 -8.784956 23.949701 3.9594998
-9.190085 -23.78984 21.133053 3.7684686 -4.987429 -12.442516 0.73900825 22.145452
15.275145 24.422918 22.977728 3.6977222 -16.228642 4.689415 0.26434582 -18.1701
-9.231958 -41.58569 -26.7142 -12.098927 -6.8228345 6.8865576 -20.809193 17.585215
-10.917923 30.458696 -13.320972 3.9043531 -21.51027 -0.36809057 -0.74820995 -7.82529
-31.157675 6.5695024 -4.340805 20.73265 0.33448994 -14.182535 -33.441273 6.558985
00000000: 1161 c1c1 dd79 44c2 a53d 9dc1 c340 b541
00000010: 933b a8c0 c97b 8ac0 7e39 8d41 8805 3241
00000020: 3306 dac1 b41c 30c0 d6b1 0a41 e77f 6dbf
00000030: 3a8c 4c41 e9a9 9cc1 abed 1ac1 6eb6 8441
00000040: 1b37 2fc1 361c 6341 086e 0dc1 ba36 c341
00000050: 015b f3c0 1629 b341 30f6 8c3e 957a 0442
00000060: b61a 97c1 920e d841 8de5 2a3f c70a e4c0
00000070: d2b8 50c2 a015 ecc0 2417 96c0 a619 9f41
00000080: 82fc c1c1 a6e9 5341 786b e6c1 47ad 63c0
00000090: 094d cbc0 8ac4 06c1 aafc 6ac1 b628 dec0
000000a0: 685b c6c1 92ad b7c1 c2fd 93c1 fa25 93c0
000000b0: 3455 10c1 adcf 94c1 7499 9a3d 5c21 41bf
000000c0: 1f38 96c1 4f1b adc1 c510 4cc0 8987 96c1
000000d0: 9ce8 aac1 4adf 47c1 0509 8f40 eca1 42c0
000000e0: 8823 c2c0 0427 8e40 dae4 f8be 6362 d7c1
000000f0: 638d 8940 cc67 afc1 480b 093e 3786 4441
00000100: 13e4 d2c0 1375 5740 8456 22c1 7390 a63f
00000110: 6066 82c1 f3e3 ac41 d29c 1ac1 efd6 cb41
00000120: bb57 9cc0 ebbb 2c41 6eb0 9341 e244 9b41
00000130: 3297 fe41 310e d2c1 581b 8940 c7fb 9e40
00000140: 16df a741 6bd2 2dc1 a878 fd40 a572 1041
00000150: 3164 5b41 cdd9 9041 4784 e9c0 ef89 0d42
00000160: 27dc 0440 f899 4040 1e35 9fc1 6d1b 8d41
00000170: b41d c83d d40a 9841 0651 61c0 8e29 4bbf
00000180: 0e52 2141 3d8c 7141 0b82 6841 8ed9 7141
00000190: 7e55 0b41 2e8f 0cc1 fd98 bf41 7268 7d40
000001a0: 970a 13c1 9851 bec1 7e10 a941 972e 7140
000001b0: 0599 9fc0 8c14 47c1 a52f 3d3f e329 b141
000001c0: fe66 7441 2362 c341 63d2 b741 7ba7 6c40
000001d0: 42d4 81c1 b00f 9640 5658 873e 5d5c 91c1
000001e0: 1ab6 13c1 bf57 26c2 aeb6 d5c1 3495 41c1
000001f0: a954 dac0 ae5e dc40 3a79 a6c1 85ae 8c41
00000200: d0af 2ec1 69ab f341 b422 55c1 ece0 7940
00000210: 0815 acc1 5e76 bcbe b08a 3fbf c768 fac0
00000220: eb42 f9c1 5d39 d240 e0e7 8ac0 78dc a541
00000230: 4442 ab3e aaeb 62c1 ddc3 05c2 35e3 d140

encoder.0.bias f4 [16]
13.993383 54.11703 -4.232559 20.898497 -10.162929 11.234062 19.308846 -21.470116
-17.536121 2.4899755 -29.610973 -24.917812 -2.054209 -0.057162285 -15.81918 -10.341377
00000000: e6e4 5f41 d777 5842 2071 87c0 1f30 a741
00000010: 5b9b 22c1 b8be 3341 8478 9a41 ccc2 abc1
00000020: fa49 8cc1 c25b 1f40 46e3 ecc1 ae57 c7c1
00000030: 2978 03c0 0023 6abd 5c1b 7dc1 4876 25c1

encoder.2.weight f4 [32, 16, 3, 3]
3.482934 -13.901444 -8.336421 3.6523204 -35.505863 -8.537514 -32.987488 6.944082
10.765449 -8.80344 -6.7281055 49.148518 -21.422878 10.437949 -49.980125 -11.771695
-31.577106 -14.461377 -17.93025 -16.76939 -19.015089 -11.62962 5.234499 -6.6075115
-38.79613 0.6722992 -19.882349 -4.1157293 -10.610806 13.985026 -14.003861 9.946901
-2.4914365 -5.7305126 28.89809 40.334667 -4.227359 7.529042 7.4780197 -4.568378
-8.706951 22.160341 -3.4849448 -29.35682 -11.250348 -17.692698 -0.7338293 -5.362436
-9.92946 -23.436049 -21.431273 2.4557574 -13.563266 18.788635 27.643164 15.687081
-19.324577 -55.615677 -22.653502 -16.557205 -7.6161776 -11.333121 -6.8260636 14.011602
12.059058 -19.683052 -2.5885847 13.511486 0.22629878 -20.41228 -12.414631 -5.4381533
-3.4292514 1.2660172 12.104153 17.57205 -2.223866 4.4765787 28.208988 -11.556068
20.733284 24.483831 -13.024963 -12.561166 -5.00159 20.972204 -10.235553 -5.7269273
15.064039 -11.053414 0.759781 24.019041 -2.53468 -10.668848 -5.1408405 -7.1057262
-8.09315 -18.051605 -15.06429 -6.6999726 -16.257738 35.36524 5.28739 -16.54494
5.2702866 -22.533499 -8.750641 -18.19803 8.987301 26.402687 23.493008 7.1405573
-19.188688 6.3994036 37.70117 5.3850813 35.92951 -8.882187 -14.718083 12.875498
-12.282862 -8.483326 10.006385 1.2850043 -11.71019 8.568497 12.754095 -24.911108
17.663095 -15.694709 26.883757 -10.035697 5.092792 14.064811 -18.34686 -24.654665
-2.6002808 6.6498923 3.70318 22.869728 8.222721 -1.154574 -10.05664 -31.455788
16.319452 5.3730593 7.7916975 -3.7050745 4.5776067 -24.878561 -13.289751 -14.766262
-18.72407 -12.292941 -0.29483694 -0.9564817 16.74183 8.34527 25.106888 -0.14279565
31.113604 27.454828 -7.355395 8.792392 -10.508111 24.66175 -5.7651296 10.450741
26.7025 -14.509242 4.080603 -8.977309 -31.561434 4.24583 24.04094 -1.2094465
15.096304 -21.016 -13.014089 6.4278913 7.775824 13.580519 18.413036 15.127648
9.158582 10.218679 -1.6076906 6.7570825 20.174892 18.029024 44.863777 3.708204
19.871809 16.309538 -8.735813 -0.021707222 7.9418917 -2.3905456 -31.863949 35.308285
22.580559 18.465424 -4.9526615 -16.29034 -11.007683 -18.5571 -7.823242 8.9505415
17.840347 28.399466 -19.275352 13.168226 23.162771 1.188736 -46.35148 -9.332693
-16.579634 -14.671178 0.13816154 -3.7634773 -0.629763 -38.685883 12.955212 47.785133
-7.361335 -22.435663 -8.880012 20.512253 0.40328264 4.444861 40.318142 -7.0890355
-2.4853837 -37.70751 -15.695343 -8.673769 -11.591526 17.534485 15.6653595 -23.013704
-3.2057552 -4.0227523 -8.910557 34.98851 -10.069825 1.6796942 -7.950664 -27.722023
32.70634 -11.789339 -12.963231 -8.64385 -3.974789 -23.883535 -3.6492083 -9.369191
00000000: 64e8 5e40 516c 5ec1 fb61 05c1 9ebf 6940
00000010: 0106 0ec2 a899 08c1 30f3 03c2 eb35 de40
00000020: 473f 2c41 e4da 0cc1 a44c d7c0 1598 4442
00000030: 0e62 abc1 d701 2741 a6eb 47c2 dd58 3cc1
00000040: ea9d fcc1 cd61 67c1 2771 8fc1 b627 86c1
00000050: e71e 98c1 ec12 3ac1 0481 a740 bc70 d3c0
00000060: 3d2f 1bc2 cd1b 2c3f 0d0f 9fc1 0eb4 83c0
00000070: ddc5 29c1 abc2 5f41 d10f 60c1 8226 1f41
00000080: b273 1fc0 5c60 b7c0 4a2f e741 b356 2142
00000090: 8646 87c0 e9ed f040 f04b ef40 2730 92c0
000000a0: ac4f 0bc1 6148 b141 5609 5fc0 c4da eac1
000000b0: 6d01 34c1 a58a 8dc1 3ddc 3bbf 1399 abc0
000000c0: 11df 1ec1 077d bbc1 3f73 abc1 212b 1d40
000000d0: 2303 59c1 204f 9641 3325 dd41 49fe 7a41
000000e0: bc98 9ac1 7476 5ec2 5f3a b5c1 2875 84c1
000000f0: bab7 f3c0 7754 35c1 1d6f dac0 862f 6041
00000100: e7f1 4041 e476 9dc1 5fab 25c0 0c2f 5841
00000110: deba 673e 594c a3c1 54a2 46c1 5a05 aec0
00000120: db78 5bc0 da0c a23f 9caa 4141 8f93 8c41
00000130: d253 0ec0 2240 8f40 02ac e141 a8e5 38c1
00000140: c4dd a541 e3de c341 4066 50c1 89fa 48c1
00000150: 060d a0c0 13c7 a741 d3c4 23c1 fd42 b7c0
00000160: 4e06 7141 c9da 30c1 0281 423f ff26 c041
00000170: 3238 22c0 9ab3 2ac1 c481 a4c0 1c62 e3c0
00000180: 8b7d 01c1 b069 90c1 5507 71c1 2d66 d6c0
00000190: d90f 82c1 0176 0d42 4d32 a940 0a5c 84c1
000001a0: 30a6 a840 9b44 b4c1 a002 0cc1 9195 91c1
000001b0: fccb 0f41 b438 d341 aef1 bb41 727f e440
000001c0: 6f82 99c1 eac7 cc40 00ce 1642 9652 ac40
000001d0: d1b7 0f42 701d 0ec1 457d 6bc1 0a02 4e41
000001e0: 9a86 44c1 b4bb 07c1 271a 2041 057b a43f
000001f0: f05c 3bc1 9018 0941 c610 4c41 f349 c7c1
00000200: 054e 8d41 871d 7bc1 ef11 d741 3792 20c1
00000210: 27f8 a240 7709 6141 5fc6 92c1 c13c c5c1
00000220: 006b 26c0 ebcb d440 e700 6d40 34f5 b641
00000230: 4490 0341 15c9 93bf ffe7 20c1 74a5 fbc1
00000240: 3d8e 8241 1af0 ab40 9655 f940 f11f 6dc0
00000250: c17b 9240 4b07 c7c1 d2a2 54c1 9c42 6cc1
00000260: e5ca 95c1 e3af 44c1 def4 96be fcdb 74bf
00000270: 45ef 8541 3a86 0541 e8da c841 0639 12be
00000280: a9e8 f841 7da3 db41 655f ebc0 a3ad 0c41
00000290: 3921 28c1 444b c541 f17b b8c0 3c36 2741
000002a0: b89e d541 db25 68c1 4d94 8240 0fa3 0fc1
000002b0: d17d fcc1 d7dd 8740 d853 c041 25cf 9abf
000002c0: 768a 7141 c520 a8c1 b539 50c1 49b1 cd40
000002d0: 8dd3 f840 ce49 5941 e64d 9341 d90a 7241
000002e0: 8d89 1241 b67f 2341 cec8 cdbf 053a d840
000002f0: 2e66 a141 713b 9041 8274 3342 3753 6d40
00000300: 77f9 9e41 ef79 8241 e4c5 0bc1 58d3 b1bc
00000310: fa23 fe40 b3fe 18c0 5ee9 fec1 af3b 0d42
00000320: fca4 b441 30b9 9341 347c 9ec0 9e52 82c1
00000330: 781f 30c1 f174 94c1 0058 fac0 6b35 0f41
00000340: 08b9 8e41 1b32 e341 ec33 9ac1 0eb1 5241
00000350: 5b4d b941 8028 983f ea67 39c2 b652 15c1
00000360: 17a3 84c1 25bd 6ac1 387a 0d3e d0dc 70c0
00000370: 2638 21bf 58be 1ac2 8c48 4f41 fa23 3f42
00000380: 0e90 ebc0 3d7c b3c1 8714 0ec1 1819 a441
00000390: 107b ce3e 4d3c 8e40 c745 2142 61d9 e2c0
000003a0: 8710 1fc0 7ed4 16c2 2020 7bc1 c2c7 0ac1
000003b0: e476 39c1 a046 8c41 50a5 7a41 111c b8c1
000003c0: 182b 4dc0 63ba 80c0 a491 0ec1 3cf4 0b42
000003d0: 011e 21c1 3800 d73f d76b fec0 b4c6 ddc1
000003e0: 4bd3 0242 22a1 3cc1 6569 4fc1 364d 0ac1
000003f0: f162 7ec0 7b11 bfc1 a18c 69c0 35e8 15c1

encoder.2.bias f4 [32]
4.4659395 4.0385513 0.5594576 -4.4431906 -10.464595 4.2859864 10.105042 -6.455944
-9.694486 1.9194194 -16.36669 -20.538357 6.6135855 -30.012577 -41.923687 -2.396258
-39.279644 1.8100456 30.282898 22.113066 24.676744 22.011421 -34.281853 -7.7527685
-2.9147472 1.263114 -6.780869 9.559319 3.0718985 23.539824 23.397665 -6.1090016
00000000: fae8 8e40 d03b 8140 9d38 0f3f 9e2e 8ec0
00000010: fb6e 27c1 cd26 8940 41ae 2141 1897 cec0
00000020: 9d1c 1bc1 89af f53f fbee 82c1 8e4e a4c1
00000030: 7ea2 d340 c219 f0c1 dbb1 27c2 4b5c 19c0
00000040: 5b1e 1dc2 93af e73f 6043 f241 8fe7 b041
00000050: f969 c541 6417 b041 9e20 09c2 ae16 f8c0
00000060: 388b 3ac0 b8ad a13f e1fc d8c0 f8f2 1841
00000070: fc99 4440 8f51 bc41 6b2e bb41 f17c c3c0

decoder.0.weight f4 [16, 32, 3, 3]
-16.691809 7.792801 30.813791 -2.7131476 19.107328 -13.892069 -9.614567 10.463993
9.891787 -22.027815 -1.6753812 -13.268713 -12.183864 -23.929482 33.11337 31.277334
36.36366 13.037192 7.8176155 30.168797 17.452093 7.6833405 -33.651707 9.796354
-27.041313 10.611888 -10.997773 14.330374 21.871544 4.4439516 7.655529 -1.0624963
-7.9664135 9.977169 2.106294 -15.097788 -2.8046257 5.6006145 1.7211709 4.481028
33.121426 -12.976294 -14.224065 -6.432618 16.829046 0.28226495 -34.18117 25.048676
17.11843 -0.084070034 -0.60772836 19.02547 24.336624 -13.136564 13.638296 -1.1659083
-7.0165873 4.7674274 -28.104485 -4.6148396 -16.69397 -19.40911 10.028283 -18.407436
3.8739321 13.645052 -21.306194 -25.484797 16.468288 11.979957 -21.703041 0.46981674
3.9715354 -17.01875 1.2826693 -6.5107703 -28.19511 25.47252 -10.021071 18.59698
-30.559284 -5.469303 -2.9220428 -11.622534 19.324219 0.69341075 -2.7506592 -1.8296237
-20.464853 0.19738072 -4.8002853 23.916502 6.3847723 31.644289 -15.7129965 -14.195834
-11.459568 -13.038721 -25.62972 -4.893284 24.677433 4.6994467 4.193552 32.68722
-4.0118966 21.839922 -2.6927762 -14.42477 -46.1714 11.235063 21.8877 5.3402777
-0.14452854 21.8004 -19.310926 19.02024 11.318815 12.758689 4.215375 -8.472889
20.13011 10.939876 -24.3703 19.013416 -14.7168665 23.551224 -4.2927833 -37.147915
-23.627968 30.454676 13.256172 18.461334 16.103863 -17.010574 13.339757 -4.812562
-18.097376 -18.144352 7.5344796 1.1911902 -2.2003589 -40.33838 0.76609635 -30.27298
1.9511395 -11.447972 -4.7150044 3.2758904 -9.095937 -15.851157 -29.139914 -0.7727477
25.900429 22.616331 18.17591 26.841629 2.555802 30.751888 18.763071 24.49194
2.8247635 -3.7052593 -16.012081 9.3094635 9.054222 9.3431015 3.8077865 20.449251
7.4916296 -3.4665475 -7.182599 -13.3867855 9.268686 -10.375854 17.039314 -5.092737
18.607592 12.599365 15.231142 -3.7484815 -26.707588 12.77908 1.260564 1.712076
7.0521827 -23.680584 3.1360776 -13.504315 17.837875 -10.82086 9.31645 -11.338422
-31.708075 -38.269592 -10.58462 22.491514 -2.234101 27.815456 23.986683 4.859973
-1.2430351 -8.50217 5.88866 -38.72511 -17.915781 -30.624434 -6.4784493 14.929348
-2.8443255 -15.185218 -9.91657 18.223385 -21.560888 13.684022 0.38915247 19.762392
-0.2836401 22.349377 8.90791 3.9847853 18.20735 -1.4338967 -14.489783 1.522467
-10.817736 -30.939447 -2.126534 0.88992333 -41.9792 -3.6985133 19.280207 -12.348451
-20.255169 10.870112 -9.620552 14.346119 13.60523 0.28141162 11.35637 10.988747
-14.004832 6.5414634 -16.397789 8.575257 15.818003 11.871905 -24.08972 0.82837
2.9861932 -25.129232 20.564468 -14.66473 8.177305 5.915358 10.935957 -8.777933
00000000: d388 85c1 a05e f940 a582 f641 36a4 2dc0
00000010: cfdb 9841 ea45 5ec1 44d5 19c1 846c 2741
00000020: c244 1e41 f738 b0c1 e472 d6bf a64c 54c1
00000030: 1bf1 42c1 946f bfc1 1774 0442 fb37 fa41
00000040: 6374 1142 5798 5041 e829 fa40 b259 f141
00000050: e39d 8b41 eddd f540 599b 06c2 debd 1c41
00000060: 9c54 d8c1 4bca 2941 e1f6 2fc1 3649 6541
00000070: ecf8 ae41 da34 8e40 18fa f440 e1ff 87bf
00000080: dcec fec0 7ca2 1f41 85cd 0640 8a90 71c1
00000090: fd7e 33c0 3c38 b340 544f dc3f 9564 8f40
000000a0: 577c 0442 e69e 4fc1 c595 63c1 02d8 cdc0
000000b0: e3a1 8641 0885 903e 85b9 08c2 b063 c841
000000c0: 8bf2 8841 e92c acbd 1694 1bbf 2a34 9841
000000d0: 68b1 c241 5e2f 52c1 7636 5a41 7c3c 95bf
000000e0: e287 e0c0 c48e 9840 fcd5 e0c1 c4ac 93c0
000000f0: 408d 85c1 db45 9bc1 d973 2041 6e42 93c1
00000100: 81ee 7740 2252 5a41 1673 aac1 dde0 cbc1
00000110: 0ebf 8341 e7ad 3f41 d49f adc1 d28b f03e
00000120: a32d 7e40 6626 88c1 822e a43f 3b58 d0c0
00000130: 968f e1c1 b9c7 cb41 4f56 20c1 9dc6 9441
00000140: 6a79 f4c1 8804 afc0 c002 3bc0 e6f5 39c1
00000150: 0098 9a41 5e83 313f cd0a 30c0 1c31 eabf
00000160: 05b8 a3c1 2c1e 4a3e f09b 99c0 ff54 bf41
00000170: 0e50 cc40 8127 fd41 6f68 7bc1 2322 63c1
00000180: 645a 37c1 9a9e 50c1 ab09 cdc1 c895 9cc0
00000190: 626b c541 de61 9640 9431 8640 b7bf 0242
000001a0: 7561 80c0 29b8 ae41 7256 2cc0 dccb 66c1
000001b0: 83af 38c2 d1c2 3341 021a af41 8ee3 aa40
000001c0: 4aff 13be 3867 ae41 c77c 9ac1 7429 9841
000001d0: de19 3541 9723 4c41 5ae4 8640 f490 07c1
000001e0: 770a a141 bb09 2f41 60f6 c2c1 7a1b 9841
000001f0: 4978 6bc1 e868 bc41 7b5e 89c0 7797 14c2
00000200: 1406 bdc1 2da3 f341 4819 5441 d0b0 9341
00000210: b6d4 8041 a815 88c1 a56f 5541 8200 9ac0
00000220: 6dc7 90c1 a227 91c1 751a f140 ec78 983f
00000230: aed2 0cc0 805a 21c2 e41e 443f 102f f2c1
00000240: f0be f93f e52a 37c1 51e1 96c0 30a8 5140
00000250: f588 11c1 579e 7dc1 8b1e e9c1 cbd2 45bf
00000260: 1434 cf41 3fee b441 4468 9141 a8bb d641
00000270: 4392 2340 de03 f641 c51a 9641 7eef c341
00000280: edc8 3440 f822 6dc0 be18 80c1 90f3 1441
00000290: 18de 1041 587d 1541 c6b2 7340 1198 a341
000002a0: 6ebb ef40 eadb 5dc0 dad7 e5c0 4630 56c1
000002b0: 8a4c 1441 7f03 26c1 8450 8841 b4f7 a2c0
000002c0: 59dc 9441 0097 4941 c2b2 7341 1fe7 6fc0
000002d0: 24a9 d5c1 1d77 4c41 295a a13f 4e25 db3f
000002e0: 7bab e140 d671 bdc1 7fb5 4840 ad11 58c1
000002f0: f8b3 8e41 3e22 2dc1 2e10 1541 2d6a 35c1
00000300: 23aa fdc1 1014 19c2 9b5a 29c1 9fee b341
00000310: 83fb 0ec0 0e86 de41 bae4 bf41 e684 9b40
00000320: c61b 9fbf e308 08c1 e76f bc40 83e6 1ac2
00000330: 8553 8fc1 d7fe f4c1 754f cfc0 9cde 6e41
00000340: 6e09 36c0 a7f6 72c1 45aa 1ec1 7ec9 9141
00000350: b37c acc1 c1f1 5a41 fe3e c73e 6119 9e41
00000360: 4639 91be 86cb b241 cd86 0e41 b906 7f40
00000370: a7a8 9141 ed89 b7bf 27d6 67c1 33e0 c23f
00000380: 7215 2dc1 fd83 f7c1 2219 08c0 04d2 633f
00000390: b3ea 27c2 71b4 6cc0 dd3d 9a41 4193 45c1
000003a0: 960a a2c1 fbeb 2d41 c8ed 19c1 b489 6541
000003b0: 06af 5941 2f15 903e b1b3 3541 e8d1 2f41
000003c0: cb13 60c1 ab53 d140 ac2e 83c1 4134 0941
000003d0: 8a16 7d41 53f3 3d41 bfb7 c0c1 0e10 543f
000003e0: ca1d 3f40 ab08 c9c1 0884 a441 bca2 6ac1
000003f0: 3ed6 0241 9d4a bd40 aef9 2e41 6a72 0cc1

decoder.0.bias f4 [16]
2.6714258 0.61709076 -1.0938572 -3.651419 -30.934584 2.5085278 0.44477084 -24.80141
15.609696 -30.764341 -12.502802 -11.456431 -20.451729 0.49429592 1.3241348 -16.002718
00000000: a4f8 2a40 a9f9 1d3f 8303 8cbf d9b0 69c0
00000010: 077a f7c1 b88b 2040 01b9 e33e 4a69 c6c1
00000020: 51c1 7941 5f1d f6c1 7a0b 48c1 8b4d 37c1
00000030: 249d a3c1 5b14 fd3e 407d a93f 9105 80c1

decoder.2.weight f4 [1, 16, 3, 3]
-12.929717 -23.27249 17.497894 6.4358616 -11.612969 -5.7826166 -12.042629 -19.491968
0.9623194 -10.075593 29.452908 -4.8301387 25.928408 -5.688314 11.120877 6.034284
1.069965 -34.315445 3.063832 0.3827696 -16.286428 10.3774 -13.365747 22.634523
-19.85307 -16.524403 -7.5720787 -19.791582 -10.402564 -22.95979 0.84782946 -24.73654
-23.716967 -0.33516157 14.981854 -27.077478 3.1563988 -36.211773 -1.6938776 -30.684978
-4.91127 -20.999346 -9.752018 -40.152214 20.677494 2.0740392 -2.396963 6.6152596
-16.42472 4.6465096 -13.975464 -0.72274226 4.6152825 -24.881458 -4.595208 -6.29002
-12.191288 -14.514238 17.036795 -3.8884652 20.612402 8.484682 -18.78126 -3.6281755
16.495245 -14.346138 8.134135 -29.016062 3.2209284 0.22451927 6.5771155 -13.079576
-4.894881 -27.852707 4.275075 -5.028651 -14.298173 -13.009665 13.747452 -14.497025
19.612295 -22.88084 -9.526389 15.6061945 -20.539371 -29.420868 -12.057223 -0.48583722
-16.048658 -20.847404 -0.15833 -7.9149346 35.737362 8.031172 16.35736 -7.4480767
10.167185 -18.48316 0.79250467 -2.0026643 2.4207547 -3.6548193 -4.2314997 -6.8542976
-4.6684613 -10.758928 7.523698 -25.646315 -0.84001184 -6.1148734 -13.427612 -11.422364
-29.168802 8.010145 -30.87833 -2.6354303 -16.352304 7.746046 -5.84202 21.588352
-28.453955 6.6554084 -45.483395 23.73951 -19.77621 16.633486 11.026492 -2.9158146
-6.6944947 12.006282 -15.081822 -6.3452387 22.651976 5.653828 -13.318653 22.780876
-20.38579 33.19494 -18.881847 18.051405 -5.5940075 -2.4875932 12.540386 36.052776
00000000: 1fe0 4ec1 0f2e bac1 b0fb 8b41 94f2 cd40
00000010: b9ce 39c1 320b b9c0 9cae 40c1 8def 9bc1
00000020: 905a 763f a135 21c1 8e9f eb41 7f90 9ac0
00000030: 616d cf41 ab06 b6c0 1def 3141 db18 c140
00000040: 9df4 883f 0443 09c2 d315 4440 61fa c33e
00000050: 9b4a 82c1 d509 2641 1ada 55c1 8113 b541
00000060: 16d3 9ec1 fa31 84c1 784e f2c0 2955 9ec1
00000070: e770 26c1 a6ad b7c1 5a0b 593f 6fe4 c5c1
00000080: 59bc bdc1 4c9a abbe adb5 6f41 ad9e d8c1
00000090: 7002 4a40 dbd8 10c2 fbd0 d8bf d67a f5c1
000000a0: 2029 9dc0 a9fe a7c1 4408 1cc1 de9b 20c2
000000b0: 826b a541 0fbd 0440 d767 19c0 35b0 d340
000000c0: d465 83c1 35b0 9440 809b 5fc1 a305 39bf
000000d0: 65b0 9340 3a0d c7c1 f20b 93c0 d847 c9c0
000000e0: 840f 43c1 523a 68c1 5b4b 8841 9ddc 78c0
000000f0: 33e6 a441 42c1 0741 0540 96c1 0734 68c0
00000100: 43f6 8341 c889 65c1 6b25 0241 e520 e8c1
00000110: b123 4e40 61e8 653e bb77 d240 f145 51c1
00000120: dda2 9cc0 58d2 dec1 6acd 8840 b6ea a0c0
00000130: 51c5 64c1 9627 50c1 90f5 5b41 d0f3 67c1
00000140: fbe5 9c41 f60b b7c1 176c 18c1 f9b2 7941
00000150: a250 a4c1 f05d ebc1 63ea 40c1 a8bf f8be
00000160: a763 80c1 7cc7 a6c1 4221 22be 2547 fdc0
00000170: 0ff3 0e42 ae7f 0041 e0db 8241 a556 eec0
00000180: caac 2241 83dd 93c1 96e1 4a3f a72b 00c0
00000190: a5ed 1a40 8fe8 69c0 7268 87c0 6856 dbc0
000001a0: 0964 95c0 9224 2cc1 22c2 f040 a72b cdc1
000001b0: 040b 57bf 0bad c3c0 80d7 56c1 01c2 36c1
000001c0: b559 e9c1 8e29 0041 d206 f7c1 e4aa 28c0
000001d0: 85d1 82c1 9cdf f740 d4f1 bac0 f2b4 ac41
000001e0: b3a1 e3c1 1bf9 d440 ffee 35c2 84ea bd41
000001f0: ae35 9ec1 6111 8541 836c 3041 b59c 3ac0
00000200: 4d39 d6c0 bb19 4041 254f 71c1 320c cbc0
00000210: 3f37 b541 29ec b440 3419 55c1 3c3f b641
00000220: 1916 a3c1 9ec7 0442 060e 97c1 4769 9041
00000230: 1c02 b3c0 ba34 1fc0 6ca5 4841 0b36 1042
