candidate_networks/inet6_8.pt (torch, 41295 bytes, 14 tensors)

c1.weight f4 [16, 1, 3, 3]
0	0xc1bf5762	-23.917667
1	0xc244c53c	-49.19261
2	0xc1a0c653	-20.096838
3	0x41b51022	22.632877
4	0xc099a68c	-4.8015804
5	0xc08da1dc	-4.426008
6	0x418d9c45	17.701303
7	0x413ca316	11.789816
8	0xc1dee100	-27.859863
9	0xc019616a	-2.3965707
10	0x410c94e6	8.786352
11	0xbf67d834	-0.90564275
12	0x4155f35e	13.371916
13	0xc1a1dc6a	-20.232624
14	0xc11129ac	-9.072674
15	0x41844371	16.53293
16	0xc12d8486	-10.844854
17	0x4161c988	14.111702
18	0xc10ed90a	-8.927988
19	0x41c59a94	24.700478
20	0xc0faeb95	-7.8412576
21	0x41b4dc4c	22.607567
22	0xbe5c877e	-0.21536061
23	0x4201aade	32.416862
24	0xc19662cd	-18.798243
25	0x41d89279	27.07152
26	0x3e2bb02a	0.1676642
27	0xc0e80537	-7.2506366
28	0xc2515662	-52.33436
29	0xc0d782c7	-6.734714
30	0xc08ffb77	-4.4994464
31	0x419af9d1	19.37198
32	0xc1c40ac9	-24.505266
33	0x4154918c	13.285534
34	0xc1e91afd	-29.138178
35	0xc081cdf9	-4.056393
36	0xc0cc43aa	-6.38326
37	0xc10ada94	-8.678364
38	0xc1673aea	-14.451883
39	0xc0e3cb6b	-7.1185813
40	0xc1c7af1b	-24.9605
41	0xc1bb97e7	-23.449171
42	0xc195d658	-18.72966
43	0xc099f7a1	-4.811478
44	0xc111d764	-9.115086
45	0xc192e483	-18.361578
46	0x3d7f003a	0.062256075
47	0xbf89338a	-1.0718853
48	0xc19311d8	-18.383713
49	0xc1a99cd0	-21.201569
50	0xc067b589	-3.620455
51	0xc19578f5	-18.684061
52	0xc1ad6e6f	-21.678923
53	0xc14d5d44	-12.83527
54	0x407d7546	3.9602828
55	0xc04b4543	-3.1761024
56	0xc0bcf74a	-5.9051867
57	0x4074536f	3.8175924
58	0xbdfaa7d0	-0.12239039
59	0xc1d3ef15	-26.49174
60	0x407a0f94	3.9072008
61	0xc1ac3ecc	-21.530663
62	0x3e116b56	0.14201102
63	0x414950d4	12.582233
64	0xc0d3b602	-6.6159678
65	0x403a9a36	2.9156623
66	0xc12553b4	-10.332935
67	0x3f9afec2	1.2108996
68	0xc18740c3	-16.906622
69	0x41ac4f98	21.538864
70	0xc11e09b0	-9.877365
71	0x41c8824e	25.063625
72	0xc0984b06	-4.759158
73	0x413233aa	11.137613
74	0x41926a66	18.301952
75	0x419e43ab	19.783041
76	0x41fd921b	31.69634
77	0xc1d4d9e8	-26.6064
78	0x40848917	4.1417346
79	0x40a4dd62	5.1520243
80	0x41a68802	20.81641
81	0xc1297eed	-10.593488
82	0x40f5d09a	7.681714
83	0x4108c6bd	8.54852
84	0x4159cdfb	13.612788
85	0x4191ca60	18.223816
86	0xc0d359b0	-6.604698
87	0x42122727	36.538235
88	0x3ff54eee	1.9164712
89	0x4051cb11	3.2780192
90	0xc197dada	-18.981861
91	0x4191872b	18.191
92	0x3e9e1b46	0.30880183
93	0x41999edb	19.202566
94	0xc0593324	-3.3937464
95	0xbf9e99a7	-1.2390641
96	0x41250e99	10.316064
97	0x417c96f4	15.786854
98	0x41690626	14.564001
99	0x416e1f47	14.882636
100	0x410f613a	8.961237
101	0xc10c17c1	-8.755799
102	0x41be7eb0	23.81186
103	0x409f642c	4.980978
104	0xc10e1d5c	-8.882168
105	0xc1bbe505	-23.486826
106	0x41a77ea7	20.936842
107	0x4065f4ee	3.5930743
108	0xc099ddc2	-4.80832
109	0xc148d796	-12.552633
110	0x3f60c45a	0.8779961
111	0x41aebac1	21.841188
112	0x41719ac9	15.100289
113	0x41c6ac36	24.834087
114	0x41b41748	22.511368
115	0x40560a68	3.3443851
116	0xc17f0184	-15.93787
117	0x40a0716e	5.0138464
118	0x3e983526	0.2972805
119	0xc190ef74	-18.11692
120	0xc110d0df	-9.050994
121	0xc2252029	-41.281406
122	0xc1d72513	-26.893103
123	0xc13aef9e	-11.6835
124	0xc0cce0f6	-6.402461
125	0x40d814f0	6.752556
126	0xc1a6b136	-20.836529
127	0x4188f029	17.117266
128	0xc12a21a5	-10.633214
129	0x41f76365	30.923532
130	0xc151b37d	-13.10632
131	0x407bb46b	3.9328868
132	0xc1a8f970	-21.121796
133	0xbf3f7144	-0.74782205
134	0xbf12a697	-0.57285446
135	0xc0f1be20	-7.5544586
136	0xc1f9665e	-31.174984
137	0x40dccd55	6.900065
138	0xc082f2e2	-4.092149
139	0x41a516cb	20.63613
140	0x3f055734	0.52086186
141	0xc1647277	-14.2779455
142	0xc20787a3	-33.882458
143	0x40cda046	6.4258146

c1.bias f4 [16]
0	0x41514d04	13.081303
1	0x4259c719	54.44443
2	0xc0806443	-4.012239
3	0x41a6e638	20.862411
4	0xc122365b	-10.13827
5	0x4133c748	11.236153
6	0x4199dfab	19.234213
7	0xc1b020f2	-22.016087
8	0xc18d5894	-17.668251
9	0x40168ffc	2.352538
10	0xc1ee63e2	-29.79877
11	0xc1c68347	-24.8141
12	0xc034af4c	-2.8231993
13	0x3ee4904e	0.44641346
14	0xc178ac31	-15.542039
15	0xc11fa793	-9.978412

c2.weight f4 [32, 16, 3, 3]
0	0x4050789d	3.2573617
1	0xc15ed134	-13.926075
2	0xc1094ffc	-8.582027
3	0x406d3fe2	3.707024
4	0xc20d8ac1	-35.3855
5	0xc0ff8717	-7.9852405
6	0xc201a34a	-32.409462
7	0x40ec99d4	7.393778
8	0x4127814e	10.469069
9	0xc1114683	-9.079715
10	0xc0d3811d	-6.609511
11	0x424422ad	49.033863
12	0xc1a8a5ec	-21.081017
13	0x4129497c	10.5804405
14	0xc249fcc0	-50.496826
15	0xc137cedd	-11.488004
16	0xc1fc4081	-31.531496
17	0xc16744a3	-14.454257
18	0xc191b1b5	-18.211771
19	0xc18332c7	-16.399794
20	0xc199a0ae	-19.203457
21	0xc1388e76	-11.5347805
22	0x40c4f363	6.1547103
23	0xc0d6e130	-6.7149887
24	0xc21871aa	-38.111
25	0x3f468a80	0.77555084
26	0xc19b8bef	-19.443327
27	0xc07ed434	-3.9817019
28	0xc122e23c	-10.180233
29	0x416944db	14.57931
30	0xc164d940	-14.30304
31	0x411db26b	9.856059
32	0xc02cf680	-2.7025452
33	0xc0a13f11	-5.0389485
34	0x41e4d92d	28.606043
35	0x42216097	40.344326
36	0xc0892f4c	-4.2870235
37	0x40ed7492	7.42048
38	0x40f10e7e	7.533019
39	0xc09790c9	-4.736424
40	0xc10ced59	-8.807946
41	0x41b0b680	22.089111
42	0xc051175c	-3.2670507
43	0xc1e83551	-29.026033
44	0xc13add4a	-11.679026
45	0xc18c4799	-17.53496
46	0xbfcc15d8	-1.5944166
47	0xc0a31f9e	-5.0976095
48	0xc12028ac	-10.00993
49	0xc1b55749	-22.66762
50	0xc1ae122f	-21.758879
51	0x400fc06a	2.246119
52	0xc157367c	-13.450802
53	0x41985c1f	19.044981
54	0x41de903f	27.820433
55	0x4180b006	16.085949
56	0xc19d134e	-19.634426
57	0xc261d42d	-56.457203
58	0xc1b0a1a8	-22.078934
59	0xc18654fa	-16.791492
60	0xc0dc5fe7	-6.886707
61	0xc13c3551	-11.763017
62	0xc0d9a6f8	-6.801632
63	0x4160bcc5	14.046086
64	0x413fbb8a	11.983286
65	0xc19f578c	-19.917747
66	0xc02615bd	-2.5950768
67	0x415d715d	13.840177
68	0x3ce55260	0.027993381
69	0xc1a81845	-21.01185
70	0xc13cdb64	-11.803562
71	0xc0a3a809	-5.114262
72	0xc0502097	-3.2519891
73	0x3feaf07f	1.8354644
74	0x414307fb	12.189448
75	0x418fafe6	17.960888
76	0xbfebddb5	-1.8427035
77	0x40a87b15	5.2650247
78	0x41e13f26	28.155834
79	0xc13dcd85	-11.862676
80	0x41a4e0aa	20.6097
81	0x41c6333c	24.775017
82	0xc1580344	-13.500797
83	0xc14fce7c	-12.987911
84	0xc09e57d1	-4.94822
85	0x41a5f766	20.7458
86	0xc1243bad	-10.264569
87	0xc0bec595	-5.961619
88	0x417ece99	15.925439
89	0xc130ad3f	-11.042296
90	0x3f007ac2	0.50187314
91	0x41bdab56	23.70866
92	0xc01ea972	-2.4790921
93	0xc12c5c79	-10.772576
94	0xc0aed505	-5.4635034
95	0xc0eb4a87	-7.3528476
96	0xc10ce27d	-8.805295
97	0xc192c0f3	-18.344213
98	0xc16f284a	-14.947336
99	0xc0d1cbae	-6.5561132
100	0xc1804a61	-16.036318
101	0x42102db6	36.04464
102	0x40ac7b87	5.390079
103	0xc184fe9d	-16.624323
104	0x4095e492	4.6841516
105	0xc1b1134f	-22.134428
106	0xc109c792	-8.611223
107	0xc19475d6	-18.557537
108	0x411a2710	9.634537
109	0x41d76da4	26.928535
110	0x41bd0b6c	23.630577
111	0x40e1f99f	7.0617213
112	0xc199edf4	-19.241188
113	0x40bef8bf	5.9678645
114	0x4214d7bc	37.21068
115	0x40bcf3e9	5.904774
116	0x421211fd	36.517567
117	0xc10384e9	-8.219949
118	0xc17005ee	-15.001448
119	0x414cd027	12.800818
120	0xc14eb590	-12.919327
121	0xc104b3cd	-8.293897
122	0x411fc06f	9.984481
123	0x3f7b8cde	0.9826182
124	0xc1432269	-12.195901
125	0x410e23d9	8.883752
126	0x4152d02a	13.175821
127	0xc1cbd602	-25.479496
128	0x418f236d	17.892298
129	0xc1800bed	-16.005823
130	0x41d7fe63	26.999212
131	0xc11c0dea	-9.753397
132	0x40b6185b	5.690473
133	0x415dab7a	13.854364
134	0xc1926757	-18.300459
135	0xc1c21f4b	-24.26528
136	0xc01a92d4	-2.4152117
137	0x40cc4bc5	6.384249
138	0x408e1334	4.439844
139	0x41b41eff	22.515135
140	0x4105a83f	8.353576
141	0xbfa3fa79	-1.2810813
142	0xc1209145	-10.035466
143	0xc1fc25b7	-31.518415
144	0x41808348	16.064102
145	0x40abce42	5.368928
146	0x40f0486c	7.5088406
147	0xc081fbe1	-4.061997
148	0x408fdfd9	4.496075
149	0xc1c4cf1d	-24.60113
150	0xc1503cf9	-13.014886
151	0xc16ae015	-14.679708
152	0xc193c769	-18.472368
153	0xc141e2bb	-12.117854
154	0xbf0651b4	-0.5246842
155	0xbf996ff3	-1.1987289
156	0x41855278	16.665268
157	0x410c8e33	8.784717
158	0x41c43d32	24.52988
159	0x3e20dbe1	0.15708877
160	0x41f77932	30.934177
161	0x41da1e94	27.26493
162	0xc0e58b4a	-7.173253
163	0x40fca036	7.894557
164	0xc122aa7b	-10.166621
165	0x41c5969d	24.698542
166	0xc0afcaa7	-5.493488
167	0x411c8174	9.781605
168	0x41d53b44	26.653938
169	0xc163cf14	-14.238056
170	0x40843358	4.1312675
171	0xc10cfe9b	-8.81216
172	0xc1fdc7e0	-31.722595
173	0x4081ae1b	4.052503
174	0x41bef660	23.8703
175	0xbfa3283e	-1.2746656
176	0x416f036b	14.938334
177	0xc1a6184d	-20.761866
178	0xc14f17ae	-12.943281
179	0x40cb528e	6.3538275
180	0x40f67d79	7.7028165
181	0x41538174	13.219105
182	0x41964ae2	18.786564
183	0x4175c07a	15.359491
184	0x410cf8fe	8.810789
185	0x412437db	10.263637
186	0xc00b82d6	-2.1798606
187	0x40d4befc	6.6483135
188	0x41a4e6c9	20.612688
189	0x418b40b5	17.406595
190	0x423363fe	44.84765
191	0x4040e67c	3.0140676
192	0x419fe315	19.98588
193	0x41853b9c	16.654106
194	0xc10be423	-8.743197
195	0x3d131db0	0.035916984
196	0x4100d320	8.051544
197	0xbffc664b	-1.9718717
198	0xc1fdb6dd	-31.714289
199	0x420bf80a	34.992226
200	0x41b5de36	22.733501
201	0x418f4857	17.910322
202	0xc0adfe85	-5.4373193
203	0xc17dc855	-15.861409
204	0xc12df14a	-10.871408
205	0xc19375a5	-18.432444
206	0xc103b023	-8.230502
207	0x410e8328	8.907021
208	0x41916677	18.175032
209	0x41e22d90	28.272247
210	0xc19a5491	-19.291292
211	0x41535ab8	13.209648
212	0x41ba72db	23.306082
213	0x3f96333f	1.1734389
214	0xc23c60c5	-47.0945
215	0xc11378a9	-9.216958
216	0xc185f74b	-16.745749
217	0xc1763cbf	-15.389831
218	0x3e8223ec	0.2541803
219	0xc066a000	-3.6035156
220	0xbf478339	-0.77934605
221	0xc21bf71d	-38.99132
222	0x414a5d8c	12.647839
223	0x423d86f3	47.381786
224	0xc0ed2b4b	-7.411535
225	0xc1b1c506	-22.221203
226	0xc1137062	-9.214937
227	0x41a76e14	20.92875
228	0x3ebe9ea3	0.37230405
229	0x407c0d91	3.938328
230	0x4225228c	41.283737
231	0xc0cf8628	-6.4851265
232	0xc00501db	-2.0782382
233	0xc21885fe	-38.13085
234	0xc1819c24	-16.20124
235	0xc0fa254f	-7.8170543
236	0xc139bf1c	-11.609158
237	0x418c073a	17.503529
238	0x417ebf54	15.921711
239	0xc1b99e2c	-23.202232
240	0xc02cbb0a	-2.698916
241	0xc080946c	-4.018118
242	0xc10eedc4	-8.933048
243	0x420c6aae	35.10418
244	0xc12728d1	-10.447465
245	0x3fc9c3a1	1.5762826
246	0xc0f964fa	-7.7935762
247	0xc1dd8843	-27.691534
248	0x42003824	32.054825
249	0xc13ae7a7	-11.681556
250	0xc14bc084	-12.734501
251	0xc101c258	-8.109947
252	0xc08a7452	-4.3266993
253	0xc1bcb2fa	-23.58739
254	0xc07e7e38	-3.9764538
255	0xc117c35d	-9.485196

c2.bias f4 [32]
0	0x40953498	4.66267
1	0x4084c057	4.148479
2	0x3f0f23fc	0.5591428
3	0xc086d2eb	-4.213247
4	0xc12aea6e	-10.682234
5	0x40805ed3	4.011575
6	0x412927a5	10.572179
7	0xc0c9e38a	-6.309026
8	0xc1205696	-10.021139
9	0x4000bf28	2.0116673
10	0xc1821532	-16.26035
11	0xc1a42464	-20.517769
12	0x40d6abb8	6.7084618
13	0xc1f4afcf	-30.585844
14	0xc227d57f	-41.958492
15	0xc0230cfc	-2.5476675
16	0xc21d2ec8	-39.295685
17	0x3fde096b	1.7346624
18	0x41f143b6	30.158062
19	0x41ad4f14	21.663612
20	0x41c7f202	24.993168
21	0x41adccb3	21.72495
22	0xc208b575	-34.177204
23	0xc0f7c74a	-7.7430773
24	0xc028c686	-2.637117
25	0x3f9ce8fd	1.2258602
26	0xc0c7f978	-6.2492027
27	0x4116c9e5	9.424291
28	0x403d7329	2.9601538
29	0x41bd2ca1	23.646791
30	0x41b868d2	23.051182
31	0xc0bece20	-5.9626617

d1.weight f4 [16, 32, 3, 3]
0	0xc18842fc	-17.032707
1	0x41001474	8.004993
2	0x41f9833a	31.189075
3	0xc03364c3	-2.803025
4	0x41944257	18.532393
5	0xc15ff8d8	-13.998253
6	0xc114f767	-9.310401
7	0x41256b0b	10.338634
8	0x411ebef1	9.921617
9	0xc1ac135e	-21.509457
10	0xbfbb4ba7	-1.4632462
11	0xc1581905	-13.506108
12	0xc13ceaf0	-11.807358
13	0xc1c93bbe	-25.154171
14	0x42046cca	33.10624
15	0x41f81c87	31.01393
16	0x4210220f	36.03326
17	0x414faf63	12.980319
18	0x40ee7116	7.4513044
19	0x41f21f71	30.265352
20	0x418bb264	17.462105
21	0x40e6f121	7.2169347
22	0xc206fe2d	-33.74822
23	0x41169c2b	9.413127
24	0xc1d28d2f	-26.318937
25	0x4124f731	10.310349
26	0xc12fb10c	-10.980724
27	0x4166556b	14.395854
28	0x41aede07	21.858412
29	0x409d98e3	4.924913
30	0x40f59c8e	7.6753607
31	0xbf980d3b	-1.1879038
32	0xc0ffc0a5	-7.992266
33	0x4122dc61	10.178803
34	0x400ad5e7	2.1693056
35	0xc172c1d5	-15.172322
36	0xc01eb22c	-2.4796247
37	0x40b3847c	5.6099224
38	0x3fdb5664	1.7135739
39	0x408fd148	4.494297
40	0x4205a8df	33.414913
41	0xc14b499c	-12.705471
42	0xc15b39f3	-13.701648
43	0xc0ccb3f6	-6.396968
44	0x41865e9a	16.796192
45	0x3ee4473a	0.44585592
46	0xc20ad005	-34.703144
47	0x41ca2aef	25.270964
48	0x418b8500	17.439941
49	0xbe19aab7	-0.15006529
50	0xbedc4552	-0.43021637
51	0x419a0574	19.252663
52	0x41c25523	24.29157
53	0xc155bf15	-13.359151
54	0x41580694	13.501606
55	0xbf141d54	-0.5785725
56	0xc0d1c053	-6.554727
57	0x40964314	4.6956882
58	0xc1e8cfc5	-29.10145
59	0xc08c66d1	-4.387551
60	0xc1852b40	-16.646118
61	0xc1966291	-18.798128
62	0x411d7051	9.839921
63	0xc1904b96	-18.036907
64	0x4056f014	3.3584032
65	0x4161c131	14.109666
66	0xc1ac77f9	-21.55858
67	0xc1c8b026	-25.08601
68	0x41822b47	16.271132
69	0x4143d5a0	12.239655
70	0xc1ab9926	-21.44978
71	0x3f0b28d3	0.5435917
72	0x405fbf36	3.4960456
73	0xc18581d5	-16.688395
74	0x3fc9e1fd	1.5772091
75	0xc0d9e9b4	-6.809778
76	0xc1e2fe58	-28.374191
77	0x41cce3cb	25.611227
78	0xc11eff29	-9.937295
79	0x41937c41	18.43567
80	0xc1f5e766	-30.737988
81	0xc0b066b2	-5.512536
82	0xc0661bdc	-3.5954504
83	0xc136c576	-11.423208
84	0x4196fb70	18.872772
85	0x3f8df09e	1.1089056
86	0xc059576a	-3.3959603
87	0xbfddae53	-1.7318825
88	0xc1a4becb	-20.59316
89	0x3ddc153a	0.10746236
90	0xc08df282	-4.435853
91	0x41c4c7c4	24.597542
92	0x40c79c98	6.2378654
93	0x41faf023	31.367254
94	0xc17d5e48	-15.835518
95	0xc160d2e2	-14.051485
96	0xc139d6c4	-11.614933
97	0xc14c5f86	-12.773321
98	0xc1ceecf7	-25.865705
99	0xc0a609e8	-5.1887093
100	0x41c77ff5	24.937479
101	0x40a1a301	5.051148
102	0x40901e69	4.503712
103	0x4202c947	32.69656
104	0xc0512690	-3.2679787
105	0x41b2adfe	22.334957
106	0xc00c108e	-2.1885104
107	0xc17bd630	-15.739792
108	0xc2387902	-46.11817
109	0x4137220a	11.44581
110	0x41ace433	21.611425
111	0x40ad0bda	5.4076967
112	0xbe141d70	-0.14464355
113	0x41b11802	22.136723
114	0xc199a435	-19.20518
115	0x419a201d	19.26568
116	0x41383f65	11.515477
117	0x4150195b	13.00619
118	0x408acef6	4.337764
119	0xc0ffd7bb	-7.9950843
120	0x419d39a5	19.653147
121	0x41320cd6	11.128134
122	0xc1bd0947	-23.62953
123	0x4199aeb4	19.210304
124	0xc15b170c	-13.693127
125	0x41b8b784	23.089607
126	0xc088353c	-4.2564983
127	0xc213b3ca	-36.925575
128	0xc1c0a4ec	-24.080528
129	0x41f48a04	30.56739
130	0x415948f1	13.580308
131	0x419208fc	18.254387
132	0x4180a74a	16.081684
133	0xc18a3bdd	-17.27923
134	0x41554ebe	13.331724
135	0xc09a2790	-4.8173294
136	0xc192067f	-18.253172
137	0xc191acf4	-18.20945
138	0x40eb05e5	7.3444695
139	0x3fa95324	1.3228498
140	0xc02a96fd	-2.6654656
141	0xc220901a	-40.140724
142	0x3f56be67	0.8388428
143	0xc1ef7c1b	-29.935598
144	0x3fca4d40	1.5804825
145	0xc1384545	-11.5169115
146	0xc0938a93	-4.610666
147	0x405d0027	3.4531343
148	0xc1123b03	-9.139407
149	0xc1792e9a	-15.573877
150	0xc1ecea45	-29.61439
151	0xbf1cccb0	-0.6124983
152	0x41cfebc0	25.990112
153	0x41b9e9dd	23.239191
154	0x4195677d	18.675531
155	0x41d9dc09	27.232439
156	0x40028eaa	2.0399575
157	0x41f96344	31.17347
158	0x4192eb0f	18.364775
159	0x41c3e944	24.4889
160	0x403f3e52	2.9881787
161	0xc04a83e3	-3.1642997
162	0xc17cb44f	-15.794021
163	0x411b0a65	9.690038
164	0x4112511b	9.144801
165	0x41102975	9.010121
166	0x40664d2d	3.5984604
167	0x419f41c8	19.90712
168	0x40f2a921	7.5831456
169	0xc06c8ae1	-3.6959765
170	0xc0deb4aa	-6.9595537
171	0xc14c3c89	-12.764779
172	0x411deb47	9.869941
173	0xc12479ee	-10.279768
174	0x41845428	16.541092
175	0xc0a3877b	-5.110288
176	0x419854a8	19.041336
177	0x414c41b9	12.766046
178	0x416d7a98	14.84243
179	0xc0650017	-3.5781305
180	0xc1d646d8	-26.784592
181	0x414d97e3	12.849582
182	0x3fbfc5da	1.4982255
183	0x3fb680eb	1.4258093
184	0x40ea652c	7.32485
185	0xc1bc8ea2	-23.569645
186	0x4037a913	2.8696945
187	0xc163da50	-14.240799
188	0x41865e77	16.796125
189	0xc1297032	-10.589891
190	0x4115367a	9.3258
191	0xc13aa011	-11.664079
192	0xc1fd3d14	-31.654823
193	0xc219374a	-38.303993
194	0xc12bd434	-10.739307
195	0x41b4dd06	22.607922
196	0xbff2caa0	-1.8968086
197	0x41dbede0	27.49115
198	0x41befb82	23.872807
199	0x4096a9ce	4.708228
200	0xbf956f74	-1.1674638
201	0xc108cba8	-8.549721
202	0x40bb913b	5.8614783
203	0xc2197f49	-38.374302
204	0xc192af52	-18.335606
205	0xc1f3dda3	-30.483221
206	0xc0cb1b00	-6.347046
207	0x417d4f17	15.831809
208	0xc028dda3	-2.6385276
209	0xc1808be8	-16.068314
210	0xc1190b68	-9.565285
211	0x418e7de2	17.811466
212	0xc1acb008	-21.585953
213	0x41583dc9	13.515084
214	0x3f00adec	0.50265384
215	0x41a041c2	20.032108
216	0xbf39deaa	-0.72605383
217	0x41b459e8	22.5439
218	0x40f6d63f	7.713653
219	0x4087fdaa	4.249715
220	0x4190d6b9	18.104845
221	0xbfd675dc	-1.6754718
222	0xc1636543	-14.212222
223	0x3fae78c9	1.3630611
224	0xc12548f9	-10.330316
225	0xc1f9fafe	-31.247555
226	0xc04eeed8	-3.2333279
227	0x3f31cd6e	0.69454086
228	0xc2250693	-41.25642
229	0xc03a29de	-2.9088054
230	0x419ce9f8	19.614243
231	0xc14e5e84	-12.898075
232	0xc1a1b23f	-20.212034
233	0x41361596	11.38027
234	0xc1164900	-9.392822
235	0x4166714d	14.402661
236	0x4169885a	14.595789
237	0x3ed5e168	0.41773534
238	0x412d6374	10.836781
239	0x41377627	11.466346
240	0xc16108d0	-14.0646515
241	0x40c9db27	6.308002
242	0xc1837755	-16.433268
243	0x40f32a09	7.5988812
244	0x4181c006	16.218761
245	0x4139ebf6	11.620108
246	0xc1c16bbf	-24.17761
247	0x3ece8890	0.40338564
248	0x40013454	2.0188189
249	0xc1c96af1	-25.177217
250	0x41a449fc	20.536125
251	0xc1729339	-15.160943
252	0x4101f90c	8.123302
253	0x40c7f5db	6.2487617
254	0x4136c1f5	11.422353
255	0xc10b325f	-8.699798

d1.bias f4 [16]
0	0x401fc036	2.4961066
1	0x3ebe5960	0.37177563
2	0xbf800625	-1.0001875
3	0xc08198e4	-4.0499134
4	0xc1fcddd3	-31.608313
5	0x3ffbb7dd	1.9665486
6	0x3e8aac81	0.27084735
7	0xc1c69589	-24.823015
8	0x417dcebb	15.862971
9	0xc1f3b078	-30.461166
10	0xc13e3cc9	-11.88984
11	0xc13097bd	-11.0370455
12	0xc1a429fe	-20.520504
13	0x3f217c2e	0.6308011
14	0x3f0564b4	0.52106786
15	0xc17be6e0	-15.743866

d2.weight f4 [1, 16, 3, 3]
0	0xc14da3ff	-12.852538
1	0xc1b8c131	-23.094332
2	0x418c6548	17.549454
3	0x40bc0825	5.875994
4	0xc132a5a6	-11.1654415
5	0xc0c361b0	-6.1056747
6	0xc13b7405	-11.715825
7	0xc1a20ca2	-20.256168
8	0x3f9f0c78	1.242568
9	0xc1277bf1	-10.467759
10	0x41e9692f	29.17636
11	0xc09e61d7	-4.9494433
12	0x41ce88b1	25.816744
13	0xc0b82415	-5.7544045
14	0x412177f6	10.091787
15	0x40bd6e53	5.9197173
16	0x3f98127b	1.188064
17	0xc209fea2	-34.498665
18	0x404db869	3.2143805
19	0x3f2a444e	0.66510475
20	0xc181b4dd	-16.213312
21	0x4119f72e	9.622847
22	0xc15b320b	-13.6997175
23	0x41b25bca	22.294819
24	0xc19e8fcc	-19.820213
25	0xc1890c09	-17.130877
26	0xc0e5db12	-7.182992
27	0xc1a3b00c	-20.46096
28	0xc124988c	-10.287243
29	0xc1b3de70	-22.483612
30	0x3f258d7e	0.64669025
31	0xc1ca3974	-25.278053
32	0xc1bc37f6	-23.527325
33	0xbdb10ddb	-0.08645221
34	0x41698ce9	14.596902
35	0xc1d9fd7e	-27.248775
36	0x4034f1c5	2.8272564
37	0xc210baeb	-36.182537
38	0xbfbee514	-1.4913659
39	0xc1f3d726	-30.480053
40	0xc09c511f	-4.8849025
41	0xc1a7828c	-20.938744
42	0xc11a4f17	-9.644309
43	0xc22260a4	-40.594376
44	0x41a3f7b6	20.495953
45	0x40010130	2.0156975
46	0xc029e7f6	-2.6547828
47	0x40d963d2	6.793435
48	0xc182228f	-16.266874
49	0x40a580ae	5.171958
50	0xc15c3cf1	-13.764878
51	0xbe8f50e0	-0.2799139
52	0x4092a0b0	4.582115
53	0xc1c784b0	-24.939789
54	0xc0a49845	-5.1435876
55	0xc0e029cd	-7.0051026
56	0xc144190a	-12.256113
57	0xc16d43c2	-14.829042
58	0x41859e7e	16.702389
59	0xc088a9c0	-4.2707214
60	0x41a73fbd	20.906122
61	0x4107e42a	8.493204
62	0xc19a6bd3	-19.302649
63	0xc060149d	-3.5012581
64	0x41820817	16.25395
65	0xc163aa5d	-14.229093
66	0x40f34ba0	7.6029816
67	0xc1e2f718	-28.370651
68	0x4074e349	3.8263724
69	0x3ea3e3cc	0.32009733
70	0x40dbf58e	6.873725
71	0xc14eef27	-12.933387
72	0xc09f8e4b	-4.9861197
73	0xc1de1b75	-27.763407
74	0x4077fd47	3.8748338
75	0xc09d2d0e	-4.91175
76	0xc167db34	-14.491016
77	0xc15693df	-13.411101
78	0x41608ad2	14.033892
79	0xc16a5971	-14.646836
80	0x41a0f8ba	20.121449
81	0xc1b6d343	-22.853155
82	0xc119b1be	-9.605894
83	0x417d3b7b	15.827022
84	0xc1a86649	-21.049944
85	0xc1e71bab	-28.88851
86	0xc143aa23	-12.229037
87	0xbf0f51f8	-0.5598445
88	0xc18114e0	-16.135193
89	0xc1a4cb86	-20.599377
90	0xbf8deea5	-1.1088454
91	0xc0fcde5b	-7.902143
92	0x420f0044	35.75026
93	0x40feb353	7.95939
94	0x41803ed2	16.030674
95	0xc0e14b0e	-7.040412
96	0x41233028	10.199257
97	0xc197994f	-18.949858
98	0x3eff5b09	0.49874142
99	0xbffdbd9d	-1.982349
100	0x4020fb1d	2.5153267
101	0xc0699c12	-3.6501508
102	0xc081867e	-4.0476675
103	0xc0d75970	-6.7296677
104	0xc0970a64	-4.7200184
105	0xc1316bda	-11.088831
106	0x40fbfd1f	7.8746486
107	0xc1ca1551	-25.260408
108	0xbec87ff1	-0.39160112
109	0xc0c2f14e	-6.091956
110	0xc153099f	-13.189849
111	0xc12ebdb9	-10.921319
112	0xc1e9ae43	-29.210089
113	0x40fe71ef	7.951408
114	0xc1f46243	-30.54798
115	0xc03b35a3	-2.9251487
116	0xc186685d	-16.800959
117	0x40fb42dc	7.8519115
118	0xc0b0d10d	-5.525519
119	0x41ac4559	21.533861
120	0xc1e2ed5e	-28.365902
121	0x40cf8ff2	6.4863214
122	0xc23402e7	-45.002834
123	0x41bf78cb	23.93398
124	0xc19ddcf8	-19.732895
125	0x4182622a	16.297932
126	0x412b432d	10.7039
127	0xc03b0d97	-2.9227045
128	0xc0e33f8a	-7.101506
129	0x41438c5e	12.221769
130	0xc16e4f40	-14.894348
131	0xc0c3b493	-6.1157928
132	0x41b3c91f	22.473204
133	0x40bfa677	5.9890704
134	0xc15cbd35	-13.796193
135	0x41b53ff5	22.656229
136	0xc1a6ba5d	-20.840998
137	0x420233d6	32.55062
138	0xc193fc54	-18.498207
139	0x4195dfde	18.73431
140	0xc0c7a880	-6.239319
141	0xc0138923	-2.3052452
142	0x41462875	12.384877
143	0x420e5bcf	35.589657

encoder.0.weight f4 [16, 1, 3, 3]
0	0xc1bf5762	-23.917667
1	0xc244c53c	-49.19261
2	0xc1a0c653	-20.096838
3	0x41b51022	22.632877
4	0xc099a68c	-4.8015804
5	0xc08da1dc	-4.426008
6	0x418d9c45	17.701303
7	0x413ca316	11.789816
8	0xc1dee100	-27.859863
9	0xc019616a	-2.3965707
10	0x410c94e6	8.786352
11	0xbf67d834	-0.90564275
12	0x4155f35e	13.371916
13	0xc1a1dc6a	-20.232624
14	0xc11129ac	-9.072674
15	0x41844371	16.53293
16	0xc12d8486	-10.844854
17	0x4161c988	14.111702
18	0xc10ed90a	-8.927988
19	0x41c59a94	24.700478
20	0xc0faeb95	-7.8412576
21	0x41b4dc4c	22.607567
22	0xbe5c877e	-0.21536061
23	0x4201aade	32.416862
24	0xc19662cd	-18.798243
25	0x41d89279	27.07152
26	0x3e2bb02a	0.1676642
27	0xc0e80537	-7.2506366
28	0xc2515662	-52.33436
29	0xc0d782c7	-6.734714
30	0xc08ffb77	-4.4994464
31	0x419af9d1	19.37198
32	0xc1c40ac9	-24.505266
33	0x4154918c	13.285534
34	0xc1e91afd	-29.138178
35	0xc081cdf9	-4.056393
36	0xc0cc43aa	-6.38326
37	0xc10ada94	-8.678364
38	0xc1673aea	-14.451883
39	0xc0e3cb6b	-7.1185813
40	0xc1c7af1b	-24.9605
41	0xc1bb97e7	-23.449171
42	0xc195d658	-18.72966
43	0xc099f7a1	-4.811478
44	0xc111d764	-9.115086
45	0xc192e483	-18.361578
46	0x3d7f003a	0.062256075
47	0xbf89338a	-1.0718853
48	0xc19311d8	-18.383713
49	0xc1a99cd0	-21.201569
50	0xc067b589	-3.620455
51	0xc19578f5	-18.684061
52	0xc1ad6e6f	-21.678923
53	0xc14d5d44	-12.83527
54	0x407d7546	3.9602828
55	0xc04b4543	-3.1761024
56	0xc0bcf74a	-5.9051867
57	0x4074536f	3.8175924
58	0xbdfaa7d0	-0.12239039
59	0xc1d3ef15	-26.49174
60	0x407a0f94	3.9072008
61	0xc1ac3ecc	-21.530663
62	0x3e116b56	0.14201102
63	0x414950d4	12.582233
64	0xc0d3b602	-6.6159678
65	0x403a9a36	2.9156623
66	0xc12553b4	-10.332935
67	0x3f9afec2	1.2108996
68	0xc18740c3	-16.906622
69	0x41ac4f98	21.538864
70	0xc11e09b0	-9.877365
71	0x41c8824e	25.063625
72	0xc0984b06	-4.759158
73	0x413233aa	11.137613
74	0x41926a66	18.301952
75	0x419e43ab	19.783041
76	0x41fd921b	31.69634
77	0xc1d4d9e8	-26.6064
78	0x40848917	4.1417346
79	0x40a4dd62	5.1520243
80	0x41a68802	20.81641
81	0xc1297eed	-10.593488
82	0x40f5d09a	7.681714
83	0x4108c6bd	8.54852
84	0x4159cdfb	13.612788
85	0x4191ca60	18.223816
86	0xc0d359b0	-6.604698
87	0x42122727	36.538235
88	0x3ff54eee	1.9164712
89	0x4051cb11	3.2780192
90	0xc197dada	-18.981861
91	0x4191872b	18.191
92	0x3e9e1b46	0.30880183
93	0x41999edb	19.202566
94	0xc0593324	-3.3937464
95	0xbf9e99a7	-1.2390641
96	0x41250e99	10.316064
97	0x417c96f4	15.786854
98	0x41690626	14.564001
99	0x416e1f47	14.882636
100	0x410f613a	8.961237
101	0xc10c17c1	-8.755799
102	0x41be7eb0	23.81186
103	0x409f642c	4.980978
104	0xc10e1d5c	-8.882168
105	0xc1bbe505	-23.486826
106	0x41a77ea7	20.936842
107	0x4065f4ee	3.5930743
108	0xc099ddc2	-4.80832
109	0xc148d796	-12.552633
110	0x3f60c45a	0.8779961
111	0x41aebac1	21.841188
112	0x41719ac9	15.100289
113	0x41c6ac36	24.834087
114	0x41b41748	22.511368
115	0x40560a68	3.3443851
116	0xc17f0184	-15.93787
117	0x40a0716e	5.0138464
118	0x3e983526	0.2972805
119	0xc190ef74	-18.11692
120	0xc110d0df	-9.050994
121	0xc2252029	-41.281406
122	0xc1d72513	-26.893103
123	0xc13aef9e	-11.6835
124	0xc0cce0f6	-6.402461
125	0x40d814f0	6.752556
126	0xc1a6b136	-20.836529
127	0x4188f029	17.117266
128	0xc12a21a5	-10.633214
129	0x41f76365	30.923532
130	0xc151b37d	-13.10632
131	0x407bb46b	3.9328868
132	0xc1a8f970	-21.121796
133	0xbf3f7144	-0.74782205
134	0xbf12a697	-0.57285446
135	0xc0f1be20	-7.5544586
136	0xc1f9665e	-31.174984
137	0x40dccd55	6.900065
138	0xc082f2e2	-4.092149
139	0x41a516cb	20.63613
140	0x3f055734	0.52086186
141	0xc1647277	-14.2779455
142	0xc20787a3	-33.882458
143	0x40cda046	6.4258146

encoder.0.bias f4 [16]
0	0x41514d04	13.081303
1	0x4259c719	54.44443
2	0xc0806443	-4.012239
3	0x41a6e638	20.862411
4	0xc122365b	-10.13827
5	0x4133c748	11.236153
6	0x4199dfab	19.234213
7	0xc1b020f2	-22.016087
8	0xc18d5894	-17.668251
9	0x40168ffc	2.352538
10	0xc1ee63e2	-29.79877
11	0xc1c68347	-24.8141
12	0xc034af4c	-2.8231993
13	0x3ee4904e	0.44641346
14	0xc178ac31	-15.542039
15	0xc11fa793	-9.978412

encoder.2.weight f4 [32, 16, 3, 3]
0	0x4050789d	3.2573617
1	0xc15ed134	-13.926075
2	0xc1094ffc	-8.582027
3	0x406d3fe2	3.707024
4	0xc20d8ac1	-35.3855
5	0xc0ff8717	-7.9852405
6	0xc201a34a	-32.409462
7	0x40ec99d4	7.393778
8	0x4127814e	10.469069
9	0xc1114683	-9.079715
10	0xc0d3811d	-6.609511
11	0x424422ad	49.033863
12	0xc1a8a5ec	-21.081017
13	0x4129497c	10.5804405
14	0xc249fcc0	-50.496826
15	0xc137cedd	-11.488004
16	0xc1fc4081	-31.531496
17	0xc16744a3	-14.454257
18	0xc191b1b5	-18.211771
19	0xc18332c7	-16.399794
20	0xc199a0ae	-19.203457
21	0xc1388e76	-11.5347805
22	0x40c4f363	6.1547103
23	0xc0d6e130	-6.7149887
24	0xc21871aa	-38.111
25	0x3f468a80	0.77555084
26	0xc19b8bef	-19.443327
27	0xc07ed434	-3.9817019
28	0xc122e23c	-10.180233
29	0x416944db	14.57931
30	0xc164d940	-14.30304
31	0x411db26b	9.856059
32	0xc02cf680	-2.7025452
33	0xc0a13f11	-5.0389485
34	0x41e4d92d	28.606043
35	0x42216097	40.344326
36	0xc0892f4c	-4.2870235
37	0x40ed7492	7.42048
38	0x40f10e7e	7.533019
39	0xc09790c9	-4.736424
40	0xc10ced59	-8.807946
41	0x41b0b680	22.089111
42	0xc051175c	-3.2670507
43	0xc1e83551	-29.026033
44	0xc13add4a	-11.679026
45	0xc18c4799	-17.53496
46	0xbfcc15d8	-1.5944166
47	0xc0a31f9e	-5.0976095
48	0xc12028ac	-10.00993
49	0xc1b55749	-22.66762
50	0xc1ae122f	-21.758879
51	0x400fc06a	2.246119
52	0xc157367c	-13.450802
53	0x41985c1f	19.044981
54	0x41de903f	27.820433
55	0x4180b006	16.085949
56	0xc19d134e	-19.634426
57	0xc261d42d	-56.457203
58	0xc1b0a1a8	-22.078934
59	0xc18654fa	-16.791492
60	0xc0dc5fe7	-6.886707
61	0xc13c3551	-11.763017
62	0xc0d9a6f8	-6.801632
63	0x4160bcc5	14.046086
64	0x413fbb8a	11.983286
65	0xc19f578c	-19.917747
66	0xc02615bd	-2.5950768
67	0x415d715d	13.840177
68	0x3ce55260	0.027993381
69	0xc1a81845	-21.01185
70	0xc13cdb64	-11.803562
71	0xc0a3a809	-5.114262
72	0xc0502097	-3.2519891
73	0x3feaf07f	1.8354644
74	0x414307fb	12.189448
75	0x418fafe6	17.960888
76	0xbfebddb5	-1.8427035
77	0x40a87b15	5.2650247
78	0x41e13f26	28.155834
79	0xc13dcd85	-11.862676
80	0x41a4e0aa	20.6097
81	0x41c6333c	24.775017
82	0xc1580344	-13.500797
83	0xc14fce7c	-12.987911
84	0xc09e57d1	-4.94822
85	0x41a5f766	20.7458
86	0xc1243bad	-10.264569
87	0xc0bec595	-5.961619
88	0x417ece99	15.925439
89	0xc130ad3f	-11.042296
90	0x3f007ac2	0.50187314
91	0x41bdab56	23.70866
92	0xc01ea972	-2.4790921
93	0xc12c5c79	-10.772576
94	0xc0aed505	-5.4635034
95	0xc0eb4a87	-7.3528476
96	0xc10ce27d	-8.805295
97	0xc192c0f3	-18.344213
98	0xc16f284a	-14.947336
99	0xc0d1cbae	-6.5561132
100	0xc1804a61	-16.036318
101	0x42102db6	36.04464
102	0x40ac7b87	5.390079
103	0xc184fe9d	-16.624323
104	0x4095e492	4.6841516
105	0xc1b1134f	-22.134428
106	0xc109c792	-8.611223
107	0xc19475d6	-18.557537
108	0x411a2710	9.634537
109	0x41d76da4	26.928535
110	0x41bd0b6c	23.630577
111	0x40e1f99f	7.0617213
112	0xc199edf4	-19.241188
113	0x40bef8bf	5.9678645
114	0x4214d7bc	37.21068
115	0x40bcf3e9	5.904774
116	0x421211fd	36.517567
117	0xc10384e9	-8.219949
118	0xc17005ee	-15.001448
119	0x414cd027	12.800818
120	0xc14eb590	-12.919327
121	0xc104b3cd	-8.293897
122	0x411fc06f	9.984481
123	0x3f7b8cde	0.9826182
124	0xc1432269	-12.195901
125	0x410e23d9	8.883752
126	0x4152d02a	13.175821
127	0xc1cbd602	-25.479496
128	0x418f236d	17.892298
129	0xc1800bed	-16.005823
130	0x41d7fe63	26.999212
131	0xc11c0dea	-9.753397
132	0x40b6185b	5.690473
133	0x415dab7a	13.854364
134	0xc1926757	-18.300459
135	0xc1c21f4b	-24.26528
136	0xc01a92d4	-2.4152117
137	0x40cc4bc5	6.384249
138	0x408e1334	4.439844
139	0x41b41eff	22.515135
140	0x4105a83f	8.353576
141	0xbfa3fa79	-1.2810813
142	0xc1209145	-10.035466
143	0xc1fc25b7	-31.518415
144	0x41808348	16.064102
145	0x40abce42	5.368928
146	0x40f0486c	7.5088406
147	0xc081fbe1	-4.061997
148	0x408fdfd9	4.496075
149	0xc1c4cf1d	-24.60113
150	0xc1503cf9	-13.014886
151	0xc16ae015	-14.679708
152	0xc193c769	-18.472368
153	0xc141e2bb	-12.117854
154	0xbf0651b4	-0.5246842
155	0xbf996ff3	-1.1987289
156	0x41855278	16.665268
157	0x410c8e33	8.784717
158	0x41c43d32	24.52988
159	0x3e20dbe1	0.15708877
160	0x41f77932	30.934177
161	0x41da1e94	27.26493
162	0xc0e58b4a	-7.173253
163	0x40fca036	7.894557
164	0xc122aa7b	-10.166621
165	0x41c5969d	24.698542
166	0xc0afcaa7	-5.493488
167	0x411c8174	9.781605
168	0x41d53b44	26.653938
169	0xc163cf14	-14.238056
170	0x40843358	4.1312675
171	0xc10cfe9b	-8.81216
172	0xc1fdc7e0	-31.722595
173	0x4081ae1b	4.052503
174	0x41bef660	23.8703
175	0xbfa3283e	-1.2746656
176	0x416f036b	14.938334
177	0xc1a6184d	-20.761866
178	0xc14f17ae	-12.943281
179	0x40cb528e	6.3538275
180	0x40f67d79	7.7028165
181	0x41538174	13.219105
182	0x41964ae2	18.786564
183	0x4175c07a	15.359491
184	0x410cf8fe	8.810789
185	0x412437db	10.263637
186	0xc00b82d6	-2.1798606
187	0x40d4befc	6.6483135
188	0x41a4e6c9	20.612688
189	0x418b40b5	17.406595
190	0x423363fe	44.84765
191	0x4040e67c	3.0140676
192	0x419fe315	19.98588
193	0x41853b9c	16.654106
194	0xc10be423	-8.743197
195	0x3d131db0	0.035916984
196	0x4100d320	8.051544
197	0xbffc664b	-1.9718717
198	0xc1fdb6dd	-31.714289
199	0x420bf80a	34.992226
200	0x41b5de36	22.733501
201	0x418f4857	17.910322
202	0xc0adfe85	-5.4373193
203	0xc17dc855	-15.861409
204	0xc12df14a	-10.871408
205	0xc19375a5	-18.432444
206	0xc103b023	-8.230502
207	0x410e8328	8.907021
208	0x41916677	18.175032
209	0x41e22d90	28.272247
210	0xc19a5491	-19.291292
211	0x41535ab8	13.209648
212	0x41ba72db	23.306082
213	0x3f96333f	1.1734389
214	0xc23c60c5	-47.0945
215	0xc11378a9	-9.216958
216	0xc185f74b	-16.745749
217	0xc1763cbf	-15.389831
218	0x3e8223ec	0.2541803
219	0xc066a000	-3.6035156
220	0xbf478339	-0.77934605
221	0xc21bf71d	-38.99132
222	0x414a5d8c	12.647839
223	0x423d86f3	47.381786
224	0xc0ed2b4b	-7.411535
225	0xc1b1c506	-22.221203
226	0xc1137062	-9.214937
227	0x41a76e14	20.92875
228	0x3ebe9ea3	0.37230405
229	0x407c0d91	3.938328
230	0x4225228c	41.283737
231	0xc0cf8628	-6.4851265
232	0xc00501db	-2.0782382
233	0xc21885fe	-38.13085
234	0xc1819c24	-16.20124
235	0xc0fa254f	-7.8170543
236	0xc139bf1c	-11.609158
237	0x418c073a	17.503529
238	0x417ebf54	15.921711
239	0xc1b99e2c	-23.202232
240	0xc02cbb0a	-2.698916
241	0xc080946c	-4.018118
242	0xc10eedc4	-8.933048
243	0x420c6aae	35.10418
244	0xc12728d1	-10.447465
245	0x3fc9c3a1	1.5762826
246	0xc0f964fa	-7.7935762
247	0xc1dd8843	-27.691534
248	0x42003824	32.054825
249	0xc13ae7a7	-11.681556
250	0xc14bc084	-12.734501
251	0xc101c258	-8.109947
252	0xc08a7452	-4.3266993
253	0xc1bcb2fa	-23.58739
254	0xc07e7e38	-3.9764538
255	0xc117c35d	-9.485196

encoder.2.bias f4 [32]
0	0x40953498	4.66267
1	0x4084c057	4.148479
2	0x3f0f23fc	0.5591428
3	0xc086d2eb	-4.213247
4	0xc12aea6e	-10.682234
5	0x40805ed3	4.011575
6	0x412927a5	10.572179
7	0xc0c9e38a	-6.309026
8	0xc1205696	-10.021139
9	0x4000bf28	2.0116673
10	0xc1821532	-16.26035
11	0xc1a42464	-20.517769
12	0x40d6abb8	6.7084618
13	0xc1f4afcf	-30.585844
14	0xc227d57f	-41.958492
15	0xc0230cfc	-2.5476675
16	0xc21d2ec8	-39.295685
17	0x3fde096b	1.7346624
18	0x41f143b6	30.158062
19	0x41ad4f14	21.663612
20	0x41c7f202	24.993168
21	0x41adccb3	21.72495
22	0xc208b575	-34.177204
23	0xc0f7c74a	-7.7430773
24	0xc028c686	-2.637117
25	0x3f9ce8fd	1.2258602
26	0xc0c7f978	-6.2492027
27	0x4116c9e5	9.424291
28	0x403d7329	2.9601538
29	0x41bd2ca1	23.646791
30	0x41b868d2	23.051182
31	0xc0bece20	-5.9626617

decoder.0.weight f4 [16, 32, 3, 3]
0	0xc18842fc	-17.032707
1	0x41001474	8.004993
2	0x41f9833a	31.189075
3	0xc03364c3	-2.803025
4	0x41944257	18.532393
5	0xc15ff8d8	-13.998253
6	0xc114f767	-9.310401
7	0x41256b0b	10.338634
8	0x411ebef1	9.921617
9	0xc1ac135e	-21.509457
10	0xbfbb4ba7	-1.4632462
11	0xc1581905	-13.506108
12	0xc13ceaf0	-11.807358
13	0xc1c93bbe	-25.154171
14	0x42046cca	33.10624
15	0x41f81c87	31.01393
16	0x4210220f	36.03326
17	0x414faf63	12.980319
18	0x40ee7116	7.4513044
19	0x41f21f71	30.265352
20	0x418bb264	17.462105
21	0x40e6f121	7.2169347
22	0xc206fe2d	-33.74822
23	0x41169c2b	9.413127
24	0xc1d28d2f	-26.318937
25	0x4124f731	10.310349
26	0xc12fb10c	-10.980724
27	0x4166556b	14.395854
28	0x41aede07	21.858412
29	0x409d98e3	4.924913
30	0x40f59c8e	7.6753607
31	0xbf980d3b	-1.1879038
32	0xc0ffc0a5	-7.992266
33	0x4122dc61	10.178803
34	0x400ad5e7	2.1693056
35	0xc172c1d5	-15.172322
36	0xc01eb22c	-2.4796247
37	0x40b3847c	5.6099224
38	0x3fdb5664	1.7135739
39	0x408fd148	4.494297
40	0x4205a8df	33.414913
41	0xc14b499c	-12.705471
42	0xc15b39f3	-13.701648
43	0xc0ccb3f6	-6.396968
44	0x41865e9a	16.796192
45	0x3ee4473a	0.44585592
46	0xc20ad005	-34.703144
47	0x41ca2aef	25.270964
48	0x418b8500	17.439941
49	0xbe19aab7	-0.15006529
50	0xbedc4552	-0.43021637
51	0x419a0574	19.252663
52	0x41c25523	24.29157
53	0xc155bf15	-13.359151
54	0x41580694	13.501606
55	0xbf141d54	-0.5785725
56	0xc0d1c053	-6.554727
57	0x40964314	4.6956882
58	0xc1e8cfc5	-29.10145
59	0xc08c66d1	-4.387551
60	0xc1852b40	-16.646118
61	0xc1966291	-18.798128
62	0x411d7051	9.839921
63	0xc1904b96	-18.036907
64	0x4056f014	3.3584032
65	0x4161c131	14.109666
66	0xc1ac77f9	-21.55858
67	0xc1c8b026	-25.08601
68	0x41822b47	16.271132
69	0x4143d5a0	12.239655
70	0xc1ab9926	-21.44978
71	0x3f0b28d3	0.5435917
72	0x405fbf36	3.4960456
73	0xc18581d5	-16.688395
74	0x3fc9e1fd	1.5772091
75	0xc0d9e9b4	-6.809778
76	0xc1e2fe58	-28.374191
77	0x41cce3cb	25.611227
78	0xc11eff29	-9.937295
79	0x41937c41	18.43567
80	0xc1f5e766	-30.737988
81	0xc0b066b2	-5.512536
82	0xc0661bdc	-3.5954504
83	0xc136c576	-11.423208
84	0x4196fb70	18.872772
85	0x3f8df09e	1.1089056
86	0xc059576a	-3.3959603
87	0xbfddae53	-1.7318825
88	0xc1a4becb	-20.59316
89	0x3ddc153a	0.10746236
90	0xc08df282	-4.435853
91	0x41c4c7c4	24.597542
92	0x40c79c98	6.2378654
93	0x41faf023	31.367254
94	0xc17d5e48	-15.835518
95	0xc160d2e2	-14.051485
96	0xc139d6c4	-11.614933
97	0xc14c5f86	-12.773321
98	0xc1ceecf7	-25.865705
99	0xc0a609e8	-5.1887093
100	0x41c77ff5	24.937479
101	0x40a1a301	5.051148
102	0x40901e69	4.503712
103	0x4202c947	32.69656
104	0xc0512690	-3.2679787
105	0x41b2adfe	22.334957
106	0xc00c108e	-2.1885104
107	0xc17bd630	-15.739792
108	0xc2387902	-46.11817
109	0x4137220a	11.44581
110	0x41ace433	21.611425
111	0x40ad0bda	5.4076967
112	0xbe141d70	-0.14464355
113	0x41b11802	22.136723
114	0xc199a435	-19.20518
115	0x419a201d	19.26568
116	0x41383f65	11.515477
117	0x4150195b	13.00619
118	0x408acef6	4.337764
119	0xc0ffd7bb	-7.9950843
120	0x419d39a5	19.653147
121	0x41320cd6	11.128134
122	0xc1bd0947	-23.62953
123	0x4199aeb4	19.210304
124	0xc15b170c	-13.693127
125	0x41b8b784	23.089607
126	0xc088353c	-4.2564983
127	0xc213b3ca	-36.925575
128	0xc1c0a4ec	-24.080528
129	0x41f48a04	30.56739
130	0x415948f1	13.580308
131	0x419208fc	18.254387
132	0x4180a74a	16.081684
133	0xc18a3bdd	-17.27923
134	0x41554ebe	13.331724
135	0xc09a2790	-4.8173294
136	0xc192067f	-18.253172
137	0xc191acf4	-18.20945
138	0x40eb05e5	7.3444695
139	0x3fa95324	1.3228498
140	0xc02a96fd	-2.6654656
141	0xc220901a	-40.140724
142	0x3f56be67	0.8388428
143	0xc1ef7c1b	-29.935598
144	0x3fca4d40	1.5804825
145	0xc1384545	-11.5169115
146	0xc0938a93	-4.610666
147	0x405d0027	3.4531343
148	0xc1123b03	-9.139407
149	0xc1792e9a	-15.573877
150	0xc1ecea45	-29.61439
151	0xbf1cccb0	-0.6124983
152	0x41cfebc0	25.990112
153	0x41b9e9dd	23.239191
154	0x4195677d	18.675531
155	0x41d9dc09	27.232439
156	0x40028eaa	2.0399575
157	0x41f96344	31.17347
158	0x4192eb0f	18.364775
159	0x41c3e944	24.4889
160	0x403f3e52	2.9881787
161	0xc04a83e3	-3.1642997
162	0xc17cb44f	-15.794021
163	0x411b0a65	9.690038
164	0x4112511b	9.144801
165	0x41102975	9.010121
166	0x40664d2d	3.5984604
167	0x419f41c8	19.90712
168	0x40f2a921	7.5831456
169	0xc06c8ae1	-3.6959765
170	0xc0deb4aa	-6.9595537
171	0xc14c3c89	-12.764779
172	0x411deb47	9.869941
173	0xc12479ee	-10.279768
174	0x41845428	16.541092
175	0xc0a3877b	-5.110288
176	0x419854a8	19.041336
177	0x414c41b9	12.766046
178	0x416d7a98	14.84243
179	0xc0650017	-3.5781305
180	0xc1d646d8	-26.784592
181	0x414d97e3	12.849582
182	0x3fbfc5da	1.4982255
183	0x3fb680eb	1.4258093
184	0x40ea652c	7.32485
185	0xc1bc8ea2	-23.569645
186	0x4037a913	2.8696945
187	0xc163da50	-14.240799
188	0x41865e77	16.796125
189	0xc1297032	-10.589891
190	0x4115367a	9.3258
191	0xc13aa011	-11.664079
192	0xc1fd3d14	-31.654823
193	0xc219374a	-38.303993
194	0xc12bd434	-10.739307
195	0x41b4dd06	22.607922
196	0xbff2caa0	-1.8968086
197	0x41dbede0	27.49115
198	0x41befb82	23.872807
199	0x4096a9ce	4.708228
200	0xbf956f74	-1.1674638
201	0xc108cba8	-8.549721
202	0x40bb913b	5.8614783
203	0xc2197f49	-38.374302
204	0xc192af52	-18.335606
205	0xc1f3dda3	-30.483221
206	0xc0cb1b00	-6.347046
207	0x417d4f17	15.831809
208	0xc028dda3	-2.6385276
209	0xc1808be8	-16.068314
210	0xc1190b68	-9.565285
211	0x418e7de2	17.811466
212	0xc1acb008	-21.585953
213	0x41583dc9	13.515084
214	0x3f00adec	0.50265384
215	0x41a041c2	20.032108
216	0xbf39deaa	-0.72605383
217	0x41b459e8	22.5439
218	0x40f6d63f	7.713653
219	0x4087fdaa	4.249715
220	0x4190d6b9	18.104845
221	0xbfd675dc	-1.6754718
222	0xc1636543	-14.212222
223	0x3fae78c9	1.3630611
224	0xc12548f9	-10.330316
225	0xc1f9fafe	-31.247555
226	0xc04eeed8	-3.2333279
227	0x3f31cd6e	0.69454086
228	0xc2250693	-41.25642
229	0xc03a29de	-2.9088054
230	0x419ce9f8	19.614243
231	0xc14e5e84	-12.898075
232	0xc1a1b23f	-20.212034
233	0x41361596	11.38027
234	0xc1164900	-9.392822
235	0x4166714d	14.402661
236	0x4169885a	14.595789
237	0x3ed5e168	0.41773534
238	0x412d6374	10.836781
239	0x41377627	11.466346
240	0xc16108d0	-14.0646515
241	0x40c9db27	6.308002
242	0xc1837755	-16.433268
243	0x40f32a09	7.5988812
244	0x4181c006	16.218761
245	0x4139ebf6	11.620108
246	0xc1c16bbf	-24.17761
247	0x3ece8890	0.40338564
248	0x40013454	2.0188189
249	0xc1c96af1	-25.177217
250	0x41a449fc	20.536125
251	0xc1729339	-15.160943
252	0x4101f90c	8.123302
253	0x40c7f5db	6.2487617
254	0x4136c1f5	11.422353
255	0xc10b325f	-8.699798

decoder.0.bias f4 [16]
0	0x401fc036	2.4961066
1	0x3ebe5960	0.37177563
2	0xbf800625	-1.0001875
3	0xc08198e4	-4.0499134
4	0xc1fcddd3	-31.608313
5	0x3ffbb7dd	1.9665486
6	0x3e8aac81	0.27084735
7	0xc1c69589	-24.823015
8	0x417dcebb	15.862971
9	0xc1f3b078	-30.461166
10	0xc13e3cc9	-11.88984
11	0xc13097bd	-11.0370455
12	0xc1a429fe	-20.520504
13	0x3f217c2e	0.6308011
14	0x3f0564b4	0.52106786
15	0xc17be6e0	-15.743866

decoder.2.weight f4 [1, 16, 3, 3]
0	0xc14da3ff	-12.852538
1	0xc1b8c131	-23.094332
2	0x418c6548	17.549454
3	0x40bc0825	5.875994
4	0xc132a5a6	-11.1654415
5	0xc0c361b0	-6.1056747
6	0xc13b7405	-11.715825
7	0xc1a20ca2	-20.256168
8	0x3f9f0c78	1.242568
9	0xc1277bf1	-10.467759
10	0x41e9692f	29.17636
11	0xc09e61d7	-4.9494433
12	0x41ce88b1	25.816744
13	0xc0b82415	-5.7544045
14	0x412177f6	10.091787
15	0x40bd6e53	5.9197173
16	0x3f98127b	1.188064
17	0xc209fea2	-34.498665
18	0x404db869	3.2143805
19	0x3f2a444e	0.66510475
20	0xc181b4dd	-16.213312
21	0x4119f72e	9.622847
22	0xc15b320b	-13.6997175
23	0x41b25bca	22.294819
24	0xc19e8fcc	-19.820213
25	0xc1890c09	-17.130877
26	0xc0e5db12	-7.182992
27	0xc1a3b00c	-20.46096
28	0xc124988c	-10.287243
29	0xc1b3de70	-22.483612
30	0x3f258d7e	0.64669025
31	0xc1ca3974	-25.278053
32	0xc1bc37f6	-23.527325
33	0xbdb10ddb	-0.08645221
34	0x41698ce9	14.596902
35	0xc1d9fd7e	-27.248775
36	0x4034f1c5	2.8272564
37	0xc210baeb	-36.182537
38	0xbfbee514	-1.4913659
39	0xc1f3d726	-30.480053
40	0xc09c511f	-4.8849025
41	0xc1a7828c	-20.938744
42	0xc11a4f17	-9.644309
43	0xc22260a4	-40.594376
44	0x41a3f7b6	20.495953
45	0x40010130	2.0156975
46	0xc029e7f6	-2.6547828
47	0x40d963d2	6.793435
48	0xc182228f	-16.266874
49	0x40a580ae	5.171958
50	0xc15c3cf1	-13.764878
51	0xbe8f50e0	-0.2799139
52	0x4092a0b0	4.582115
53	0xc1c784b0	-24.939789
54	0xc0a49845	-5.1435876
55	0xc0e029cd	-7.0051026
56	0xc144190a	-12.256113
57	0xc16d43c2	-14.829042
58	0x41859e7e	16.702389
59	0xc088a9c0	-4.2707214
60	0x41a73fbd	20.906122
61	0x4107e42a	8.493204
62	0xc19a6bd3	-19.302649
63	0xc060149d	-3.5012581
64	0x41820817	16.25395
65	0xc163aa5d	-14.229093
66	0x40f34ba0	7.6029816
67	0xc1e2f718	-28.370651
68	0x4074e349	3.8263724
69	0x3ea3e3cc	0.32009733
70	0x40dbf58e	6.873725
71	0xc14eef27	-12.933387
72	0xc09f8e4b	-4.9861197
73	0xc1de1b75	-27.763407
74	0x4077fd47	3.8748338
75	0xc09d2d0e	-4.91175
76	0xc167db34	-14.491016
77	0xc15693df	-13.411101
78	0x41608ad2	14.033892
79	0xc16a5971	-14.646836
80	0x41a0f8ba	20.121449
81	0xc1b6d343	-22.853155
82	0xc119b1be	-9.605894
83	0x417d3b7b	15.827022
84	0xc1a86649	-21.049944
85	0xc1e71bab	-28.88851
86	0xc143aa23	-12.229037
87	0xbf0f51f8	-0.5598445
88	0xc18114e0	-16.135193
89	0xc1a4cb86	-20.599377
90	0xbf8deea5	-1.1088454
91	0xc0fcde5b	-7.902143
92	0x420f0044	35.75026
93	0x40feb353	7.95939
94	0x41803ed2	16.030674
95	0xc0e14b0e	-7.040412
96	0x41233028	10.199257
97	0xc197994f	-18.949858
98	0x3eff5b09	0.49874142
99	0xbffdbd9d	-1.982349
100	0x4020fb1d	2.5153267
101	0xc0699c12	-3.6501508
102	0xc081867e	-4.0476675
103	0xc0d75970	-6.7296677
104	0xc0970a64	-4.7200184
105	0xc1316bda	-11.088831
106	0x40fbfd1f	7.8746486
107	0xc1ca1551	-25.260408
108	0xbec87ff1	-0.39160112
109	0xc0c2f14e	-6.091956
110	0xc153099f	-13.189849
111	0xc12ebdb9	-10.921319
112	0xc1e9ae43	-29.210089
113	0x40fe71ef	7.951408
114	0xc1f46243	-30.54798
115	0xc03b35a3	-2.9251487
116	0xc186685d	-16.800959
117	0x40fb42dc	7.8519115
118	0xc0b0d10d	-5.525519
119	0x41ac4559	21.533861
120	0xc1e2ed5e	-28.365902
121	0x40cf8ff2	6.4863214
122	0xc23402e7	-45.002834
123	0x41bf78cb	23.93398
124	0xc19ddcf8	-19.732895
125	0x4182622a	16.297932
126	0x412b432d	10.7039
127	0xc03b0d97	-2.9227045
128	0xc0e33f8a	-7.101506
129	0x41438c5e	12.221769
130	0xc16e4f40	-14.894348
131	0xc0c3b493	-6.1157928
132	0x41b3c91f	22.473204
133	0x40bfa677	5.9890704
134	0xc15cbd35	-13.796193
135	0x41b53ff5	22.656229
136	0xc1a6ba5d	-20.840998
137	0x420233d6	32.55062
138	0xc193fc54	-18.498207
139	0x4195dfde	18.73431
140	0xc0c7a880	-6.239319
141	0xc0138923	-2.3052452
142	0x41462875	12.384877
143	0x420e5bcf	35.589657
