candidate_networks/inet6_3.pt (torch, 41295 bytes, 14 tensors)

c1.weight f4 [16, 1, 3, 3]
0	0xc1bc2a2d	-23.520594
1	0xc244959c	-49.146103
2	0xc19b14ed	-19.385218
3	0x41b5070a	22.628437
4	0xc0abf254	-5.373331
5	0xc08433db	-4.13133
6	0x418e3120	17.773987
7	0x41339adc	11.225307
8	0xc1dc67b0	-27.550629
9	0xc02c1f5f	-2.6894147
10	0x410ea7c5	8.915959
11	0xbfc98886	-1.5744789
12	0x415214cb	13.130076
13	0xc19c6a57	-19.551924
14	0xc112deda	-9.179407
15	0x4183a10f	16.453642
16	0xc12b8740	-10.72052
17	0x4168d622	14.5522785
18	0xc10a0a60	-8.627533
19	0x41c2c0d6	24.344158
20	0xc0f1873b	-7.5477576
21	0x41b43d61	22.52997
22	0xbf2afd24	-0.6679251
23	0x42037b2e	32.870293
24	0xc1989345	-19.071909
25	0x41d80ce4	27.006294
26	0x3dc8c8f4	0.09803954
27	0xc0d8788a	-6.7647142
28	0xc253726b	-52.861736
29	0xc0f66a1c	-7.700453
30	0xc086934e	-4.2054815
31	0x4199a556	19.20573
32	0xc1c3d162	-24.477238
33	0x415121d9	13.070764
34	0xc1e4b699	-28.589159
35	0xc074f750	-3.8275948
36	0xc0bd4562	-5.9147196
37	0xc10a0201	-8.625489
38	0xc1684ec0	-14.519226
39	0xc0df150d	-6.9713197
40	0xc1c86b1b	-25.052298
41	0xc1b8e44a	-23.11147
42	0xc194f18e	-18.617947
43	0xc092686e	-4.575248
44	0xc110e359	-9.055505
45	0xc197715c	-18.930351
46	0xbee47fa1	-0.44628623
47	0xbf52ff64	-0.82420945
48	0xc1931e6f	-18.38986
49	0xc1acceb3	-21.600927
50	0xc054909e	-3.3213267
51	0xc1946559	-18.549486
52	0xc1adb5ca	-21.713764
53	0xc150239e	-13.008696
54	0x40878edb	4.2361884
55	0xc0460272	-3.0938993
56	0xc0c59ed0	-6.1756363
57	0x408ca3ee	4.395011
58	0xbf9aaaea	-1.2083409
59	0xc1d62f91	-26.773226
60	0x406a3fe5	3.6601498
61	0xc1ac867f	-21.565672
62	0x3f1a63b8	0.6030841
63	0x4145fda1	12.374421
64	0xc0c3877f	-6.11029
65	0x4044e293	3.076329
66	0xc1273886	-10.4513
67	0x3f6ed0f0	0.93287563
68	0xc18796da	-16.948658
69	0x41ad0cc7	21.631239
70	0xc112638b	-9.1493025
71	0x41c9696c	25.176476
72	0xc0a8874b	-5.2665153
73	0x41363ca0	11.389801
74	0x4198478e	19.034939
75	0x419d282e	19.644619
76	0x42004d0d	32.075245
77	0xc1d3af4d	-26.460596
78	0x4088fa64	4.2805653
79	0x40917c78	4.546444
80	0x41a8b112	21.08646
81	0xc12f3787	-10.9510565
82	0x410091c4	8.035587
83	0x4114f8dc	9.310757
84	0x4158a069	13.539163
85	0x418dd446	17.72865
86	0xc0e3ac0d	-7.1147523
87	0x420fa8e7	35.914944
88	0x40062d58	2.0965176
89	0x402f70f7	2.7412698
90	0xc197d7e4	-18.980415
91	0x418c05ee	17.502895
92	0x3eb1bfbc	0.34716594
93	0x4197da3c	18.98156
94	0xc062bee0	-3.5429
95	0xbf9fb6ed	-1.24777
96	0x412927b9	10.572198
97	0x41773ff1	15.453111
98	0x416d961c	14.849148
99	0x4175d7e9	15.365212
100	0x4114feff	9.312255
101	0xc10ee5b9	-8.931085
102	0x41c092ae	24.07162
103	0x4084e476	4.1528883
104	0xc113c728	-9.236122
105	0xc1bcfafd	-23.622553
106	0x41a5ca67	20.72383
107	0x407ca47c	3.9475393
108	0xc0a8c8d2	-5.274514
109	0xc14fc07f	-12.984496
110	0x3f0b782a	0.5448023
111	0x41aa9169	21.321001
112	0x41700a55	15.002522
113	0x41c6264e	24.768703
114	0x41b785ed	22.940393
115	0x4042326c	3.0343275
116	0xc17cef63	-15.808444
117	0x409d4492	4.9146204
118	0x3f028b24	0.5099356
119	0xc18c0371	-17.50168
120	0xc10e27f5	-8.884755
121	0xc22623e5	-41.535053
122	0xc1d6e1b3	-26.860205
123	0xc14371b2	-12.215258
124	0xc0d83077	-6.755916
125	0x40dbe0c7	6.8711886
126	0xc1a60b8f	-20.755644
127	0x4184bfd9	16.593676
128	0xc12619a1	-10.381257
129	0x41f4eee2	30.616642
130	0xc150b1d7	-13.043418
131	0x407f216b	3.9864147
132	0xc1a9e374	-21.236061
133	0xbf1c542d	-0.6106594
134	0xbf885b50	-1.0652866
135	0xc0f3540c	-7.6040096
136	0xc200b70b	-32.178753
137	0x40e005fd	7.000731
138	0xc0884d0f	-4.2594066
139	0x41a06a60	20.05194
140	0x3f81a08e	1.0127122
141	0xc16dcf1b	-14.863063
142	0xc2068ec9	-33.63944
143	0x40dfe297	6.99641

c1.bias f4 [16]
0	0x41579bbd	13.475522
1	0x42594a2c	54.322433
2	0xc09276b0	-4.576988
3	0x41a68c52	20.818516
4	0xc1257da7	-10.343177
5	0x413c30d0	11.761917
6	0x419b384c	19.402489
7	0xc1ad67ae	-21.675625
8	0xc18b449e	-17.408504
9	0x40229d0b	2.5408351
10	0xc1eeab8f	-29.833769
11	0xc1c434e4	-24.525826
12	0xc00ce1ff	-2.2012937
13	0x3f47db9a	0.7806946
14	0xc17b7769	-15.716653
15	0xc1237aee	-10.217512

c2.weight f4 [32, 16, 3, 3]
0	0x403652a2	2.8487935
1	0xc158fb03	-13.561282
2	0xc1073bcd	-8.4521
3	0x4065c7c9	3.590319
4	0xc20da675	-35.412556
5	0xc10cca5b	-8.799403
6	0xc2040076	-33.00045
7	0x40dcced2	6.9002466
8	0x412d74b9	10.840997
9	0xc1114004	-9.078129
10	0xc0da6d1f	-6.8258204
11	0x4245dcd5	49.465656
12	0xc1accb5d	-21.599298
13	0x412c10e4	10.754124
14	0xc249164e	-50.271782
15	0xc14079ae	-12.029707
16	0xc1fce945	-31.613901
17	0xc166c8d1	-14.424027
18	0xc192ad09	-18.33449
19	0xc184268c	-16.518822
20	0xc19a51b5	-19.289896
21	0xc13d9b84	-11.850468
22	0x40bd11fd	5.908446
23	0xc0caf5c9	-6.342503
24	0xc217629d	-37.846302
25	0x3ebf8a46	0.37410182
26	0xc19d9249	-19.696428
27	0xc078bd42	-3.8865514
28	0xc12b01ac	-10.687908
29	0x41665b9b	14.397365
30	0xc16ecf26	-14.925573
31	0x41219a2b	10.100139
32	0xc0261581	-2.5950625
33	0xc0a54f9b	-5.1659675
34	0x41e81fc9	29.01552
35	0x42200ee2	40.014534
36	0xc092b7e0	-4.5849457
37	0x40efd513	7.49476
38	0x40f8f5ff	7.780029
39	0xc0995c44	-4.792513
40	0xc10f6e63	-8.96445
41	0x41b1c8eb	22.223104
42	0xc05c7eec	-3.4452467
43	0xc1e8ebe4	-29.115181
44	0xc135ac40	-11.354553
45	0xc18d3860	-17.652527
46	0xbff0e5a4	-1.8820081
47	0xc09cbae2	-4.897813
48	0xc12511f3	-10.316882
49	0xc1b6d17e	-22.852291
50	0xc1abed1d	-21.490778
51	0x40171807	2.3608415
52	0xc15191d4	-13.098103
53	0x419d051e	19.627499
54	0x41dafee0	27.37445
55	0x417aedb0	15.683029
56	0xc19b8db0	-19.444183
57	0xc260f2e2	-56.23719
58	0xc1b45963	-22.543646
59	0xc189a2d6	-17.20451
60	0xc0f3ad72	-7.6149225
61	0xc1303d1a	-11.014917
62	0xc0d3475d	-6.6024613
63	0x41649050	14.285233
64	0x414567e6	12.337866
65	0xc1994918	-19.16069
66	0xc01d4b84	-2.457734
67	0x415789a5	13.471105
68	0x3ec5b9af	0.38618228
69	0xc1a9bf6e	-21.218472
70	0xc14b5031	-12.707078
71	0xc0a478b7	-5.1397357
72	0xc05d69df	-3.4595869
73	0x3fb9fc8d	1.4530197
74	0x4135c2e6	11.360083
75	0x418b283d	17.394648
76	0xc0165df1	-2.3494837
77	0x40a72aa8	5.223957
78	0x41e1b3a5	28.212717
79	0xc136f47c	-11.434689
80	0x41a37ceb	20.435995
81	0x41c4cd40	24.60022
82	0xc155694e	-13.338209
83	0xc14b4865	-12.705174
84	0xc0b34959	-5.6027036
85	0x41a3e5e3	20.48725
86	0xc119fc63	-9.624118
87	0xc0af967e	-5.4871206
88	0x4173b48b	15.231578
89	0xc12d786f	-10.841903
90	0x3f18f54c	0.59749293
91	0x41c35b6b	24.419638
92	0xc02f1592	-2.7356915
93	0xc136f0d7	-11.433799
94	0xc0b7398f	-5.725776
95	0xc0f19759	-7.549725
96	0xc1030462	-8.18857
97	0xc192aaf8	-18.33348
98	0xc16eab4e	-14.916822
99	0xc0cede0e	-6.4646063
100	0xc182bb58	-16.341476
101	0x420f0b84	35.761246
102	0x40b9b848	5.8037453
103	0xc1861be8	-16.763626
104	0x40b0cf5c	5.5253124
105	0xc1b1d4cd	-22.228907
106	0xc104d02c	-8.300823
107	0xc1940c59	-18.50603
108	0x411ba7fc	9.728512
109	0x41d57d12	26.68607
110	0x41bfd69b	23.979788
111	0x40e34ac1	7.102875
112	0xc195f34b	-18.743795
113	0x40c0b92e	6.022605
114	0x421600d0	37.500793
115	0x40c15479	6.0415616
116	0x4212b989	36.681187
117	0xc10a61fb	-8.648921
118	0xc16b3606	-14.700689
119	0x414c5d19	12.772729
120	0xc143cca9	-12.237466
121	0xc10b904f	-8.722732
122	0x4121f9ee	10.123518
123	0x3f8246d9	1.0177871
124	0xc141b9d0	-12.107864
125	0x4113d496	9.239401
126	0x414ca28c	12.789684
127	0xc1c9d88e	-25.23074
128	0x4192dac4	18.35682
129	0xc17ebf38	-15.921684
130	0x41d5fcb3	26.748388
131	0xc112df00	-9.179443
132	0x40ad4a31	5.4153066
133	0x4167235a	14.446131
134	0xc191c5bc	-18.22155
135	0xc1c08bb3	-24.068213
136	0xc02fd821	-2.7475665
137	0x40cd65ef	6.418693
138	0x40863e73	4.195123
139	0x41b75433	22.916113
140	0x41030d36	8.190725
141	0xbf1192d9	-0.56864697
142	0xc124002d	-10.250043
143	0xc1fb1116	-31.383343
144	0x4175968f	15.349257
145	0x40bcb5ae	5.8971777
146	0x40f7a6cd	7.7391114
147	0xc05167f4	-3.2719698
148	0x408ed4ed	4.463492
149	0xc1c8e0e6	-25.109814
150	0xc14a86e8	-12.657936
151	0xc1682c77	-14.510856
152	0xc194244d	-18.517725
153	0xc143e6fe	-12.243895
154	0xbf240fd2	-0.6408664
155	0xbf0ac74c	-0.5421035
156	0x41846a6e	16.551968
157	0x410f2168	8.945656
158	0x41c54ed2	24.663486
159	0x3e2b04c4	0.16701037
160	0x41f4c53c	30.596306
161	0x41da3a1c	27.278374
162	0xc0ecacdf	-7.3961024
163	0x41025b91	8.147355
164	0xc127a82d	-10.478559
165	0x41c74773	24.909887
166	0xc0befdd7	-5.9684863
167	0x4120ca54	10.0493965
168	0x41d780a7	26.937819
169	0xc1674e09	-14.456552
170	0x40883873	4.256891
171	0xc1116b5f	-9.088714
172	0xc1fd6939	-31.676378
173	0x4090f680	4.5300903
174	0x41bdd561	23.729189
175	0xbf98aa9d	-1.1927067
176	0x416eeaba	14.932306
177	0xc1ae8d9a	-21.819141
178	0xc14cd320	-12.801544
179	0x40c98d25	6.2984796
180	0x40fc5f93	7.886667
181	0x41578707	13.470466
182	0x41949e2e	18.577236
183	0x417051aa	15.0199375
184	0x410a7945	8.654607
185	0x411fb76e	9.982283
186	0xbfe496c6	-1.7858512
187	0x40d0a7a7	6.5204654
188	0x41a63172	20.774143
189	0x4189ed5c	17.240898
190	0x42345952	45.087227
191	0x40672b9c	3.6120367
192	0x419c8ef4	19.569801
193	0x4184c6ae	16.597012
194	0xc10c46e3	-8.767306
195	0x3e3e07eb	0.18557708
196	0x40feb850	7.959999
197	0xc0199488	-2.3996906
198	0xc200cbc6	-32.198997
199	0x420b9265	34.892963
200	0x41b7ce1f	22.975645
201	0x418e180e	17.761745
202	0xc08bd014	-4.36915
203	0xc1816088	-16.172134
204	0xc12c31d6	-10.762167
205	0xc1957e1a	-18.686573
206	0xc1035d50	-8.210281
207	0x410e5f92	8.898333
208	0x418fe7c4	17.988167
209	0x41e09380	28.072021
210	0xc196fe29	-18.874102
211	0x414f6027	12.960975
212	0x41bd6e91	23.678988
213	0x3f2893be	0.65850437
214	0xc23957f0	-46.335876
215	0xc11526db	-9.321986
216	0xc181ae56	-16.210125
217	0xc16f07a3	-14.939364
218	0x3f8a5cec	1.0809608
219	0xc06cde21	-3.7010577
220	0xbf53ca1a	-0.8273026
221	0xc21bcbf1	-38.94916
222	0x4142c976	12.174185
223	0x423a97e1	46.64832
224	0xc0e8290c	-7.2550106
225	0xc1b23218	-22.27446
226	0xc103fe94	-8.249653
227	0x41a54f28	20.66365
228	0x3ef94d7d	0.4869193
229	0x409789d1	4.7355733
230	0x42225110	40.579163
231	0xc0d94a93	-6.7903533
232	0xc018396a	-2.3785043
233	0xc217a5c1	-37.91187
234	0xc17a7919	-15.654565
235	0xc101e4ef	-8.118392
236	0xc1364610	-11.392105
237	0x418d326d	17.649622
238	0x417c487d	15.767697
239	0xc1b6545a	-22.791187
240	0xc0646ba3	-3.5690696
241	0xc0997a0c	-4.7961483
242	0xc113cdb1	-9.237718
243	0x420b7352	34.862617
244	0xc1270b49	-10.440255
245	0x3fb24857	1.3928326
246	0xc0eede8e	-7.4646673
247	0xc1dd89a0	-27.6922
248	0x4201753e	32.364494
249	0xc13fdb5e	-11.991056
250	0xc1457ab1	-12.342454
251	0xc10c0164	-8.7503395
252	0xc088bf6a	-4.273366
253	0xc1b75f7e	-22.921627
254	0xc05d7030	-3.4599724
255	0xc1214f14	-10.081806

c2.bias f4 [32]
0	0x40a0247c	5.0044537
1	0x408a38dd	4.3194413
2	0x3f5d4b47	0.8644299
3	0xc08c1cb7	-4.378505
4	0xc12a5bdd	-10.647428
5	0x408257dd	4.0732255
6	0x4127697f	10.463256
7	0xc0cceb83	-6.403749
8	0xc11728fb	-9.447505
9	0x3fc5e35f	1.5460013
10	0xc181a4dc	-16.205498
11	0xc1a5fd52	-20.748692
12	0x40dd235b	6.910566
13	0xc1efb546	-29.963512
14	0xc229b7f7	-42.429653
15	0xc016e390	-2.3576393
16	0xc21b772e	-38.866386
17	0x3fb1475b	1.3849901
18	0x41f55255	30.665201
19	0x41ace6a2	21.612614
20	0x41c3e03b	24.484488
21	0x41afc6fc	21.97216
22	0xc2093ca2	-34.30921
23	0xc0fa17c2	-7.8154
24	0xc0261689	-2.5951254
25	0x3f8d1b33	1.1023926
26	0xc0d246b4	-6.5711308
27	0x411a1e71	9.632432
28	0x404061e3	3.0059745
29	0x41b85426	23.041088
30	0x41b996f6	23.198711
31	0xc0ca1fb7	-6.3163714

d1.weight f4 [16, 32, 3, 3]
0	0xc1857538	-16.682236
1	0x40ff219d	7.972853
2	0x41f98832	31.191502
3	0xc00f7be4	-2.2419367
4	0x41990418	19.126999
5	0xc16329ad	-14.197675
6	0xc112eb28	-9.182411
7	0x41251ac1	10.319032
8	0x411f8396	9.969625
9	0xc1b45cf8	-22.545395
10	0xbf976b85	-1.1829687
11	0xc15dbab5	-13.858083
12	0xc13f97b6	-11.974539
13	0xc1c4d54e	-24.604153
14	0x4204e74f	33.225887
15	0x41f82202	31.016605
16	0x420ee4f4	35.723587
17	0x415b0dbd	13.690854
18	0x40f038ef	7.50695
19	0x41f2c06e	30.34396
20	0x418b78bc	17.433952
21	0x40e67147	7.201328
22	0xc206d018	-33.703217
23	0x41173563	9.450534
24	0xc1d2dda7	-26.358229
25	0x412d3968	10.826515
26	0xc136ad79	-11.417352
27	0x416909a2	14.564852
28	0x41af66f3	21.925268
29	0x4094a28a	4.644841
30	0x40ffd56d	7.994803
31	0xbf34c479	-0.70612293
32	0xc105cfa6	-8.363195
33	0x412410a6	10.254065
34	0x40197b44	2.3981485
35	0xc1714bca	-15.081003
36	0xc045c560	-3.0901718
37	0x40a92628	5.2859077
38	0x3f9f60b2	1.2451384
39	0x40862166	4.191577
40	0x4204b97f	33.18115
41	0xc14e1cc6	-12.882025
42	0xc1640379	-14.250848
43	0xc0d56b4c	-6.669348
44	0x418770e2	16.930119
45	0x3e2f5d4c	0.17125434
46	0xc20aede2	-34.732307
47	0x41cc5104	25.539558
48	0x4189aaa6	17.208324
49	0xbe4ccd16	-0.20000109
50	0xbf231cff	-0.6371612
51	0x419a3dd0	19.280182
52	0x41bebefd	23.843256
53	0xc15961e8	-13.586403
54	0x414cc4e0	12.798065
55	0xbf0573ff	-0.5213012
56	0xc0d59db7	-6.6755023
57	0x408765be	4.2311697
58	0xc1e3578b	-28.417746
59	0xc0965231	-4.697533
60	0xc17d5322	-15.832796
61	0xc19cc139	-19.594347
62	0x411cc6d6	9.798544
63	0xc190a907	-18.082533
64	0x40602a31	3.5025752
65	0x41616b0d	14.088635
66	0xc1af6265	-21.923044
67	0xc1c9ffd1	-25.24991
68	0x417d27ce	15.822218
69	0x413c307d	11.761838
70	0xc1ad8a78	-21.692612
71	0x3f78f013	0.97241324
72	0x40479d02	3.118958
73	0xc1886e0f	-17.05374
74	0x3fb1c71b	1.3888887
75	0xc0ca3904	-6.31946
76	0xc1e442d0	-28.532623
77	0x41d08eb5	26.069681
78	0xc11f198c	-9.943737
79	0x4195dabf	18.73181
80	0xc1f3c0d6	-30.469158
81	0xc0a02a05	-5.0051293
82	0xc05ff4dc	-3.49932
83	0xc1381c46	-11.506903
84	0x419aef1c	19.366753
85	0x3f7bcb1a	0.98356783
86	0xc054bda3	-3.3240745
87	0xbfd33492	-1.6500418
88	0xc1a11feb	-20.140585
89	0x3b85bea0	0.004081562
90	0xc09253ff	-4.5727534
91	0x41bfec71	23.99045
92	0x40cbf9bd	6.3742356
93	0x41ff018e	31.87576
94	0xc17af895	-15.685689
95	0xc15e364e	-13.888258
96	0xc1357f08	-11.3435135
97	0xc1587b1a	-13.530054
98	0xc1cd920a	-25.696308
99	0xc0a353ee	-5.1039953
100	0x41c32a8f	24.39578
101	0x409b62c4	4.8558064
102	0x4086a18f	4.2072215
103	0x4202b56a	32.677162
104	0xc07c8526	-3.9456267
105	0x41b0554a	22.041645
106	0xc02da45c	-2.7131567
107	0xc16e65b8	-14.899834
108	0xc2378749	-45.882114
109	0x4137ab9b	11.479396
110	0x41af14e1	21.885195
111	0x40bf236e	5.973075
112	0xbe13c8ce	-0.1443207
113	0x41af2095	21.89091
114	0xc19b82df	-19.438902
115	0x4199defc	19.23388
116	0x4138e470	11.555771
117	0x4144e12d	12.304975
118	0x408bf89d	4.3740983
119	0xc102bfd3	-8.171832
120	0x419f1b7e	19.888424
121	0x412bd5bf	10.739684
122	0xc1bfba6d	-23.966028
123	0x41995f05	19.171396
124	0xc162ac00	-14.166992
125	0x41ba9b30	23.325775
126	0xc08528ac	-4.161215
127	0xc2146b62	-37.104866
128	0xc1bf3031	-23.898531
129	0x41f15f47	30.171522
130	0x41556bda	13.338831
131	0x4194de6d	18.608606
132	0x4179c51a	15.6106205
133	0xc18983a4	-17.189278
134	0x415040f8	13.0158615
135	0xc0a4c84f	-5.1494517
136	0xc194290d	-18.520044
137	0xc195ae14	-18.71
138	0x40e3a37b	7.113706
139	0x3fb2924f	1.39509
140	0xc034c1a1	-2.8243182
141	0xc21fc2df	-39.940304
142	0x3f212eac	0.6296184
143	0xc1f1be29	-30.217852
144	0x3fc3c1de	1.5293539
145	0xc13cdc15	-11.803731
146	0xc09ba342	-4.863679
147	0x406d0837	3.7036264
148	0xc114bdd1	-9.296342
149	0xc1743fde	-15.265593
150	0xc1e9e8c7	-29.23866
151	0xbf82faf7	-1.0232838
152	0x41d35758	26.417648
153	0x41b89557	23.07292
154	0x419048ad	18.035486
155	0x41d76637	26.92491
156	0x3ff0d992	1.8816397
157	0x41f8c5d4	31.096596
158	0x4192ef49	18.366838
159	0x41c423d9	24.517504
160	0x402a6a27	2.662729
161	0xc073e9b4	-3.811139
162	0xc1821337	-16.259382
163	0x4119b1be	9.605894
164	0x411596de	9.349333
165	0x411bb705	9.7321825
166	0x4063f12b	3.5615947
167	0x41a163c0	20.173706
168	0x40f5dd57	7.683269
169	0xc0562a82	-3.3463445
170	0xc0dcd17f	-6.9005733
171	0xc1490bb1	-12.565354
172	0x411cadf2	9.792467
173	0xc1290734	-10.564259
174	0x4182d197	16.352339
175	0xc0a427bc	-5.1298504
176	0x4196e811	18.863314
177	0x41537a3a	13.21734
178	0x41709c81	15.038209
179	0xc0494d2c	-3.1453352
180	0xc1d63310	-26.774933
181	0x4149d1f9	12.613763
182	0x3fa03712	1.2516806
183	0x3fcd14b2	1.6021941
184	0x40e23760	7.0692596
185	0xc1bb1bdb	-23.388601
186	0x4059f11d	3.4053414
187	0xc157deb1	-13.491868
188	0x4186a063	16.828314
189	0xc12bc89f	-10.73648
190	0x411884a3	9.532382
191	0xc138f9a6	-11.560949
192	0xc1fa53a6	-31.290844
193	0xc21ac602	-38.693367
194	0xc128ff11	-10.562272
195	0x41b1abf1	22.208956
196	0xbfe994c0	-1.824852
197	0x41e0a065	28.078318
198	0x41c26c9a	24.303028
199	0x408f30ee	4.474723
200	0xbfb2ad75	-1.3959185
201	0xc1185fab	-9.523356
202	0x40bef740	5.967682
203	0xc21a3232	-38.54902
204	0xc19302d9	-18.37639
205	0xc1f0d46f	-30.103727
206	0xc0d4e98d	-6.6535096
207	0x4177204a	15.445383
208	0xc013fa68	-2.3121586
209	0xc1794860	-15.58017
210	0xc11f4291	-9.953752
211	0x4196b44a	18.838032
212	0xc1af1592	-21.885532
213	0x41591ff0	13.570297
214	0x3efa2e4f	0.48863456
215	0x419ecbea	19.849567
216	0xbec854da	-0.39127237
217	0x41b47f52	22.562168
218	0x410a4649	8.642159
219	0x408d42e4	4.4144154
220	0x41900ac2	18.005253
221	0xbfb39325	-1.402928
222	0xc1627dd9	-14.155725
223	0x3fc9bde4	1.5761075
224	0xc12217eb	-10.130839
225	0xc1f83dcf	-31.03018
226	0xc03703fc	-2.8596182
227	0x3f7ba43d	0.9829748
228	0xc225c1f3	-41.439404
229	0xc0419c96	-3.0251822
230	0x419cc440	19.595825
231	0xc1433e8d	-12.202771
232	0xc1a1a6be	-20.206417
233	0x412c7a4c	10.779858
234	0xc116e221	-9.430207
235	0x4162c931	14.174119
236	0x4161c944	14.111637
237	0x3ec0aca1	0.37631705
238	0x4131b0b9	11.105645
239	0x4134ef6f	11.308455
240	0xc1645e47	-14.273017
241	0x40d42aad	6.6302094
242	0xc1864328	-16.782791
243	0x410391bb	8.223079
244	0x41840d31	16.506441
245	0x41392b55	11.573079
246	0xc1c93178	-25.149155
247	0x3f4e5438	0.8059726
248	0x4024aa2f	2.5728872
249	0xc1ca99f6	-25.325176
250	0x41a6a731	20.831636
251	0xc16d4390	-14.828995
252	0x41050a8e	8.315077
253	0x40c5f409	6.1860394
254	0x412f67d3	10.962848
255	0xc109a770	-8.603378

d1.bias f4 [16]
0	0x4014373f	2.315872
1	0x3ee91762	0.45525652
2	0xbf5c32ef	-0.8601522
3	0xc08c0f9e	-4.3769064
4	0xc1fba0f1	-31.453585
5	0x402076ae	2.5072436
6	0x3f0e9ba8	0.5570626
7	0xc1c71b83	-24.888433
8	0x41740714	15.251728
9	0xc1f37017	-30.429731
10	0xc144877e	-12.283079
11	0xc139abfd	-11.604489
12	0xc1a5c2c5	-20.720102
13	0x3ebd07a6	0.36919898
14	0x3f3b8a25	0.73257667
15	0xc177c3a1	-15.485261

d2.weight f4 [1, 16, 3, 3]
0	0xc152c720	-13.1736145
1	0xc1bb78b3	-23.433935
2	0x418cbf0e	17.593288
3	0x40d012cc	6.5022945
4	0xc13c3ec7	-11.7653265
5	0xc0b3b87f	-5.6162715
6	0xc13e2d50	-11.886063
7	0xc19c460c	-19.534203
8	0x3f87b7ae	1.060293
9	0xc1246ca1	-10.276521
10	0x41eddf24	29.733955
11	0xc0a8c70a	-5.2742968
12	0x41cbf528	25.494705
13	0xc0b5653e	-5.6686087
14	0x41238d65	10.22202
15	0x40d2915c	6.580244
16	0x3f35c674	0.7100594
17	0xc20b33f0	-34.80072
18	0x403cd137	2.9502695
19	0x3e11feb2	0.14257315
20	0xc1882bc8	-17.021378
21	0x41169036	9.410208
22	0xc154853e	-13.28253
23	0x41aed4a8	21.853836
24	0xc19d7ccd	-19.685938
25	0xc183a134	-16.453712
26	0xc0f47221	-7.6389318
27	0xc1a2360d	-20.276392
28	0xc11a6309	-9.6491785
29	0xc1b76160	-22.922546
30	0x3ebfb727	0.37444422
31	0xc1c718db	-24.887136
32	0xc1bd7b6f	-23.68527
33	0x3e669411	0.2251742
34	0x416607b0	14.376877
35	0xc1d85808	-27.042984
36	0x40371a33	2.860974
37	0xc20fed82	-35.98194
38	0xbfabc241	-1.3418657
39	0xc1f290c5	-30.320688
40	0xc0aaadb5	-5.3337045
41	0xc1aca552	-21.580723
42	0xc11cfa38	-9.811089
43	0xc2217c46	-40.37136
44	0x41a4cc9c	20.599907
45	0x3f82b577	1.0211629
46	0xc035bfe4	-2.839837
47	0x40e70686	7.2195463
48	0xc17e8f84	-15.910038
49	0x4096df0d	4.714728
50	0xc1660104	-14.375248
51	0xbf352892	-0.7076503
52	0x4087eeb4	4.2478886
53	0xc1c6dfa5	-24.859201
54	0xc09691f5	-4.705317
55	0xc0f0f47c	-7.5298443
56	0xc142c09d	-12.172025
57	0xc1772d05	-15.448491
58	0x4189b765	17.214548
59	0xc084329a	-4.131177
60	0x41a3b255	20.462076
61	0x41074a8f	8.455703
62	0xc19880c5	-19.062876
63	0xc05ddbcd	-3.4665406
64	0x418354b9	16.416368
65	0xc161b407	-14.106452
66	0x4105c704	8.361088
67	0xc1e2a51a	-28.330616
68	0x407074b8	3.757124
69	0x3ed619e9	0.41816643
70	0x40e5f97e	7.1867056
71	0xc14cb4db	-12.794154
72	0xc09f8f2f	-4.9862285
73	0xc1df6e0e	-27.928738
74	0x4083c8ce	4.1182623
75	0xc09e1727	-4.940326
76	0xc16c60c2	-14.7736225
77	0xc150a63d	-13.0405855
78	0x41697118	14.590111
79	0xc16ae33f	-14.68048
80	0x41a13cfe	20.154781
81	0xc1bde985	-23.739023
82	0xc119b7bd	-9.607358
83	0x417b500c	15.707043
84	0xc1a9ca24	-21.223701
85	0xc1e67ce9	-28.810991
86	0xc14894ad	-12.536298
87	0xbd894440	-0.06702471
88	0xc181b8ac	-16.215172
89	0xc1a6d3ff	-20.853514
90	0xbf17a64e	-0.59238136
91	0xc0f91be4	-7.7846546
92	0x420eb040	35.67212
93	0x40fe9aa1	7.9563756
94	0x4185e141	16.734987
95	0xc0e91618	-7.283947
96	0x41200670	10.001572
97	0xc1966e06	-18.803722
98	0x3e5ef444	0.21772867
99	0xbfe21150	-1.7661533
100	0x401efd7c	2.4842215
101	0xc03f2b93	-2.9870346
102	0xc08789ef	-4.2355876
103	0xc0d7f157	-6.7482104
104	0xc093bd66	-4.61687
105	0xc1318517	-11.094993
106	0x40e3eb2e	7.1224585
107	0xc1ca0045	-25.250132
108	0xbf47baa9	-0.78019196
109	0xc0cb8eaa	-6.361165
110	0xc1568c08	-13.409187
111	0xc12fc42b	-10.985393
112	0xc1e96645	-29.174936
113	0x41045c4f	8.272536
114	0xc1f9805a	-31.187672
115	0xc0671991	-3.6109354
116	0xc1888e24	-17.069405
117	0x410366c5	8.21259
118	0xc0b4a338	-5.644924
119	0x41b1076f	22.12863
120	0xc1e30f96	-28.38261
121	0x40c7f95e	6.2491903
122	0xc232a822	-44.664192
123	0x41c23457	24.275557
124	0xc19dc10e	-19.719265
125	0x4183a0e6	16.453564
126	0x4123615e	10.211271
127	0xc03a45d2	-2.9105115
128	0xc0e06640	-7.0124817
129	0x4139d9f8	11.615715
130	0xc16ea9f2	-14.916491
131	0xc0c18a76	-6.048152
132	0x41b55bbe	22.669796
133	0x40a4c475	5.1489816
134	0xc15a58cb	-13.646678
135	0x41b7e36c	22.986046
136	0xc1a307df	-20.378843
137	0x4202f772	32.741646
138	0xc191b239	-18.212023
139	0x4197644c	18.923973
140	0xc0c3eee1	-6.12291
141	0xc00b98e7	-2.1812074
142	0x414e0d40	12.878235
143	0x420f36f4	35.803665

encoder.0.weight f4 [16, 1, 3, 3]
0	0xc1bc2a2d	-23.520594
1	0xc244959c	-49.146103
2	0xc19b14ed	-19.385218
3	0x41b5070a	22.628437
4	0xc0abf254	-5.373331
5	0xc08433db	-4.13133
6	0x418e3120	17.773987
7	0x41339adc	11.225307
8	0xc1dc67b0	-27.550629
9	0xc02c1f5f	-2.6894147
10	0x410ea7c5	8.915959
11	0xbfc98886	-1.5744789
12	0x415214cb	13.130076
13	0xc19c6a57	-19.551924
14	0xc112deda	-9.179407
15	0x4183a10f	16.453642
16	0xc12b8740	-10.72052
17	0x4168d622	14.5522785
18	0xc10a0a60	-8.627533
19	0x41c2c0d6	24.344158
20	0xc0f1873b	-7.5477576
21	0x41b43d61	22.52997
22	0xbf2afd24	-0.6679251
23	0x42037b2e	32.870293
24	0xc1989345	-19.071909
25	0x41d80ce4	27.006294
26	0x3dc8c8f4	0.09803954
27	0xc0d8788a	-6.7647142
28	0xc253726b	-52.861736
29	0xc0f66a1c	-7.700453
30	0xc086934e	-4.2054815
31	0x4199a556	19.20573
32	0xc1c3d162	-24.477238
33	0x415121d9	13.070764
34	0xc1e4b699	-28.589159
35	0xc074f750	-3.8275948
36	0xc0bd4562	-5.9147196
37	0xc10a0201	-8.625489
38	0xc1684ec0	-14.519226
39	0xc0df150d	-6.9713197
40	0xc1c86b1b	-25.052298
41	0xc1b8e44a	-23.11147
42	0xc194f18e	-18.617947
43	0xc092686e	-4.575248
44	0xc110e359	-9.055505
45	0xc197715c	-18.930351
46	0xbee47fa1	-0.44628623
47	0xbf52ff64	-0.82420945
48	0xc1931e6f	-18.38986
49	0xc1acceb3	-21.600927
50	0xc054909e	-3.3213267
51	0xc1946559	-18.549486
52	0xc1adb5ca	-21.713764
53	0xc150239e	-13.008696
54	0x40878edb	4.2361884
55	0xc0460272	-3.0938993
56	0xc0c59ed0	-6.1756363
57	0x408ca3ee	4.395011
58	0xbf9aaaea	-1.2083409
59	0xc1d62f91	-26.773226
60	0x406a3fe5	3.6601498
61	0xc1ac867f	-21.565672
62	0x3f1a63b8	0.6030841
63	0x4145fda1	12.374421
64	0xc0c3877f	-6.11029
65	0x4044e293	3.076329
66	0xc1273886	-10.4513
67	0x3f6ed0f0	0.93287563
68	0xc18796da	-16.948658
69	0x41ad0cc7	21.631239
70	0xc112638b	-9.1493025
71	0x41c9696c	25.176476
72	0xc0a8874b	-5.2665153
73	0x41363ca0	11.389801
74	0x4198478e	19.034939
75	0x419d282e	19.644619
76	0x42004d0d	32.075245
77	0xc1d3af4d	-26.460596
78	0x4088fa64	4.2805653
79	0x40917c78	4.546444
80	0x41a8b112	21.08646
81	0xc12f3787	-10.9510565
82	0x410091c4	8.035587
83	0x4114f8dc	9.310757
84	0x4158a069	13.539163
85	0x418dd446	17.72865
86	0xc0e3ac0d	-7.1147523
87	0x420fa8e7	35.914944
88	0x40062d58	2.0965176
89	0x402f70f7	2.7412698
90	0xc197d7e4	-18.980415
91	0x418c05ee	17.502895
92	0x3eb1bfbc	0.34716594
93	0x4197da3c	18.98156
94	0xc062bee0	-3.5429
95	0xbf9fb6ed	-1.24777
96	0x412927b9	10.572198
97	0x41773ff1	15.453111
98	0x416d961c	14.849148
99	0x4175d7e9	15.365212
100	0x4114feff	9.312255
101	0xc10ee5b9	-8.931085
102	0x41c092ae	24.07162
103	0x4084e476	4.1528883
104	0xc113c728	-9.236122
105	0xc1bcfafd	-23.622553
106	0x41a5ca67	20.72383
107	0x407ca47c	3.9475393
108	0xc0a8c8d2	-5.274514
109	0xc14fc07f	-12.984496
110	0x3f0b782a	0.5448023
111	0x41aa9169	21.321001
112	0x41700a55	15.002522
113	0x41c6264e	24.768703
114	0x41b785ed	22.940393
115	0x4042326c	3.0343275
116	0xc17cef63	-15.808444
117	0x409d4492	4.9146204
118	0x3f028b24	0.5099356
119	0xc18c0371	-17.50168
120	0xc10e27f5	-8.884755
121	0xc22623e5	-41.535053
122	0xc1d6e1b3	-26.860205
123	0xc14371b2	-12.215258
124	0xc0d83077	-6.755916
125	0x40dbe0c7	6.8711886
126	0xc1a60b8f	-20.755644
127	0x4184bfd9	16.593676
128	0xc12619a1	-10.381257
129	0x41f4eee2	30.616642
130	0xc150b1d7	-13.043418
131	0x407f216b	3.9864147
132	0xc1a9e374	-21.236061
133	0xbf1c542d	-0.6106594
134	0xbf885b50	-1.0652866
135	0xc0f3540c	-7.6040096
136	0xc200b70b	-32.178753
137	0x40e005fd	7.000731
138	0xc0884d0f	-4.2594066
139	0x41a06a60	20.05194
140	0x3f81a08e	1.0127122
141	0xc16dcf1b	-14.863063
142	0xc2068ec9	-33.63944
143	0x40dfe297	6.99641

encoder.0.bias f4 [16]
0	0x41579bbd	13.475522
1	0x42594a2c	54.322433
2	0xc09276b0	-4.576988
3	0x41a68c52	20.818516
4	0xc1257da7	-10.343177
5	0x413c30d0	11.761917
6	0x419b384c	19.402489
7	0xc1ad67ae	-21.675625
8	0xc18b449e	-17.408504
9	0x40229d0b	2.5408351
10	0xc1eeab8f	-29.833769
11	0xc1c434e4	-24.525826
12	0xc00ce1ff	-2.2012937
13	0x3f47db9a	0.7806946
14	0xc17b7769	-15.716653
15	0xc1237aee	-10.217512

encoder.2.weight f4 [32, 16, 3, 3]
0	0x403652a2	2.8487935
1	0xc158fb03	-13.561282
2	0xc1073bcd	-8.4521
3	0x4065c7c9	3.590319
4	0xc20da675	-35.412556
5	0xc10cca5b	-8.799403
6	0xc2040076	-33.00045
7	0x40dcced2	6.9002466
8	0x412d74b9	10.840997
9	0xc1114004	-9.078129
10	0xc0da6d1f	-6.8258204
11	0x4245dcd5	49.465656
12	0xc1accb5d	-21.599298
13	0x412c10e4	10.754124
14	0xc249164e	-50.271782
15	0xc14079ae	-12.029707
16	0xc1fce945	-31.613901
17	0xc166c8d1	-14.424027
18	0xc192ad09	-18.33449
19	0xc184268c	-16.518822
20	0xc19a51b5	-19.289896
21	0xc13d9b84	-11.850468
22	0x40bd11fd	5.908446
23	0xc0caf5c9	-6.342503
24	0xc217629d	-37.846302
25	0x3ebf8a46	0.37410182
26	0xc19d9249	-19.696428
27	0xc078bd42	-3.8865514
28	0xc12b01ac	-10.687908
29	0x41665b9b	14.397365
30	0xc16ecf26	-14.925573
31	0x41219a2b	10.100139
32	0xc0261581	-2.5950625
33	0xc0a54f9b	-5.1659675
34	0x41e81fc9	29.01552
35	0x42200ee2	40.014534
36	0xc092b7e0	-4.5849457
37	0x40efd513	7.49476
38	0x40f8f5ff	7.780029
39	0xc0995c44	-4.792513
40	0xc10f6e63	-8.96445
41	0x41b1c8eb	22.223104
42	0xc05c7eec	-3.4452467
43	0xc1e8ebe4	-29.115181
44	0xc135ac40	-11.354553
45	0xc18d3860	-17.652527
46	0xbff0e5a4	-1.8820081
47	0xc09cbae2	-4.897813
48	0xc12511f3	-10.316882
49	0xc1b6d17e	-22.852291
50	0xc1abed1d	-21.490778
51	0x40171807	2.3608415
52	0xc15191d4	-13.098103
53	0x419d051e	19.627499
54	0x41dafee0	27.37445
55	0x417aedb0	15.683029
56	0xc19b8db0	-19.444183
57	0xc260f2e2	-56.23719
58	0xc1b45963	-22.543646
59	0xc189a2d6	-17.20451
60	0xc0f3ad72	-7.6149225
61	0xc1303d1a	-11.014917
62	0xc0d3475d	-6.6024613
63	0x41649050	14.285233
64	0x414567e6	12.337866
65	0xc1994918	-19.16069
66	0xc01d4b84	-2.457734
67	0x415789a5	13.471105
68	0x3ec5b9af	0.38618228
69	0xc1a9bf6e	-21.218472
70	0xc14b5031	-12.707078
71	0xc0a478b7	-5.1397357
72	0xc05d69df	-3.4595869
73	0x3fb9fc8d	1.4530197
74	0x4135c2e6	11.360083
75	0x418b283d	17.394648
76	0xc0165df1	-2.3494837
77	0x40a72aa8	5.223957
78	0x41e1b3a5	28.212717
79	0xc136f47c	-11.434689
80	0x41a37ceb	20.435995
81	0x41c4cd40	24.60022
82	0xc155694e	-13.338209
83	0xc14b4865	-12.705174
84	0xc0b34959	-5.6027036
85	0x41a3e5e3	20.48725
86	0xc119fc63	-9.624118
87	0xc0af967e	-5.4871206
88	0x4173b48b	15.231578
89	0xc12d786f	-10.841903
90	0x3f18f54c	0.59749293
91	0x41c35b6b	24.419638
92	0xc02f1592	-2.7356915
93	0xc136f0d7	-11.433799
94	0xc0b7398f	-5.725776
95	0xc0f19759	-7.549725
96	0xc1030462	-8.18857
97	0xc192aaf8	-18.33348
98	0xc16eab4e	-14.916822
99	0xc0cede0e	-6.4646063
100	0xc182bb58	-16.341476
101	0x420f0b84	35.761246
102	0x40b9b848	5.8037453
103	0xc1861be8	-16.763626
104	0x40b0cf5c	5.5253124
105	0xc1b1d4cd	-22.228907
106	0xc104d02c	-8.300823
107	0xc1940c59	-18.50603
108	0x411ba7fc	9.728512
109	0x41d57d12	26.68607
110	0x41bfd69b	23.979788
111	0x40e34ac1	7.102875
112	0xc195f34b	-18.743795
113	0x40c0b92e	6.022605
114	0x421600d0	37.500793
115	0x40c15479	6.0415616
116	0x4212b989	36.681187
117	0xc10a61fb	-8.648921
118	0xc16b3606	-14.700689
119	0x414c5d19	12.772729
120	0xc143cca9	-12.237466
121	0xc10b904f	-8.722732
122	0x4121f9ee	10.123518
123	0x3f8246d9	1.0177871
124	0xc141b9d0	-12.107864
125	0x4113d496	9.239401
126	0x414ca28c	12.789684
127	0xc1c9d88e	-25.23074
128	0x4192dac4	18.35682
129	0xc17ebf38	-15.921684
130	0x41d5fcb3	26.748388
131	0xc112df00	-9.179443
132	0x40ad4a31	5.4153066
133	0x4167235a	14.446131
134	0xc191c5bc	-18.22155
135	0xc1c08bb3	-24.068213
136	0xc02fd821	-2.7475665
137	0x40cd65ef	6.418693
138	0x40863e73	4.195123
139	0x41b75433	22.916113
140	0x41030d36	8.190725
141	0xbf1192d9	-0.56864697
142	0xc124002d	-10.250043
143	0xc1fb1116	-31.383343
144	0x4175968f	15.349257
145	0x40bcb5ae	5.8971777
146	0x40f7a6cd	7.7391114
147	0xc05167f4	-3.2719698
148	0x408ed4ed	4.463492
149	0xc1c8e0e6	-25.109814
150	0xc14a86e8	-12.657936
151	0xc1682c77	-14.510856
152	0xc194244d	-18.517725
153	0xc143e6fe	-12.243895
154	0xbf240fd2	-0.6408664
155	0xbf0ac74c	-0.5421035
156	0x41846a6e	16.551968
157	0x410f2168	8.945656
158	0x41c54ed2	24.663486
159	0x3e2b04c4	0.16701037
160	0x41f4c53c	30.596306
161	0x41da3a1c	27.278374
162	0xc0ecacdf	-7.3961024
163	0x41025b91	8.147355
164	0xc127a82d	-10.478559
165	0x41c74773	24.909887
166	0xc0befdd7	-5.9684863
167	0x4120ca54	10.0493965
168	0x41d780a7	26.937819
169	0xc1674e09	-14.456552
170	0x40883873	4.256891
171	0xc1116b5f	-9.088714
172	0xc1fd6939	-31.676378
173	0x4090f680	4.5300903
174	0x41bdd561	23.729189
175	0xbf98aa9d	-1.1927067
176	0x416eeaba	14.932306
177	0xc1ae8d9a	-21.819141
178	0xc14cd320	-12.801544
179	0x40c98d25	6.2984796
180	0x40fc5f93	7.886667
181	0x41578707	13.470466
182	0x41949e2e	18.577236
183	0x417051aa	15.0199375
184	0x410a7945	8.654607
185	0x411fb76e	9.982283
186	0xbfe496c6	-1.7858512
187	0x40d0a7a7	6.5204654
188	0x41a63172	20.774143
189	0x4189ed5c	17.240898
190	0x42345952	45.087227
191	0x40672b9c	3.6120367
192	0x419c8ef4	19.569801
193	0x4184c6ae	16.597012
194	0xc10c46e3	-8.767306
195	0x3e3e07eb	0.18557708
196	0x40feb850	7.959999
197	0xc0199488	-2.3996906
198	0xc200cbc6	-32.198997
199	0x420b9265	34.892963
200	0x41b7ce1f	22.975645
201	0x418e180e	17.761745
202	0xc08bd014	-4.36915
203	0xc1816088	-16.172134
204	0xc12c31d6	-10.762167
205	0xc1957e1a	-18.686573
206	0xc1035d50	-8.210281
207	0x410e5f92	8.898333
208	0x418fe7c4	17.988167
209	0x41e09380	28.072021
210	0xc196fe29	-18.874102
211	0x414f6027	12.960975
212	0x41bd6e91	23.678988
213	0x3f2893be	0.65850437
214	0xc23957f0	-46.335876
215	0xc11526db	-9.321986
216	0xc181ae56	-16.210125
217	0xc16f07a3	-14.939364
218	0x3f8a5cec	1.0809608
219	0xc06cde21	-3.7010577
220	0xbf53ca1a	-0.8273026
221	0xc21bcbf1	-38.94916
222	0x4142c976	12.174185
223	0x423a97e1	46.64832
224	0xc0e8290c	-7.2550106
225	0xc1b23218	-22.27446
226	0xc103fe94	-8.249653
227	0x41a54f28	20.66365
228	0x3ef94d7d	0.4869193
229	0x409789d1	4.7355733
230	0x42225110	40.579163
231	0xc0d94a93	-6.7903533
232	0xc018396a	-2.3785043
233	0xc217a5c1	-37.91187
234	0xc17a7919	-15.654565
235	0xc101e4ef	-8.118392
236	0xc1364610	-11.392105
237	0x418d326d	17.649622
238	0x417c487d	15.767697
239	0xc1b6545a	-22.791187
240	0xc0646ba3	-3.5690696
241	0xc0997a0c	-4.7961483
242	0xc113cdb1	-9.237718
243	0x420b7352	34.862617
244	0xc1270b49	-10.440255
245	0x3fb24857	1.3928326
246	0xc0eede8e	-7.4646673
247	0xc1dd89a0	-27.6922
248	0x4201753e	32.364494
249	0xc13fdb5e	-11.991056
250	0xc1457ab1	-12.342454
251	0xc10c0164	-8.7503395
252	0xc088bf6a	-4.273366
253	0xc1b75f7e	-22.921627
254	0xc05d7030	-3.4599724
255	0xc1214f14	-10.081806

encoder.2.bias f4 [32]
0	0x40a0247c	5.0044537
1	0x408a38dd	4.3194413
2	0x3f5d4b47	0.8644299
3	0xc08c1cb7	-4.378505
4	0xc12a5bdd	-10.647428
5	0x408257dd	4.0732255
6	0x4127697f	10.463256
7	0xc0cceb83	-6.403749
8	0xc11728fb	-9.447505
9	0x3fc5e35f	1.5460013
10	0xc181a4dc	-16.205498
11	0xc1a5fd52	-20.748692
12	0x40dd235b	6.910566
13	0xc1efb546	-29.963512
14	0xc229b7f7	-42.429653
15	0xc016e390	-2.3576393
16	0xc21b772e	-38.866386
17	0x3fb1475b	1.3849901
18	0x41f55255	30.665201
19	0x41ace6a2	21.612614
20	0x41c3e03b	24.484488
21	0x41afc6fc	21.97216
22	0xc2093ca2	-34.30921
23	0xc0fa17c2	-7.8154
24	0xc0261689	-2.5951254
25	0x3f8d1b33	1.1023926
26	0xc0d246b4	-6.5711308
27	0x411a1e71	9.632432
28	0x404061e3	3.0059745
29	0x41b85426	23.041088
30	0x41b996f6	23.198711
31	0xc0ca1fb7	-6.3163714

decoder.0.weight f4 [16, 32, 3, 3]
0	0xc1857538	-16.682236
1	0x40ff219d	7.972853
2	0x41f98832	31.191502
3	0xc00f7be4	-2.2419367
4	0x41990418	19.126999
5	0xc16329ad	-14.197675
6	0xc112eb28	-9.182411
7	0x41251ac1	10.319032
8	0x411f8396	9.969625
9	0xc1b45cf8	-22.545395
10	0xbf976b85	-1.1829687
11	0xc15dbab5	-13.858083
12	0xc13f97b6	-11.974539
13	0xc1c4d54e	-24.604153
14	0x4204e74f	33.225887
15	0x41f82202	31.016605
16	0x420ee4f4	35.723587
17	0x415b0dbd	13.690854
18	0x40f038ef	7.50695
19	0x41f2c06e	30.34396
20	0x418b78bc	17.433952
21	0x40e67147	7.201328
22	0xc206d018	-33.703217
23	0x41173563	9.450534
24	0xc1d2dda7	-26.358229
25	0x412d3968	10.826515
26	0xc136ad79	-11.417352
27	0x416909a2	14.564852
28	0x41af66f3	21.925268
29	0x4094a28a	4.644841
30	0x40ffd56d	7.994803
31	0xbf34c479	-0.70612293
32	0xc105cfa6	-8.363195
33	0x412410a6	10.254065
34	0x40197b44	2.3981485
35	0xc1714bca	-15.081003
36	0xc045c560	-3.0901718
37	0x40a92628	5.2859077
38	0x3f9f60b2	1.2451384
39	0x40862166	4.191577
40	0x4204b97f	33.18115
41	0xc14e1cc6	-12.882025
42	0xc1640379	-14.250848
43	0xc0d56b4c	-6.669348
44	0x418770e2	16.930119
45	0x3e2f5d4c	0.17125434
46	0xc20aede2	-34.732307
47	0x41cc5104	25.539558
48	0x4189aaa6	17.208324
49	0xbe4ccd16	-0.20000109
50	0xbf231cff	-0.6371612
51	0x419a3dd0	19.280182
52	0x41bebefd	23.843256
53	0xc15961e8	-13.586403
54	0x414cc4e0	12.798065
55	0xbf0573ff	-0.5213012
56	0xc0d59db7	-6.6755023
57	0x408765be	4.2311697
58	0xc1e3578b	-28.417746
59	0xc0965231	-4.697533
60	0xc17d5322	-15.832796
61	0xc19cc139	-19.594347
62	0x411cc6d6	9.798544
63	0xc190a907	-18.082533
64	0x40602a31	3.5025752
65	0x41616b0d	14.088635
66	0xc1af6265	-21.923044
67	0xc1c9ffd1	-25.24991
68	0x417d27ce	15.822218
69	0x413c307d	11.761838
70	0xc1ad8a78	-21.692612
71	0x3f78f013	0.97241324
72	0x40479d02	3.118958
73	0xc1886e0f	-17.05374
74	0x3fb1c71b	1.3888887
75	0xc0ca3904	-6.31946
76	0xc1e442d0	-28.532623
77	0x41d08eb5	26.069681
78	0xc11f198c	-9.943737
79	0x4195dabf	18.73181
80	0xc1f3c0d6	-30.469158
81	0xc0a02a05	-5.0051293
82	0xc05ff4dc	-3.49932
83	0xc1381c46	-11.506903
84	0x419aef1c	19.366753
85	0x3f7bcb1a	0.98356783
86	0xc054bda3	-3.3240745
87	0xbfd33492	-1.6500418
88	0xc1a11feb	-20.140585
89	0x3b85bea0	0.004081562
90	0xc09253ff	-4.5727534
91	0x41bfec71	23.99045
92	0x40cbf9bd	6.3742356
93	0x41ff018e	31.87576
94	0xc17af895	-15.685689
95	0xc15e364e	-13.888258
96	0xc1357f08	-11.3435135
97	0xc1587b1a	-13.530054
98	0xc1cd920a	-25.696308
99	0xc0a353ee	-5.1039953
100	0x41c32a8f	24.39578
101	0x409b62c4	4.8558064
102	0x4086a18f	4.2072215
103	0x4202b56a	32.677162
104	0xc07c8526	-3.9456267
105	0x41b0554a	22.041645
106	0xc02da45c	-2.7131567
107	0xc16e65b8	-14.899834
108	0xc2378749	-45.882114
109	0x4137ab9b	11.479396
110	0x41af14e1	21.885195
111	0x40bf236e	5.973075
112	0xbe13c8ce	-0.1443207
113	0x41af2095	21.89091
114	0xc19b82df	-19.438902
115	0x4199defc	19.23388
116	0x4138e470	11.555771
117	0x4144e12d	12.304975
118	0x408bf89d	4.3740983
119	0xc102bfd3	-8.171832
120	0x419f1b7e	19.888424
121	0x412bd5bf	10.739684
122	0xc1bfba6d	-23.966028
123	0x41995f05	19.171396
124	0xc162ac00	-14.166992
125	0x41ba9b30	23.325775
126	0xc08528ac	-4.161215
127	0xc2146b62	-37.104866
128	0xc1bf3031	-23.898531
129	0x41f15f47	30.171522
130	0x41556bda	13.338831
131	0x4194de6d	18.608606
132	0x4179c51a	15.6106205
133	0xc18983a4	-17.189278
134	0x415040f8	13.0158615
135	0xc0a4c84f	-5.1494517
136	0xc194290d	-18.520044
137	0xc195ae14	-18.71
138	0x40e3a37b	7.113706
139	0x3fb2924f	1.39509
140	0xc034c1a1	-2.8243182
141	0xc21fc2df	-39.940304
142	0x3f212eac	0.6296184
143	0xc1f1be29	-30.217852
144	0x3fc3c1de	1.5293539
145	0xc13cdc15	-11.803731
146	0xc09ba342	-4.863679
147	0x406d0837	3.7036264
148	0xc114bdd1	-9.296342
149	0xc1743fde	-15.265593
150	0xc1e9e8c7	-29.23866
151	0xbf82faf7	-1.0232838
152	0x41d35758	26.417648
153	0x41b89557	23.07292
154	0x419048ad	18.035486
155	0x41d76637	26.92491
156	0x3ff0d992	1.8816397
157	0x41f8c5d4	31.096596
158	0x4192ef49	18.366838
159	0x41c423d9	24.517504
160	0x402a6a27	2.662729
161	0xc073e9b4	-3.811139
162	0xc1821337	-16.259382
163	0x4119b1be	9.605894
164	0x411596de	9.349333
165	0x411bb705	9.7321825
166	0x4063f12b	3.5615947
167	0x41a163c0	20.173706
168	0x40f5dd57	7.683269
169	0xc0562a82	-3.3463445
170	0xc0dcd17f	-6.9005733
171	0xc1490bb1	-12.565354
172	0x411cadf2	9.792467
173	0xc1290734	-10.564259
174	0x4182d197	16.352339
175	0xc0a427bc	-5.1298504
176	0x4196e811	18.863314
177	0x41537a3a	13.21734
178	0x41709c81	15.038209
179	0xc0494d2c	-3.1453352
180	0xc1d63310	-26.774933
181	0x4149d1f9	12.613763
182	0x3fa03712	1.2516806
183	0x3fcd14b2	1.6021941
184	0x40e23760	7.0692596
185	0xc1bb1bdb	-23.388601
186	0x4059f11d	3.4053414
187	0xc157deb1	-13.491868
188	0x4186a063	16.828314
189	0xc12bc89f	-10.73648
190	0x411884a3	9.532382
191	0xc138f9a6	-11.560949
192	0xc1fa53a6	-31.290844
193	0xc21ac602	-38.693367
194	0xc128ff11	-10.562272
195	0x41b1abf1	22.208956
196	0xbfe994c0	-1.824852
197	0x41e0a065	28.078318
198	0x41c26c9a	24.303028
199	0x408f30ee	4.474723
200	0xbfb2ad75	-1.3959185
201	0xc1185fab	-9.523356
202	0x40bef740	5.967682
203	0xc21a3232	-38.54902
204	0xc19302d9	-18.37639
205	0xc1f0d46f	-30.103727
206	0xc0d4e98d	-6.6535096
207	0x4177204a	15.445383
208	0xc013fa68	-2.3121586
209	0xc1794860	-15.58017
210	0xc11f4291	-9.953752
211	0x4196b44a	18.838032
212	0xc1af1592	-21.885532
213	0x41591ff0	13.570297
214	0x3efa2e4f	0.48863456
215	0x419ecbea	19.849567
216	0xbec854da	-0.39127237
217	0x41b47f52	22.562168
218	0x410a4649	8.642159
219	0x408d42e4	4.4144154
220	0x41900ac2	18.005253
221	0xbfb39325	-1.402928
222	0xc1627dd9	-14.155725
223	0x3fc9bde4	1.5761075
224	0xc12217eb	-10.130839
225	0xc1f83dcf	-31.03018
226	0xc03703fc	-2.8596182
227	0x3f7ba43d	0.9829748
228	0xc225c1f3	-41.439404
229	0xc0419c96	-3.0251822
230	0x419cc440	19.595825
231	0xc1433e8d	-12.202771
232	0xc1a1a6be	-20.206417
233	0x412c7a4c	10.779858
234	0xc116e221	-9.430207
235	0x4162c931	14.174119
236	0x4161c944	14.111637
237	0x3ec0aca1	0.37631705
238	0x4131b0b9	11.105645
239	0x4134ef6f	11.308455
240	0xc1645e47	-14.273017
241	0x40d42aad	6.6302094
242	0xc1864328	-16.782791
243	0x410391bb	8.223079
244	0x41840d31	16.506441
245	0x41392b55	11.573079
246	0xc1c93178	-25.149155
247	0x3f4e5438	0.8059726
248	0x4024aa2f	2.5728872
249	0xc1ca99f6	-25.325176
250	0x41a6a731	20.831636
251	0xc16d4390	-14.828995
252	0x41050a8e	8.315077
253	0x40c5f409	6.1860394
254	0x412f67d3	10.962848
255	0xc109a770	-8.603378

decoder.0.bias f4 [16]
0	0x4014373f	2.315872
1	0x3ee91762	0.45525652
2	0xbf5c32ef	-0.8601522
3	0xc08c0f9e	-4.3769064
4	0xc1fba0f1	-31.453585
5	0x402076ae	2.5072436
6	0x3f0e9ba8	0.5570626
7	0xc1c71b83	-24.888433
8	0x41740714	15.251728
9	0xc1f37017	-30.429731
10	0xc144877e	-12.283079
11	0xc139abfd	-11.604489
12	0xc1a5c2c5	-20.720102
13	0x3ebd07a6	0.36919898
14	0x3f3b8a25	0.73257667
15	0xc177c3a1	-15.485261

decoder.2.weight f4 [1, 16, 3, 3]
0	0xc152c720	-13.1736145
1	0xc1bb78b3	-23.433935
2	0x418cbf0e	17.593288
3	0x40d012cc	6.5022945
4	0xc13c3ec7	-11.7653265
5	0xc0b3b87f	-5.6162715
6	0xc13e2d50	-11.886063
7	0xc19c460c	-19.534203
8	0x3f87b7ae	1.060293
9	0xc1246ca1	-10.276521
10	0x41eddf24	29.733955
11	0xc0a8c70a	-5.2742968
12	0x41cbf528	25.494705
13	0xc0b5653e	-5.6686087
14	0x41238d65	10.22202
15	0x40d2915c	6.580244
16	0x3f35c674	0.7100594
17	0xc20b33f0	-34.80072
18	0x403cd137	2.9502695
19	0x3e11feb2	0.14257315
20	0xc1882bc8	-17.021378
21	0x41169036	9.410208
22	0xc154853e	-13.28253
23	0x41aed4a8	21.853836
24	0xc19d7ccd	-19.685938
25	0xc183a134	-16.453712
26	0xc0f47221	-7.6389318
27	0xc1a2360d	-20.276392
28	0xc11a6309	-9.6491785
29	0xc1b76160	-22.922546
30	0x3ebfb727	0.37444422
31	0xc1c718db	-24.887136
32	0xc1bd7b6f	-23.68527
33	0x3e669411	0.2251742
34	0x416607b0	14.376877
35	0xc1d85808	-27.042984
36	0x40371a33	2.860974
37	0xc20fed82	-35.98194
38	0xbfabc241	-1.3418657
39	0xc1f290c5	-30.320688
40	0xc0aaadb5	-5.3337045
41	0xc1aca552	-21.580723
42	0xc11cfa38	-9.811089
43	0xc2217c46	-40.37136
44	0x41a4cc9c	20.599907
45	0x3f82b577	1.0211629
46	0xc035bfe4	-2.839837
47	0x40e70686	7.2195463
48	0xc17e8f84	-15.910038
49	0x4096df0d	4.714728
50	0xc1660104	-14.375248
51	0xbf352892	-0.7076503
52	0x4087eeb4	4.2478886
53	0xc1c6dfa5	-24.859201
54	0xc09691f5	-4.705317
55	0xc0f0f47c	-7.5298443
56	0xc142c09d	-12.172025
57	0xc1772d05	-15.448491
58	0x4189b765	17.214548
59	0xc084329a	-4.131177
60	0x41a3b255	20.462076
61	0x41074a8f	8.455703
62	0xc19880c5	-19.062876
63	0xc05ddbcd	-3.4665406
64	0x418354b9	16.416368
65	0xc161b407	-14.106452
66	0x4105c704	8.361088
67	0xc1e2a51a	-28.330616
68	0x407074b8	3.757124
69	0x3ed619e9	0.41816643
70	0x40e5f97e	7.1867056
71	0xc14cb4db	-12.794154
72	0xc09f8f2f	-4.9862285
73	0xc1df6e0e	-27.928738
74	0x4083c8ce	4.1182623
75	0xc09e1727	-4.940326
76	0xc16c60c2	-14.7736225
77	0xc150a63d	-13.0405855
78	0x41697118	14.590111
79	0xc16ae33f	-14.68048
80	0x41a13cfe	20.154781
81	0xc1bde985	-23.739023
82	0xc119b7bd	-9.607358
83	0x417b500c	15.707043
84	0xc1a9ca24	-21.223701
85	0xc1e67ce9	-28.810991
86	0xc14894ad	-12.536298
87	0xbd894440	-0.06702471
88	0xc181b8ac	-16.215172
89	0xc1a6d3ff	-20.853514
90	0xbf17a64e	-0.59238136
91	0xc0f91be4	-7.7846546
92	0x420eb040	35.67212
93	0x40fe9aa1	7.9563756
94	0x4185e141	16.734987
95	0xc0e91618	-7.283947
96	0x41200670	10.001572
97	0xc1966e06	-18.803722
98	0x3e5ef444	0.21772867
99	0xbfe21150	-1.7661533
100	0x401efd7c	2.4842215
101	0xc03f2b93	-2.9870346
102	0xc08789ef	-4.2355876
103	0xc0d7f157	-6.7482104
104	0xc093bd66	-4.61687
105	0xc1318517	-11.094993
106	0x40e3eb2e	7.1224585
107	0xc1ca0045	-25.250132
108	0xbf47baa9	-0.78019196
109	0xc0cb8eaa	-6.361165
110	0xc1568c08	-13.409187
111	0xc12fc42b	-10.985393
112	0xc1e96645	-29.174936
113	0x41045c4f	8.272536
114	0xc1f9805a	-31.187672
115	0xc0671991	-3.6109354
116	0xc1888e24	-17.069405
117	0x410366c5	8.21259
118	0xc0b4a338	-5.644924
119	0x41b1076f	22.12863
120	0xc1e30f96	-28.38261
121	0x40c7f95e	6.2491903
122	0xc232a822	-44.664192
123	0x41c23457	24.275557
124	0xc19dc10e	-19.719265
125	0x4183a0e6	16.453564
126	0x4123615e	10.211271
127	0xc03a45d2	-2.9105115
128	0xc0e06640	-7.0124817
129	0x4139d9f8	11.615715
130	0xc16ea9f2	-14.916491
131	0xc0c18a76	-6.048152
132	0x41b55bbe	22.669796
133	0x40a4c475	5.1489816
134	0xc15a58cb	-13.646678
135	0x41b7e36c	22.986046
136	0xc1a307df	-20.378843
137	0x4202f772	32.741646
138	0xc191b239	-18.212023
139	0x4197644c	18.923973
140	0xc0c3eee1	-6.12291
141	0xc00b98e7	-2.1812074
142	0x414e0d40	12.878235
143	0x420f36f4	35.803665
