candidate_networks/inet6_5.pt (torch, 41295 bytes, 14 tensors)

c1.weight f4 [16, 1, 3, 3]
000000 f5 90 ba c1 47 5b 42 c2 60 6b a5 c1 d8 e8 ad 41
       -23.32078 -48.589138 -20.67743 21.738693
000010 50 be c8 c0 27 82 7f c0 08 dc 8b 41 d7 f8 2c 41
       -6.2732315 -3.9923189 17.482437 10.810752
000020 49 eb e2 c1 e7 b4 06 c0 f2 78 f5 40 4c 3c 78 bf
       -28.364885 -2.1047914 7.671014 -0.96967006
000030 7a 7d 55 41 a6 c9 a2 c1 5e 1b 08 c1 ba 3b 73 41
       13.343134 -20.348461 -8.506681 15.202082
000040 f5 8d 31 c1 8a b1 78 41 e4 ba 1e c1 01 c7 ca 41
       -11.0971575 15.5433445 -9.920628 25.34717
000050 25 25 eb c0 69 c2 a6 41 dc 5a 16 bf a9 08 02 42
       -7.3482842 20.844927 -0.5873239 32.508457
000060 90 6c 91 c1 3f 07 d3 41 70 f1 22 3b f5 af e3 c0
       -18.178009 26.378538 0.0024863146 -7.115229
000070 fe a7 4f c2 67 10 da c0 e5 d3 a5 c0 51 91 9b 41
       -51.914055 -6.8145022 -5.182116 19.445955
000080 2c 38 ba c1 a1 0f 4a 41 0f 54 e6 c1 3e c2 81 c0
       -23.277428 12.628816 -28.791044 -4.054961
000090 01 10 d0 c0 33 1f 0e c1 2b 07 6a c1 e1 c6 d5 c0
       -6.5019536 -8.882617 -14.62675 -6.680527
0000a0 06 b5 cb c1 63 47 c3 c1 b9 fe 9b c1 a6 79 44 c0
       -25.46339 -24.409857 -19.499376 -3.0699248
0000b0 aa d0 14 c1 93 b4 9a c1 40 3b 65 bb d9 6a b3 bf
       -9.300943 -19.338171 -0.0034977943 -1.4016982
0000c0 4e c4 98 c1 95 fd b3 c1 2b a4 5a c0 70 f2 93 c1
       -19.095852 -22.49882 -3.41627 -18.493378
0000d0 99 9a ae c1 4d e0 44 c1 5c 71 8e 40 82 23 03 c0
       -21.825487 -12.304761 4.451338 -2.0490422
0000e0 ee cb bc c0 9a f0 7c 40 c2 50 8e 3e 02 2e d9 c1
       -5.8998938 3.9521852 0.27795988 -27.147465
0000f0 fa 6a 8b 40 3f 14 ab c1 1c 43 04 be f2 f3 52 41
       4.3568087 -21.384886 -0.12916225 13.184557
000100 15 61 cd c0 06 a5 5d 40 5d 50 0f c1 0f c4 0b 3f
       -6.418101 3.4631972 -8.95712 0.54596037
000110 e4 e7 8e c1 90 24 a7 41 97 68 02 c1 4c f2 d3 41
       -17.863228 20.892853 -8.150535 26.493309
000120 bc ae 7d c0 8d 6b 33 41 c1 07 95 41 59 94 9f 41
       -3.96379 11.2137575 18.628786 19.947435
000130 11 d7 f1 41 c6 48 cd c1 4d 17 80 40 0a b2 9f 40
       30.230013 -25.660534 4.0028443 4.9904833
000140 51 1f ab 41 9f cf 2c c1 2e a9 f1 40 74 81 19 41
       21.390291 -10.800689 7.551902 9.594105
000150 49 ee 5b 41 48 77 88 41 b6 b8 f7 c0 49 9e 0f 42
       13.745675 17.058243 -7.7412977 35.904575
000160 7a 6a fb 3f 05 99 f1 3f 94 b9 99 c1 c8 43 8c 41
       1.9641869 1.8874823 -19.215614 17.533096
000170 b1 3a f6 be 10 b1 99 41 66 cd 4f c0 15 40 83 bf
       -0.48091653 19.211456 -3.2469115 -1.0253931
000180 77 bf 29 41 d4 8f 69 41 00 b7 70 41 9f bc 79 41
       10.609244 14.597614 15.044678 15.60855
000190 e3 02 08 41 98 80 0c c1 9d ba bc 41 25 cc 80 40
       8.500705 -8.781395 23.59112 4.02492
0001a0 31 68 11 c1 f4 78 be c1 b1 c4 a8 41 62 9c 37 40
       -9.087937 -23.80906 21.09604 2.8689198
0001b0 f6 c5 72 c0 db 70 40 c1 b0 0a e1 bd f2 01 ab 41
       -3.7933326 -12.027553 -0.109883666 21.37595
0001c0 09 5d 85 41 18 ed c5 41 f9 c4 b5 41 df 6e 2e 40
       16.670427 24.740768 22.721178 2.725517
0001d0 d8 d0 7f c1 b5 67 92 40 7c 81 5e 3f 10 b0 9b c1
       -15.988487 4.5751595 0.8691633 -19.460968
0001e0 57 89 f9 c0 d6 f1 20 c2 18 b8 d2 c1 fd 6f 46 c1
       -7.798015 -40.236168 -26.33989 -12.402341
0001f0 a2 5c d6 c0 f9 9e be 40 43 39 ad c1 be 5d 81 41
       -6.6988077 5.956906 -21.65296 16.170773
000200 a2 3b 21 c1 65 5c fe 41 6b 38 58 c1 aa d1 7d 40
       -10.077059 31.795115 -13.513774 3.9659219
000210 2c 6e aa c1 ce 73 7b bd 9a f8 8c 3d c5 9e 0c c1
       -21.303795 -0.061389737 0.068833545 -8.788762
000220 c4 f4 fa c1 4a b7 b7 40 71 76 a2 c0 ba 11 9e 41
       -31.369514 5.741124 -5.076958 19.758656
000230 12 f5 d5 3f 91 50 69 c1 5f 98 03 c2 34 7b e3 40
       1.6715415 -14.58217 -32.8988 7.1087894

c1.bias f4 [16]
000000 81 b3 5d 41 76 48 58 42 05 93 9b c0 54 82 a7 41
       13.856324 54.070763 -4.8616967 20.938637
000010 89 d1 2f c1 66 e4 44 41 e1 02 97 41 dd 0f ac c1
       -10.988656 12.305761 18.876406 -21.507746
000020 c3 9c 8b c1 69 23 2a 40 0d c6 ef c1 c3 c3 c3 c1
       -17.451544 2.6584113 -29.971704 -24.470587
000030 71 93 40 c0 c2 49 26 be 52 db 74 c1 d3 42 29 c1
       -3.008999 -0.16239074 -15.303545 -10.5788145

c2.weight f4 [32, 16, 3, 3]
000000 83 48 3e 40 d5 53 50 c1 8a 9b f8 c0 77 15 74 40
       2.9731758 -13.020467 -7.7689867 3.81381
000010 db 83 0d c2 e3 7a ff c0 2f af 04 c2 81 72 f6 40
       -35.378765 -7.983751 -33.171078 7.7014775
000020 3a 24 31 41 6a 72 01 c1 35 8a d5 c0 f1 07 45 42
       11.071344 -8.090433 -6.673121 49.257755
000030 99 07 a5 c1 2c 63 2d 41 20 06 45 c2 33 c1 3e c1
       -20.62871 10.836712 -49.25598 -11.922168
000040 ab 07 fd c1 f4 8c 65 c1 4d c7 91 c1 5b 41 81 c1
       -31.628744 -14.346912 -18.222315 -16.156912
000050 6f fc 8e c1 f6 7b 3d c1 ff a5 b6 40 ae 66 eb c0
       -17.873259 -11.842764 5.707763 -7.356284
000060 92 36 1b c2 ff f9 c9 3f ee 08 9c c1 21 71 2f c0
       -38.80329 1.5779418 -19.50436 -2.7412798
000070 c6 1e 29 c1 70 97 72 41 7d d0 59 c1 90 7f 1c 41
       -10.570013 15.161972 -13.6134 9.781143
000080 ed c4 28 c0 ee ba bc c0 18 c8 dc 41 bc 40 21 42
       -2.6370194 -5.8978186 27.597702 40.313217
000090 f9 3a 62 c0 8e e3 ff 40 08 e9 e5 40 b4 16 8b c0
       -3.5348494 7.9965277 7.184696 -4.3465214
0000a0 1f 39 ff c0 40 7a b5 41 db 1a 65 c0 c4 8e e4 c1
       -7.975723 22.684692 -3.5797641 -28.56971
0000b0 48 41 38 c1 9e 05 90 c1 9d ac 23 bf 19 b1 66 c0
       -11.515938 -18.002743 -0.6393526 -3.6045592
0000c0 c2 72 20 c1 d2 96 b8 c1 c6 cb a6 c1 55 7b 26 40
       -10.028017 -23.073643 -20.849499 2.6012776
0000d0 3f d8 53 c1 f6 14 96 41 ff a8 db 41 d0 f8 7c 41
       -13.240294 18.760235 27.457518 15.810745
0000e0 aa 80 a5 c1 43 a3 60 c2 bd a7 aa c1 f8 26 95 c1
       -20.687824 -56.159435 -21.331903 -18.644028
0000f0 de 29 10 c1 88 66 40 c1 ca ff eb c0 be e8 54 41
       -9.0102215 -12.025032 -7.3749743 13.306822
000100 38 1f 46 41 c9 51 98 c1 4f 85 11 c0 a9 b9 4b 41
       12.382622 -19.039934 -2.2737615 12.732827
000110 53 96 db 3e fd 2e a9 c1 7d c9 4a c1 ec c2 c2 c0
       0.42888126 -21.147943 -12.674191 -6.086294
000120 6d a2 4c c0 f3 2b 3a 40 ae 4c 49 41 4e 69 84 41
       -3.1974137 2.9089324 12.581221 16.551418
000130 fd 06 b0 bf 16 2f 8b 40 73 79 e1 41 ec 1a 37 c1
       -1.3752133 4.349498 28.184301 -11.444073
000140 da 3e a4 41 19 49 c5 41 02 d2 50 c1 14 15 4f c1
       20.53069 24.660692 -13.051271 -12.942646
000150 51 04 aa c0 62 38 a2 41 d8 cd 28 c1 ab 8a c1 c0
       -5.313027 20.27753 -10.550255 -6.0481772
000160 c5 32 7d 41 38 b6 2f c1 7b 27 df 3f 7e f2 be 41
       15.824895 -10.981987 1.7433923 23.868404
000170 ba b6 d7 bf 98 1a 16 c1 83 2d c9 c0 11 b3 ea c0
       -1.6852639 -9.381493 -6.2868056 -7.3343587
000180 7d f7 f8 c0 cd 59 9c c1 ec 49 73 c1 8c b2 c8 c0
       -7.780211 -19.543848 -15.205547 -6.2717953
000190 e3 43 80 c1 a4 b8 0b 42 89 3d ce 40 36 56 87 c1
       -16.033148 34.930313 6.4450116 -16.917095
0001a0 6e 04 ac 40 0b eb b7 c1 d7 8b 13 c1 a3 28 8c c1
       5.3755407 -22.989767 -9.221641 -17.519842
0001b0 19 cb 12 41 30 21 d2 41 f1 2a bf 41 fb 02 df 40
       9.174584 26.266205 23.895967 6.969114
0001c0 d5 31 9a c1 33 ee c6 40 91 a3 16 42 51 7e a7 40
       -19.274332 6.216577 37.659733 5.2341695
0001d0 e5 59 12 42 bb bf 03 c1 2b 6b 55 c1 9f 4d 4d 41
       36.587788 -8.234309 -13.338664 12.83145
0001e0 52 ae 46 c1 66 9b 08 c1 6f 73 3a 41 18 47 17 3f
       -12.417559 -8.537939 11.653182 0.59092855
0001f0 a1 93 41 c1 c4 4b 00 41 7b c1 50 41 cf 27 c9 c1
       -12.098542 8.018497 13.047236 -25.144438
000200 0e a2 7d 41 2a 07 7a c1 8c bd d1 41 6b a8 1e c1
       15.852064 -15.626749 26.217552 -9.916118
000210 77 54 a1 40 f8 ae 50 41 b4 5c 87 c1 f4 83 bc c1
       5.0415606 13.042717 -16.920265 -23.56443
000220 6e 7b 3f c0 dc d6 02 41 c3 33 8c 40 27 3e b5 41
       -2.9919086 8.177456 4.3813186 22.655348
000230 9d b4 05 41 91 79 09 bf 61 0e 26 c1 09 39 f6 c1
       8.356595 -0.5370112 -10.37851 -30.77785
000240 52 5a 78 41 52 b6 a0 40 c5 11 ce 40 b5 2b 6e c0
       15.522051 5.022256 6.439669 -3.7214177
000250 70 4c 9a 40 f8 5e c7 c1 00 f2 4a c1 e4 6b 79 c1
       4.8218307 -24.921371 -12.684082 -15.5888405
000260 4f d5 91 c1 9a a3 40 c1 3f eb 3f be 0a f8 8a bf
       -18.229155 -12.039942 -0.18742083 -1.0856946
000270 c7 70 85 41 97 78 14 41 dd 63 c8 41 1e 93 6e 3e
       16.680067 9.279441 25.048761 0.23298308
000280 2a 62 f4 41 31 5b dc 41 8f e3 da c0 aa ac 09 41
       30.547932 27.544527 -6.840278 8.604654
000290 fc 09 41 c1 d6 93 c9 41 87 ce a3 c0 ad 3b 25 41
       -12.064938 25.197186 -5.118961 10.327069
0002a0 7e d8 db 41 0f f5 67 c1 9b 5b 88 40 c1 a3 13 c1
       27.48071 -14.497329 4.2611823 -9.227479
0002b0 88 61 f9 c1 cd 74 75 40 88 37 b9 41 57 37 2e bf
       -31.172623 3.835254 23.152115 -0.6805319
0002c0 10 5c 63 41 fe 40 a9 c1 2d 61 58 c1 2a 2e d2 40
       14.209976 -21.156734 -13.523725 6.5681353
0002d0 d4 e4 06 41 51 22 61 41 67 03 9e 41 ed 92 7f 41
       8.430866 14.070878 19.751661 15.973371
0002e0 e0 5a 11 41 42 31 1f 41 31 c4 6e bf 5b 66 fd 40
       9.084686 9.949526 -0.93268114 7.9187446
0002f0 a5 2a a2 41 d6 05 8d 41 42 80 34 42 cf a4 55 40
       20.270823 17.62785 45.12525 3.338184
000300 4b 3a 95 41 f9 25 82 41 5f 92 f6 c0 8c 49 19 bf
       18.653463 16.268541 -7.7053676 -0.5987785
000310 78 77 02 41 b5 ea 1e c0 d5 bd 01 c2 e2 af 0a 42
       8.154167 -2.4830754 -32.435383 34.67176
000320 57 c1 b3 41 03 2f 8e 41 cd fc a2 c0 94 cc 76 c1
       22.469404 17.772955 -5.0933595 -15.424946
000330 55 07 22 c1 e6 d0 92 c1 bf 5a f0 c0 9f 4c 19 41
       -10.12679 -18.352001 -7.5110774 9.581206
000340 0b 54 8e 41 92 e3 de 41 3d 0e 92 c1 28 58 50 41
       17.791037 27.861118 -18.256952 13.0215225
000350 28 e5 c5 41 b7 2e ca 3f 10 59 3f c2 4d 9c f8 c0
       24.736893 1.5795506 -47.836975 -7.7690797
000360 62 b7 82 c1 c6 3d 78 c1 13 7d 93 3f 92 1c 38 c0
       -16.339542 -15.515081 1.1522545 -2.8767438
000370 c0 e0 c6 bf 57 fe 1b c2 41 9d 4d 41 6f 0d 3f 42
       -1.5537338 -38.99838 12.850892 47.76312
000380 5b 33 ee c0 4e f7 b6 c1 aa c1 0c c1 1c 39 a6 41
       -7.443769 -22.870754 -8.797281 20.777885
000390 9b 7a 78 3e 11 e9 8a 40 a9 5d 1b 42 e5 bc c3 c0
       0.2426552 4.3409505 38.841465 -6.1168084
0003a0 78 41 f4 bf c4 88 15 c2 43 29 8c c1 38 fd ed c0
       -1.908248 -37.38356 -17.520147 -7.4371605
0003b0 90 8d 26 c1 48 fd 8a 41 fd f3 73 41 66 c3 bc c1
       -10.409561 17.373672 15.247067 -23.59541
0003c0 ab 6c 24 c0 22 53 87 c0 fa cb 05 c1 b7 bd 10 42
       -2.5691326 -4.228898 -8.362299 36.18527
0003d0 fd c0 2c c1 03 b2 d4 3f 42 57 d6 c0 cc ae d8 c1
       -10.797116 1.6616825 -6.6981516 -27.08535
0003e0 0e 80 02 42 44 7a 46 c1 d4 76 47 c1 fe c8 0a c1
       32.625053 -12.40485 -12.466511 -8.67407
0003f0 34 b4 80 c0 42 3c b8 c1 e0 3e 58 c0 87 aa 14 c1
       -4.0219975 -23.029423 -3.3788376 -9.291633

c2.bias f4 [32]
000000 6c 5d 88 40 fa be 40 40 6d 4c 54 3f 80 4c 8a c0
       4.261404 3.0116563 0.82929116 -4.3218384
000010 15 5a 26 c1 f1 f7 58 40 0e e1 2d 41 ef 41 a4 c0
       -10.396993 3.3901331 10.867445 -5.1330485
000020 ec 47 13 c1 c0 df 1c 3e 12 2e 87 c1 b8 7a 9f c1
       -9.205059 0.15319729 -16.897495 -19.934921
000030 48 f2 e3 40 bf ee f2 c1 64 1d 27 c2 e8 4d 21 c0
       7.1233253 -30.366575 -41.7787 -2.52038
000040 01 69 1d c2 37 2e ae 3f 7e 45 f8 41 dd ba ac 41
       -39.352543 1.3607854 31.033932 21.591242
000050 b1 fe c4 41 28 ca b0 41 7d d6 09 c2 ff f5 d9 c0
       24.624361 22.09871 -34.45946 -6.811279
000060 cd 1e 65 c0 33 97 4d 3e 8a 1d c2 c0 32 f3 22 41
       -3.580005 0.20077209 -6.066106 10.184374
000070 db 7e 3f 40 c6 a4 b7 41 98 fa b9 41 3d 37 d6 c0
       2.9921176 22.955456 23.24736 -6.694243

d1.weight f4 [16, 32, 3, 3]
000000 bc 65 85 c1 99 66 fb 40 82 85 fa 41 c1 0d 3b c0
       -16.674675 7.856274 31.31519 -2.9227145
000010 75 ec 93 41 9b 11 57 c1 79 ca 14 c1 3a d4 26 41
       18.490458 -13.441798 -9.299432 10.426813
000020 bd e3 2c 41 9e 52 ad c1 ed 29 52 bf 0e ab 4c c1
       10.8056 -21.66534 -0.82095224 -12.791761
000030 62 19 37 c1 73 f0 c9 c1 02 52 01 42 dd 1a ff 41
       -11.443697 -25.242407 32.330086 31.888117
000040 66 b1 11 42 d5 05 60 41 07 0d fe 40 b5 18 f6 41
       36.42324 14.001424 7.9390903 30.762064
000050 75 38 86 41 35 96 de 40 38 52 0b c2 0b 8a 1a 41
       16.777567 6.955836 -34.83029 9.658702
000060 51 85 de c1 ed e8 30 41 6c e3 3c c1 8a 80 65 41
       -27.815096 11.056867 -11.805523 14.343882
000070 0c a3 a7 41 74 5c a8 40 43 45 f6 40 28 1f 90 bf
       20.954613 5.261286 7.695955 -1.1259508
000080 d3 a0 03 c1 3d 5f 2e 41 9d 12 dc 3f fa fd 71 c1
       -8.226764 10.898252 1.719318 -15.124506
000090 73 33 fb bf 48 2f 84 40 23 86 bb 3f e6 d4 6f 40
       -1.9625076 4.1307716 1.465031 3.7473693
0000a0 6a 9c 06 42 f3 9f 32 c1 83 b8 5c c1 14 a5 b9 c0
       33.65275 -11.16405 -13.795047 -5.801401
0000b0 f6 89 8a 41 7e 0a 6b be 19 0c 09 c2 7c fa ca 41
       17.317364 -0.22953221 -34.261814 25.372307
0000c0 72 6c 8a 41 20 0c 8b 3f df 77 60 bf 8a 4b a1 41
       17.302952 1.0863075 -0.8768291 20.161884
0000d0 65 a4 c0 41 67 e4 56 c1 20 65 61 41 74 2d f1 be
       24.08027 -13.430762 14.087189 -0.4710499
0000e0 9f 18 d1 c0 c2 5b 84 40 b6 ce ea c1 be 4d 9d c0
       -6.5342555 4.136201 -29.350933 -4.91574
0000f0 93 b1 85 c1 42 1d 9c c1 84 d8 1c 41 e4 62 8b c1
       -16.711706 -19.514286 9.80286 -17.423286
000100 9b ad 85 40 67 4b 4d 41 e0 9d b1 c1 d9 6c cb c1
       4.177442 12.830909 -22.202087 -25.428148
000110 8c a8 70 41 49 92 32 41 61 3a a3 c1 5a f1 e8 3f
       15.041149 11.160714 -20.403505 1.8198655
000120 75 1d 67 40 b5 ce 81 c1 45 e0 bf 3f 97 29 d2 c0
       3.611173 -16.225931 1.4990317 -6.567577
000130 6d 28 e6 c1 fb e1 d1 41 2d 0b 26 c1 7d 17 90 41
       -28.76974 26.235342 -10.377728 18.011469
000140 12 ca f7 c1 20 21 b6 c0 b6 12 53 c0 6e ce 3c c1
       -30.973667 -5.6915436 -3.298017 -11.800398
000150 98 54 a0 41 b6 c1 42 3f 56 28 80 c0 22 14 fe bf
       20.041306 0.7607683 -4.004924 -1.9849894
000160 b8 26 a5 c1 ce 05 11 bf 75 9c a4 c0 78 d4 c1 41
       -20.643906 -0.5664948 -5.1440988 24.228745
000170 0c 2e bf 40 55 65 f9 41 d8 0c 64 c1 bf 96 76 c1
       5.974371 31.174479 -14.253136 -15.411803
000180 a8 ef 28 c1 16 f6 49 c1 d8 ca d6 c1 65 76 97 c0
       -10.55851 -12.62258 -26.849045 -4.7332025
000190 fb 7c cc 41 93 9a 93 40 0c 55 8c 40 76 e5 02 42
       25.561026 4.612619 4.3853817 32.724083
0001a0 4a da 4b c0 2f 34 b7 41 aa 17 3b c0 a9 a0 79 c1
       -3.1851983 22.90048 -2.9233193 -15.601724
0001b0 11 5e 39 c2 2a 01 33 41 20 38 aa 41 70 f2 9b 40
       -46.34186 11.187784 21.277405 4.8733444
0001c0 88 47 e6 3e 37 b0 ab 41 26 6a 99 c1 ef 39 94 41
       0.4497645 21.461042 -19.17683 18.528288
0001d0 6d c3 36 41 0f c7 44 41 c3 51 90 40 b0 c5 e2 c0
       11.422711 12.298598 4.5099807 -7.086632
0001e0 fa 70 9b 41 ae b8 1f 41 30 0f c6 c1 26 a1 9c 41
       19.430164 9.982588 -24.757416 19.578686
0001f0 21 95 62 c1 55 b2 b7 41 5d bf 88 c0 2c be 10 c2
       -14.161408 22.962076 -4.27336 -36.185715
000200 8e 8d bc c1 e1 73 f1 41 9f 4f 4a 41 71 5b 95 41
       -23.569118 30.181581 12.644439 18.66965
000210 79 33 7b 41 73 81 88 c1 99 73 4f 41 ac 9f 78 c0
       15.700067 -17.063208 12.965722 -3.8847456
000220 e8 87 8d c1 52 25 8c c1 45 cf 09 41 df a5 e1 3f
       -17.69136 -17.518223 8.613103 1.7628745
000230 0c c1 3c c0 5c 46 22 c2 b6 9f a4 3f 6a a4 f5 c1
       -2.9492826 -40.56871 1.286124 -30.70528
000240 08 27 88 3f 4b 1b 3a c1 f3 89 ad c0 85 cd 5a 40
       1.0636911 -11.631663 -5.4230895 3.418794
000250 3c c8 13 c1 b6 66 7b c1 34 e7 e7 c1 80 ea d1 3b
       -9.236385 -15.712576 -28.987892 0.0064061284
000260 18 65 d1 41 08 af c5 41 17 18 8a 41 a9 a4 d5 41
       26.174362 24.710464 17.261763 26.7054
000270 84 92 0d 40 8a ce f9 41 26 c6 90 41 fe a3 c4 41
       2.2120676 31.22585 18.096752 24.580074
000280 97 98 15 40 e3 74 0e c0 b1 87 77 c1 35 07 1c 41
       2.3374383 -2.2258842 -15.470628 9.75176
000290 c4 32 11 41 85 09 17 41 4d 6d 86 40 e9 4d a2 41
       9.074894 9.439824 4.2008424 20.288042
0002a0 8f c2 fe 40 76 67 80 c0 e8 28 fa c0 6d ac 42 c1
       7.96125 -4.0126295 -7.8174934 -12.167096
0002b0 d1 10 fe 40 f0 86 2e c1 89 a4 82 41 f5 ee b6 c0
       7.939553 -10.907944 16.33034 -5.7166696
0002c0 cd ea 96 41 41 9a 4e 41 ee f3 70 41 20 0b 3d c0
       18.864649 12.91266 15.059553 -2.953804
0002d0 f4 e2 e2 c1 6f de 38 41 4c 48 f4 3f d7 ea 8b 3f
       -28.360817 11.554305 1.9084563 1.0931042
0002e0 3e 0d e7 40 26 0c bb c1 e7 02 46 40 64 ad 67 c1
       7.2203665 -23.380932 3.0939271 -14.479832
0002f0 15 45 91 41 b3 8e 23 c1 13 f2 2a 41 de 68 26 c1
       18.158731 -10.222339 10.6841 -10.400602
000300 50 c2 f9 c1 42 39 18 c2 4e 33 27 c1 e1 79 af 41
       -31.21988 -38.055916 -10.450026 21.934511
000310 9f 1f 3e c0 3f ab d4 41 79 41 c5 41 0c d2 84 40
       -2.97068 26.583616 24.65697 4.1506405
000320 4e da f8 bf fd 6a 04 c1 14 a4 b4 40 43 3d 1b c2
       -1.9441621 -8.27612 5.645029 -38.809826
000330 1e 85 8f c1 da d3 f7 c1 14 42 ce c0 73 1d 84 41
       -17.939999 -30.978443 -6.445566 16.51438
000340 28 9b 35 c0 6b 38 80 c1 35 59 1e c1 24 b5 8b 41
       -2.837595 -16.027548 -9.896779 17.463448
000350 24 f6 a9 c1 59 e6 57 41 bc 36 87 3f c9 52 96 41
       -21.245186 13.493737 1.0563579 18.790422
000360 fe b2 e4 bf fe 74 b8 41 a7 91 11 41 12 6d 9c 40
       -1.7867124 23.057125 9.09806 4.8883142
000370 7a 8c 96 41 80 d2 9f bf 1b d5 65 c1 73 4b 99 3f
       18.818592 -1.2486115 -14.364528 1.197615
000380 a8 10 1c c1 b6 0c f9 c1 88 6f 52 c0 f0 44 15 3f
       -9.754066 -31.131207 -3.2880573 0.58308315
000390 f8 34 27 c2 85 d8 70 c0 82 25 94 41 f5 37 2e c1
       -41.801727 -3.7632153 18.518314 -10.888661
0003a0 47 b6 a2 c1 f3 fe 30 41 0c 50 12 c1 7c ec 61 41
       -20.339003 11.062243 -9.144543 14.120235
0003b0 aa a6 56 41 c8 b8 4f 3f 5f 83 2e 41 ed dc 30 41
       13.415689 0.8114133 10.907073 11.053937
0003c0 4a f6 67 c1 6e 8e e4 40 2d 22 7d c1 b8 ad d3 40
       -14.497629 7.1423864 -15.820844 6.614956
0003d0 4a 47 85 41 68 e8 3f 41 8e a0 c3 c1 e2 c7 bc be
       16.65981 11.99424 -24.453396 -0.36871248
0003e0 e6 d2 f9 3f 50 18 cb c1 84 da a5 41 3e ff 6c c1
       1.9517486 -25.386871 20.731697 -14.812315
0003f0 59 59 0d 41 62 ae d6 40 e7 e3 40 41 c4 fe 11 c1
       8.834313 6.708787 12.05564 -9.124699

d1.bias f4 [16]
000000 1b b3 4f 40 02 5c 01 40 35 de fe bf 59 a3 8e c0
       3.2453067 2.0212407 -1.9911562 -4.45744
000010 22 1a fa c1 85 c9 15 40 0e 2f 66 3f b1 71 c7 c1
       -31.26276 2.3404248 0.8991555 -24.930513
000020 c5 84 77 41 f3 fc f3 c1 cb 39 46 c1 cc 43 3d c1
       15.469914 -30.49851 -12.38911 -11.829052
000030 09 a7 ab c1 22 4b f6 3e 49 fa 95 3f e6 9b 6c c1
       -21.45656 0.48104197 1.1717006 -14.788061

d2.weight f4 [1, 16, 3, 3]
000000 b1 89 58 c1 4a a7 b9 c1 44 cd 83 41 b4 56 c7 40
       -13.533616 -23.206684 16.475227 6.229334
000010 33 a7 46 c1 e6 f9 a5 c0 48 02 3a c1 0b 29 9d c1
       -12.41582 -5.186755 -11.625557 -19.64504
000020 6c 04 82 be b4 6f 22 c1 04 9b e9 41 76 c0 b2 c0
       -0.25394 -10.152271 29.200691 -5.585994
000030 0b 6d d6 41 b8 67 b1 c0 6c b0 29 41 5c 5f cc 40
       26.803244 -5.543911 10.605572 6.3866405
000040 90 f8 dc 3f 05 0a 09 c2 81 04 4b 40 aa cd 03 3f
       1.7263355 -34.259785 3.17215 0.51485693
000050 4b 17 86 c1 c5 16 15 41 6b bd 5f c1 7f c5 ae 41
       -16.761374 9.318059 -13.983745 21.846434
000060 37 f4 a6 c1 03 cc 87 c1 5e 37 e8 c0 16 e2 a2 c1
       -20.869246 -16.974615 -7.2567587 -20.360394
000070 f1 ca 10 c1 8a 94 b1 c1 a2 8d 0c 3f 74 a9 c8 c1
       -9.049546 -22.197529 0.54903615 -25.08274
000080 0a 69 c0 c1 f8 f0 36 bf fe ce 6a 41 f1 f2 d0 c1
       -24.051289 -0.7146144 14.675535 -26.118624
000090 81 2a 0b 40 d5 82 10 c2 ef 0a 0d c0 1b b1 ed c1
       2.1744692 -36.127766 -2.2037923 -29.711477
0000a0 c3 80 b8 c0 0c fb a3 c1 10 3d 18 c1 83 5c 24 c2
       -5.765718 -20.497581 -9.514908 -41.090343
0000b0 65 02 a2 41 62 42 01 40 33 3f 2a c0 6e 42 cf 40
       20.25117 2.0196767 -2.6601074 6.476859
0000c0 26 9c 88 c1 b6 9a 88 40 2d 3f 66 c1 4d 55 6f bf
       -17.076244 4.2688856 -14.390424 -0.93489534
0000d0 b6 33 95 40 e6 6d c5 c1 63 30 aa c0 f6 8c e8 c0
       4.6625624 -24.678661 -5.3184066 -7.267207
0000e0 48 5f 31 c1 9a 92 67 c1 8e 8f 85 41 8a 6a 8d c0
       -11.085762 -14.473291 16.695095 -4.4192553
0000f0 c5 d2 a1 41 dd 9d 05 41 c8 1e 97 c1 a4 13 85 c0
       20.227915 8.351041 -18.89003 -4.1586475
000100 a1 29 80 41 fd 7e 5e c1 40 a0 fa 40 10 c5 ea c1
       16.020327 -13.906003 7.832062 -29.346222
000110 b6 fc 91 40 69 29 2a bf db 04 05 41 d8 4e 50 c1
       4.5620985 -0.66469437 8.313685 -13.019249
000120 6a 50 c4 c0 d2 b0 da c1 bc 75 6b 40 0b 0a c8 c0
       -6.134816 -27.336338 3.679061 -6.251226
000130 90 77 67 c1 a3 b4 64 c1 37 af 5c 41 8d f0 62 c1
       -14.46669 -14.294101 13.792777 -14.183728
000140 c8 d9 97 41 79 aa bd c1 c2 14 16 c1 05 32 69 41
       18.981339 -23.708239 -9.380068 14.574712
000150 67 ee a3 c1 b1 7a e5 c1 63 81 42 c1 8f 67 81 bf
       -20.491407 -28.684908 -12.156589 -1.0109729
000160 84 8f 81 c1 a0 aa a5 c1 24 f6 a5 bf c0 c0 ec c0
       -16.195076 -20.708313 -1.2965741 -7.398529
000170 71 e5 0c 42 47 e5 f5 40 98 71 87 41 41 51 dd c0
       35.224064 7.684238 16.930466 -6.9161687
000180 73 3d 29 41 92 d5 93 c1 16 88 9f 3f 70 c6 27 c0
       10.577502 -18.479282 1.2463405 -2.6214867
000190 76 0d a4 3f 50 47 90 c0 dc 9e 8a c0 f8 b4 c9 c0
       1.2816608 -4.508705 -4.331892 -6.303341
0001a0 46 31 43 c0 b5 9a 2c c1 64 8b f1 40 fe ad c4 c1
       -3.0498824 -10.78777 7.5482655 -24.584957
0001b0 bc 22 97 bf e6 4b d0 c0 a2 6f 4b c1 c6 60 3b c1
       -1.1807475 -6.509265 -12.714754 -11.711126
0001c0 ef 06 e2 c1 7f 7d 0a 41 6c 41 f3 c1 28 20 5a c0
       -28.253386 8.655639 -30.406944 -3.4082127
0001d0 0d 43 83 c1 d3 00 e5 40 a3 79 a2 c0 7f 31 a4 41
       -16.40774 7.1563506 -5.077348 20.524168
0001e0 e9 a0 ef c1 e5 c1 cd 40 e5 c2 33 c2 46 f1 c2 41
       -29.95357 6.429919 -44.940327 24.36781
0001f0 85 26 9f c1 21 bb 89 41 e9 c2 19 41 d3 27 1e c0
       -19.893808 17.216372 9.6100855 -2.4711807
000200 2c 9c d5 c0 fd 0d 2c 41 fb d1 6b c1 ef 32 ca c0
       -6.675314 10.753415 -14.738765 -6.3187175
000210 75 86 af 41 99 fa 9a 40 73 5a 50 c1 2f 4f b7 41
       21.940653 4.8430905 -13.022082 22.913664
000220 15 2b a5 c1 31 6e 04 42 34 16 9b c1 59 6b 90 41
       -20.646036 33.10761 -19.385841 18.052416
000230 27 f2 d6 c0 cf 9c d1 be f8 bd 57 41 16 c7 12 42
       -6.7170596 -0.40939948 13.483879 36.69442

encoder.0.weight f4 [16, 1, 3, 3]
000000 f5 90 ba c1 47 5b 42 c2 60 6b a5 c1 d8 e8 ad 41
       -23.32078 -48.589138 -20.67743 21.738693
000010 50 be c8 c0 27 82 7f c0 08 dc 8b 41 d7 f8 2c 41
       -6.2732315 -3.9923189 17.482437 10.810752
000020 49 eb e2 c1 e7 b4 06 c0 f2 78 f5 40 4c 3c 78 bf
       -28.364885 -2.1047914 7.671014 -0.96967006
000030 7a 7d 55 41 a6 c9 a2 c1 5e 1b 08 c1 ba 3b 73 41
       13.343134 -20.348461 -8.506681 15.202082
000040 f5 8d 31 c1 8a b1 78 41 e4 ba 1e c1 01 c7 ca 41
       -11.0971575 15.5433445 -9.920628 25.34717
000050 25 25 eb c0 69 c2 a6 41 dc 5a 16 bf a9 08 02 42
       -7.3482842 20.844927 -0.5873239 32.508457
000060 90 6c 91 c1 3f 07 d3 41 70 f1 22 3b f5 af e3 c0
       -18.178009 26.378538 0.0024863146 -7.115229
000070 fe a7 4f c2 67 10 da c0 e5 d3 a5 c0 51 91 9b 41
       -51.914055 -6.8145022 -5.182116 19.445955
000080 2c 38 ba c1 a1 0f 4a 41 0f 54 e6 c1 3e c2 81 c0
       -23.277428 12.628816 -28.791044 -4.054961
000090 01 10 d0 c0 33 1f 0e c1 2b 07 6a c1 e1 c6 d5 c0
       -6.5019536 -8.882617 -14.62675 -6.680527
0000a0 06 b5 cb c1 63 47 c3 c1 b9 fe 9b c1 a6 79 44 c0
       -25.46339 -24.409857 -19.499376 -3.0699248
0000b0 aa d0 14 c1 93 b4 9a c1 40 3b 65 bb d9 6a b3 bf
       -9.300943 -19.338171 -0.0034977943 -1.4016982
0000c0 4e c4 98 c1 95 fd b3 c1 2b a4 5a c0 70 f2 93 c1
       -19.095852 -22.49882 -3.41627 -18.493378
0000d0 99 9a ae c1 4d e0 44 c1 5c 71 8e 40 82 23 03 c0
       -21.825487 -12.304761 4.451338 -2.0490422
0000e0 ee cb bc c0 9a f0 7c 40 c2 50 8e 3e 02 2e d9 c1
       -5.8998938 3.9521852 0.27795988 -27.147465
0000f0 fa 6a 8b 40 3f 14 ab c1 1c 43 04 be f2 f3 52 41
       4.3568087 -21.384886 -0.12916225 13.184557
000100 15 61 cd c0 06 a5 5d 40 5d 50 0f c1 0f c4 0b 3f
       -6.418101 3.4631972 -8.95712 0.54596037
000110 e4 e7 8e c1 90 24 a7 41 97 68 02 c1 4c f2 d3 41
       -17.863228 20.892853 -8.150535 26.493309
000120 bc ae 7d c0 8d 6b 33 41 c1 07 95 41 59 94 9f 41
       -3.96379 11.2137575 18.628786 19.947435
000130 11 d7 f1 41 c6 48 cd c1 4d 17 80 40 0a b2 9f 40
       30.230013 -25.660534 4.0028443 4.9904833
000140 51 1f ab 41 9f cf 2c c1 2e a9 f1 40 74 81 19 41
       21.390291 -10.800689 7.551902 9.594105
000150 49 ee 5b 41 48 77 88 41 b6 b8 f7 c0 49 9e 0f 42
       13.745675 17.058243 -7.7412977 35.904575
000160 7a 6a fb 3f 05 99 f1 3f 94 b9 99 c1 c8 43 8c 41
       1.9641869 1.8874823 -19.215614 17.533096
000170 b1 3a f6 be 10 b1 99 41 66 cd 4f c0 15 40 83 bf
       -0.48091653 19.211456 -3.2469115 -1.0253931
000180 77 bf 29 41 d4 8f 69 41 00 b7 70 41 9f bc 79 41
       10.609244 14.597614 15.044678 15.60855
000190 e3 02 08 41 98 80 0c c1 9d ba bc 41 25 cc 80 40
       8.500705 -8.781395 23.59112 4.02492
0001a0 31 68 11 c1 f4 78 be c1 b1 c4 a8 41 62 9c 37 40
       -9.087937 -23.80906 21.09604 2.8689198
0001b0 f6 c5 72 c0 db 70 40 c1 b0 0a e1 bd f2 01 ab 41
       -3.7933326 -12.027553 -0.109883666 21.37595
0001c0 09 5d 85 41 18 ed c5 41 f9 c4 b5 41 df 6e 2e 40
       16.670427 24.740768 22.721178 2.725517
0001d0 d8 d0 7f c1 b5 67 92 40 7c 81 5e 3f 10 b0 9b c1
       -15.988487 4.5751595 0.8691633 -19.460968
0001e0 57 89 f9 c0 d6 f1 20 c2 18 b8 d2 c1 fd 6f 46 c1
       -7.798015 -40.236168 -26.33989 -12.402341
0001f0 a2 5c d6 c0 f9 9e be 40 43 39 ad c1 be 5d 81 41
       -6.6988077 5.956906 -21.65296 16.170773
000200 a2 3b 21 c1 65 5c fe 41 6b 38 58 c1 aa d1 7d 40
       -10.077059 31.795115 -13.513774 3.9659219
000210 2c 6e aa c1 ce 73 7b bd 9a f8 8c 3d c5 9e 0c c1
       -21.303795 -0.061389737 0.068833545 -8.788762
000220 c4 f4 fa c1 4a b7 b7 40 71 76 a2 c0 ba 11 9e 41
       -31.369514 5.741124 -5.076958 19.758656
000230 12 f5 d5 3f 91 50 69 c1 5f 98 03 c2 34 7b e3 40
       1.6715415 -14.58217 -32.8988 7.1087894

encoder.0.bias f4 [16]
000000 81 b3 5d 41 76 48 58 42 05 93 9b c0 54 82 a7 41
       13.856324 54.070763 -4.8616967 20.938637
000010 89 d1 2f c1 66 e4 44 41 e1 02 97 41 dd 0f ac c1
       -10.988656 12.305761 18.876406 -21.507746
000020 c3 9c 8b c1 69 23 2a 40 0d c6 ef c1 c3 c3 c3 c1
       -17.451544 2.6584113 -29.971704 -24.470587
000030 71 93 40 c0 c2 49 26 be 52 db 74 c1 d3 42 29 c1
       -3.008999 -0.16239074 -15.303545 -10.5788145

encoder.2.weight f4 [32, 16, 3, 3]
000000 83 48 3e 40 d5 53 50 c1 8a 9b f8 c0 77 15 74 40
       2.9731758 -13.020467 -7.7689867 3.81381
000010 db 83 0d c2 e3 7a ff c0 2f af 04 c2 81 72 f6 40
       -35.378765 -7.983751 -33.171078 7.7014775
000020 3a 24 31 41 6a 72 01 c1 35 8a d5 c0 f1 07 45 42
       11.071344 -8.090433 -6.673121 49.257755
000030 99 07 a5 c1 2c 63 2d 41 20 06 45 c2 33 c1 3e c1
       -20.62871 10.836712 -49.25598 -11.922168
000040 ab 07 fd c1 f4 8c 65 c1 4d c7 91 c1 5b 41 81 c1
       -31.628744 -14.346912 -18.222315 -16.156912
000050 6f fc 8e c1 f6 7b 3d c1 ff a5 b6 40 ae 66 eb c0
       -17.873259 -11.842764 5.707763 -7.356284
000060 92 36 1b c2 ff f9 c9 3f ee 08 9c c1 21 71 2f c0
       -38.80329 1.5779418 -19.50436 -2.7412798
000070 c6 1e 29 c1 70 97 72 41 7d d0 59 c1 90 7f 1c 41
       -10.570013 15.161972 -13.6134 9.781143
000080 ed c4 28 c0 ee ba bc c0 18 c8 dc 41 bc 40 21 42
       -2.6370194 -5.8978186 27.597702 40.313217
000090 f9 3a 62 c0 8e e3 ff 40 08 e9 e5 40 b4 16 8b c0
       -3.5348494 7.9965277 7.184696 -4.3465214
0000a0 1f 39 ff c0 40 7a b5 41 db 1a 65 c0 c4 8e e4 c1
       -7.975723 22.684692 -3.5797641 -28.56971
0000b0 48 41 38 c1 9e 05 90 c1 9d ac 23 bf 19 b1 66 c0
       -11.515938 -18.002743 -0.6393526 -3.6045592
0000c0 c2 72 20 c1 d2 96 b8 c1 c6 cb a6 c1 55 7b 26 40
       -10.028017 -23.073643 -20.849499 2.6012776
0000d0 3f d8 53 c1 f6 14 96 41 ff a8 db 41 d0 f8 7c 41
       -13.240294 18.760235 27.457518 15.810745
0000e0 aa 80 a5 c1 43 a3 60 c2 bd a7 aa c1 f8 26 95 c1
       -20.687824 -56.159435 -21.331903 -18.644028
0000f0 de 29 10 c1 88 66 40 c1 ca ff eb c0 be e8 54 41
       -9.0102215 -12.025032 -7.3749743 13.306822
000100 38 1f 46 41 c9 51 98 c1 4f 85 11 c0 a9 b9 4b 41
       12.382622 -19.039934 -2.2737615 12.732827
000110 53 96 db 3e fd 2e a9 c1 7d c9 4a c1 ec c2 c2 c0
       0.42888126 -21.147943 -12.674191 -6.086294
000120 6d a2 4c c0 f3 2b 3a 40 ae 4c 49 41 4e 69 84 41
       -3.1974137 2.9089324 12.581221 16.551418
000130 fd 06 b0 bf 16 2f 8b 40 73 79 e1 41 ec 1a 37 c1
       -1.3752133 4.349498 28.184301 -11.444073
000140 da 3e a4 41 19 49 c5 41 02 d2 50 c1 14 15 4f c1
       20.53069 24.660692 -13.051271 -12.942646
000150 51 04 aa c0 62 38 a2 41 d8 cd 28 c1 ab 8a c1 c0
       -5.313027 20.27753 -10.550255 -6.0481772
000160 c5 32 7d 41 38 b6 2f c1 7b 27 df 3f 7e f2 be 41
       15.824895 -10.981987 1.7433923 23.868404
000170 ba b6 d7 bf 98 1a 16 c1 83 2d c9 c0 11 b3 ea c0
       -1.6852639 -9.381493 -6.2868056 -7.3343587
000180 7d f7 f8 c0 cd 59 9c c1 ec 49 73 c1 8c b2 c8 c0
       -7.780211 -19.543848 -15.205547 -6.2717953
000190 e3 43 80 c1 a4 b8 0b 42 89 3d ce 40 36 56 87 c1
       -16.033148 34.930313 6.4450116 -16.917095
0001a0 6e 04 ac 40 0b eb b7 c1 d7 8b 13 c1 a3 28 8c c1
       5.3755407 -22.989767 -9.221641 -17.519842
0001b0 19 cb 12 41 30 21 d2 41 f1 2a bf 41 fb 02 df 40
       9.174584 26.266205 23.895967 6.969114
0001c0 d5 31 9a c1 33 ee c6 40 91 a3 16 42 51 7e a7 40
       -19.274332 6.216577 37.659733 5.2341695
0001d0 e5 59 12 42 bb bf 03 c1 2b 6b 55 c1 9f 4d 4d 41
       36.587788 -8.234309 -13.338664 12.83145
0001e0 52 ae 46 c1 66 9b 08 c1 6f 73 3a 41 18 47 17 3f
       -12.417559 -8.537939 11.653182 0.59092855
0001f0 a1 93 41 c1 c4 4b 00 41 7b c1 50 41 cf 27 c9 c1
       -12.098542 8.018497 13.047236 -25.144438
000200 0e a2 7d 41 2a 07 7a c1 8c bd d1 41 6b a8 1e c1
       15.852064 -15.626749 26.217552 -9.916118
000210 77 54 a1 40 f8 ae 50 41 b4 5c 87 c1 f4 83 bc c1
       5.0415606 13.042717 -16.920265 -23.56443
000220 6e 7b 3f c0 dc d6 02 41 c3 33 8c 40 27 3e b5 41
       -2.9919086 8.177456 4.3813186 22.655348
000230 9d b4 05 41 91 79 09 bf 61 0e 26 c1 09 39 f6 c1
       8.356595 -0.5370112 -10.37851 -30.77785
000240 52 5a 78 41 52 b6 a0 40 c5 11 ce 40 b5 2b 6e c0
       15.522051 5.022256 6.439669 -3.7214177
000250 70 4c 9a 40 f8 5e c7 c1 00 f2 4a c1 e4 6b 79 c1
       4.8218307 -24.921371 -12.684082 -15.5888405
000260 4f d5 91 c1 9a a3 40 c1 3f eb 3f be 0a f8 8a bf
       -18.229155 -12.039942 -0.18742083 -1.0856946
000270 c7 70 85 41 97 78 14 41 dd 63 c8 41 1e 93 6e 3e
       16.680067 9.279441 25.048761 0.23298308
000280 2a 62 f4 41 31 5b dc 41 8f e3 da c0 aa ac 09 41
       30.547932 27.544527 -6.840278 8.604654
000290 fc 09 41 c1 d6 93 c9 41 87 ce a3 c0 ad 3b 25 41
       -12.064938 25.197186 -5.118961 10.327069
0002a0 7e d8 db 41 0f f5 67 c1 9b 5b 88 40 c1 a3 13 c1
       27.48071 -14.497329 4.2611823 -9.227479
0002b0 88 61 f9 c1 cd 74 75 40 88 37 b9 41 57 37 2e bf
       -31.172623 3.835254 23.152115 -0.6805319
0002c0 10 5c 63 41 fe 40 a9 c1 2d 61 58 c1 2a 2e d2 40
       14.209976 -21.156734 -13.523725 6.5681353
0002d0 d4 e4 06 41 51 22 61 41 67 03 9e 41 ed 92 7f 41
       8.430866 14.070878 19.751661 15.973371
0002e0 e0 5a 11 41 42 31 1f 41 31 c4 6e bf 5b 66 fd 40
       9.084686 9.949526 -0.93268114 7.9187446
0002f0 a5 2a a2 41 d6 05 8d 41 42 80 34 42 cf a4 55 40
       20.270823 17.62785 45.12525 3.338184
000300 4b 3a 95 41 f9 25 82 41 5f 92 f6 c0 8c 49 19 bf
       18.653463 16.268541 -7.7053676 -0.5987785
000310 78 77 02 41 b5 ea 1e c0 d5 bd 01 c2 e2 af 0a 42
       8.154167 -2.4830754 -32.435383 34.67176
000320 57 c1 b3 41 03 2f 8e 41 cd fc a2 c0 94 cc 76 c1
       22.469404 17.772955 -5.0933595 -15.424946
000330 55 07 22 c1 e6 d0 92 c1 bf 5a f0 c0 9f 4c 19 41
       -10.12679 -18.352001 -7.5110774 9.581206
000340 0b 54 8e 41 92 e3 de 41 3d 0e 92 c1 28 58 50 41
       17.791037 27.861118 -18.256952 13.0215225
000350 28 e5 c5 41 b7 2e ca 3f 10 59 3f c2 4d 9c f8 c0
       24.736893 1.5795506 -47.836975 -7.7690797
000360 62 b7 82 c1 c6 3d 78 c1 13 7d 93 3f 92 1c 38 c0
       -16.339542 -15.515081 1.1522545 -2.8767438
000370 c0 e0 c6 bf 57 fe 1b c2 41 9d 4d 41 6f 0d 3f 42
       -1.5537338 -38.99838 12.850892 47.76312
000380 5b 33 ee c0 4e f7 b6 c1 aa c1 0c c1 1c 39 a6 41
       -7.443769 -22.870754 -8.797281 20.777885
000390 9b 7a 78 3e 11 e9 8a 40 a9 5d 1b 42 e5 bc c3 c0
       0.2426552 4.3409505 38.841465 -6.1168084
0003a0 78 41 f4 bf c4 88 15 c2 43 29 8c c1 38 fd ed c0
       -1.908248 -37.38356 -17.520147 -7.4371605
0003b0 90 8d 26 c1 48 fd 8a 41 fd f3 73 41 66 c3 bc c1
       -10.409561 17.373672 15.247067 -23.59541
0003c0 ab 6c 24 c0 22 53 87 c0 fa cb 05 c1 b7 bd 10 42
       -2.5691326 -4.228898 -8.362299 36.18527
0003d0 fd c0 2c c1 03 b2 d4 3f 42 57 d6 c0 cc ae d8 c1
       -10.797116 1.6616825 -6.6981516 -27.08535
0003e0 0e 80 02 42 44 7a 46 c1 d4 76 47 c1 fe c8 0a c1
       32.625053 -12.40485 -12.466511 -8.67407
0003f0 34 b4 80 c0 42 3c b8 c1 e0 3e 58 c0 87 aa 14 c1
       -4.0219975 -23.029423 -3.3788376 -9.291633

encoder.2.bias f4 [32]
000000 6c 5d 88 40 fa be 40 40 6d 4c 54 3f 80 4c 8a c0
       4.261404 3.0116563 0.82929116 -4.3218384
000010 15 5a 26 c1 f1 f7 58 40 0e e1 2d 41 ef 41 a4 c0
       -10.396993 3.3901331 10.867445 -5.1330485
000020 ec 47 13 c1 c0 df 1c 3e 12 2e 87 c1 b8 7a 9f c1
       -9.205059 0.15319729 -16.897495 -19.934921
000030 48 f2 e3 40 bf ee f2 c1 64 1d 27 c2 e8 4d 21 c0
       7.1233253 -30.366575 -41.7787 -2.52038
000040 01 69 1d c2 37 2e ae 3f 7e 45 f8 41 dd ba ac 41
       -39.352543 1.3607854 31.033932 21.591242
000050 b1 fe c4 41 28 ca b0 41 7d d6 09 c2 ff f5 d9 c0
       24.624361 22.09871 -34.45946 -6.811279
000060 cd 1e 65 c0 33 97 4d 3e 8a 1d c2 c0 32 f3 22 41
       -3.580005 0.20077209 -6.066106 10.184374
000070 db 7e 3f 40 c6 a4 b7 41 98 fa b9 41 3d 37 d6 c0
       2.9921176 22.955456 23.24736 -6.694243

decoder.0.weight f4 [16, 32, 3, 3]
000000 bc 65 85 c1 99 66 fb 40 82 85 fa 41 c1 0d 3b c0
       -16.674675 7.856274 31.31519 -2.9227145
000010 75 ec 93 41 9b 11 57 c1 79 ca 14 c1 3a d4 26 41
       18.490458 -13.441798 -9.299432 10.426813
000020 bd e3 2c 41 9e 52 ad c1 ed 29 52 bf 0e ab 4c c1
       10.8056 -21.66534 -0.82095224 -12.791761
000030 62 19 37 c1 73 f0 c9 c1 02 52 01 42 dd 1a ff 41
       -11.443697 -25.242407 32.330086 31.888117
000040 66 b1 11 42 d5 05 60 41 07 0d fe 40 b5 18 f6 41
       36.42324 14.001424 7.9390903 30.762064
000050 75 38 86 41 35 96 de 40 38 52 0b c2 0b 8a 1a 41
       16.777567 6.955836 -34.83029 9.658702
000060 51 85 de c1 ed e8 30 41 6c e3 3c c1 8a 80 65 41
       -27.815096 11.056867 -11.805523 14.343882
000070 0c a3 a7 41 74 5c a8 40 43 45 f6 40 28 1f 90 bf
       20.954613 5.261286 7.695955 -1.1259508
000080 d3 a0 03 c1 3d 5f 2e 41 9d 12 dc 3f fa fd 71 c1
       -8.226764 10.898252 1.719318 -15.124506
000090 73 33 fb bf 48 2f 84 40 23 86 bb 3f e6 d4 6f 40
       -1.9625076 4.1307716 1.465031 3.7473693
0000a0 6a 9c 06 42 f3 9f 32 c1 83 b8 5c c1 14 a5 b9 c0
       33.65275 -11.16405 -13.795047 -5.801401
0000b0 f6 89 8a 41 7e 0a 6b be 19 0c 09 c2 7c fa ca 41
       17.317364 -0.22953221 -34.261814 25.372307
0000c0 72 6c 8a 41 20 0c 8b 3f df 77 60 bf 8a 4b a1 41
       17.302952 1.0863075 -0.8768291 20.161884
0000d0 65 a4 c0 41 67 e4 56 c1 20 65 61 41 74 2d f1 be
       24.08027 -13.430762 14.087189 -0.4710499
0000e0 9f 18 d1 c0 c2 5b 84 40 b6 ce ea c1 be 4d 9d c0
       -6.5342555 4.136201 -29.350933 -4.91574
0000f0 93 b1 85 c1 42 1d 9c c1 84 d8 1c 41 e4 62 8b c1
       -16.711706 -19.514286 9.80286 -17.423286
000100 9b ad 85 40 67 4b 4d 41 e0 9d b1 c1 d9 6c cb c1
       4.177442 12.830909 -22.202087 -25.428148
000110 8c a8 70 41 49 92 32 41 61 3a a3 c1 5a f1 e8 3f
       15.041149 11.160714 -20.403505 1.8198655
000120 75 1d 67 40 b5 ce 81 c1 45 e0 bf 3f 97 29 d2 c0
       3.611173 -16.225931 1.4990317 -6.567577
000130 6d 28 e6 c1 fb e1 d1 41 2d 0b 26 c1 7d 17 90 41
       -28.76974 26.235342 -10.377728 18.011469
000140 12 ca f7 c1 20 21 b6 c0 b6 12 53 c0 6e ce 3c c1
       -30.973667 -5.6915436 -3.298017 -11.800398
000150 98 54 a0 41 b6 c1 42 3f 56 28 80 c0 22 14 fe bf
       20.041306 0.7607683 -4.004924 -1.9849894
000160 b8 26 a5 c1 ce 05 11 bf 75 9c a4 c0 78 d4 c1 41
       -20.643906 -0.5664948 -5.1440988 24.228745
000170 0c 2e bf 40 55 65 f9 41 d8 0c 64 c1 bf 96 76 c1
       5.974371 31.174479 -14.253136 -15.411803
000180 a8 ef 28 c1 16 f6 49 c1 d8 ca d6 c1 65 76 97 c0
       -10.55851 -12.62258 -26.849045 -4.7332025
000190 fb 7c cc 41 93 9a 93 40 0c 55 8c 40 76 e5 02 42
       25.561026 4.612619 4.3853817 32.724083
0001a0 4a da 4b c0 2f 34 b7 41 aa 17 3b c0 a9 a0 79 c1
       -3.1851983 22.90048 -2.9233193 -15.601724
0001b0 11 5e 39 c2 2a 01 33 41 20 38 aa 41 70 f2 9b 40
       -46.34186 11.187784 21.277405 4.8733444
0001c0 88 47 e6 3e 37 b0 ab 41 26 6a 99 c1 ef 39 94 41
       0.4497645 21.461042 -19.17683 18.528288
0001d0 6d c3 36 41 0f c7 44 41 c3 51 90 40 b0 c5 e2 c0
       11.422711 12.298598 4.5099807 -7.086632
0001e0 fa 70 9b 41 ae b8 1f 41 30 0f c6 c1 26 a1 9c 41
       19.430164 9.982588 -24.757416 19.578686
0001f0 21 95 62 c1 55 b2 b7 41 5d bf 88 c0 2c be 10 c2
       -14.161408 22.962076 -4.27336 -36.185715
000200 8e 8d bc c1 e1 73 f1 41 9f 4f 4a 41 71 5b 95 41
       -23.569118 30.181581 12.644439 18.66965
000210 79 33 7b 41 73 81 88 c1 99 73 4f 41 ac 9f 78 c0
       15.700067 -17.063208 12.965722 -3.8847456
000220 e8 87 8d c1 52 25 8c c1 45 cf 09 41 df a5 e1 3f
       -17.69136 -17.518223 8.613103 1.7628745
000230 0c c1 3c c0 5c 46 22 c2 b6 9f a4 3f 6a a4 f5 c1
       -2.9492826 -40.56871 1.286124 -30.70528
000240 08 27 88 3f 4b 1b 3a c1 f3 89 ad c0 85 cd 5a 40
       1.0636911 -11.631663 -5.4230895 3.418794
000250 3c c8 13 c1 b6 66 7b c1 34 e7 e7 c1 80 ea d1 3b
       -9.236385 -15.712576 -28.987892 0.0064061284
000260 18 65 d1 41 08 af c5 41 17 18 8a 41 a9 a4 d5 41
       26.174362 24.710464 17.261763 26.7054
000270 84 92 0d 40 8a ce f9 41 26 c6 90 41 fe a3 c4 41
       2.2120676 31.22585 18.096752 24.580074
000280 97 98 15 40 e3 74 0e c0 b1 87 77 c1 35 07 1c 41
       2.3374383 -2.2258842 -15.470628 9.75176
000290 c4 32 11 41 85 09 17 41 4d 6d 86 40 e9 4d a2 41
       9.074894 9.439824 4.2008424 20.288042
0002a0 8f c2 fe 40 76 67 80 c0 e8 28 fa c0 6d ac 42 c1
       7.96125 -4.0126295 -7.8174934 -12.167096
0002b0 d1 10 fe 40 f0 86 2e c1 89 a4 82 41 f5 ee b6 c0
       7.939553 -10.907944 16.33034 -5.7166696
0002c0 cd ea 96 41 41 9a 4e 41 ee f3 70 41 20 0b 3d c0
       18.864649 12.91266 15.059553 -2.953804
0002d0 f4 e2 e2 c1 6f de 38 41 4c 48 f4 3f d7 ea 8b 3f
       -28.360817 11.554305 1.9084563 1.0931042
0002e0 3e 0d e7 40 26 0c bb c1 e7 02 46 40 64 ad 67 c1
       7.2203665 -23.380932 3.0939271 -14.479832
0002f0 15 45 91 41 b3 8e 23 c1 13 f2 2a 41 de 68 26 c1
       18.158731 -10.222339 10.6841 -10.400602
000300 50 c2 f9 c1 42 39 18 c2 4e 33 27 c1 e1 79 af 41
       -31.21988 -38.055916 -10.450026 21.934511
000310 9f 1f 3e c0 3f ab d4 41 79 41 c5 41 0c d2 84 40
       -2.97068 26.583616 24.65697 4.1506405
000320 4e da f8 bf fd 6a 04 c1 14 a4 b4 40 43 3d 1b c2
       -1.9441621 -8.27612 5.645029 -38.809826
000330 1e 85 8f c1 da d3 f7 c1 14 42 ce c0 73 1d 84 41
       -17.939999 -30.978443 -6.445566 16.51438
000340 28 9b 35 c0 6b 38 80 c1 35 59 1e c1 24 b5 8b 41
       -2.837595 -16.027548 -9.896779 17.463448
000350 24 f6 a9 c1 59 e6 57 41 bc 36 87 3f c9 52 96 41
       -21.245186 13.493737 1.0563579 18.790422
000360 fe b2 e4 bf fe 74 b8 41 a7 91 11 41 12 6d 9c 40
       -1.7867124 23.057125 9.09806 4.8883142
000370 7a 8c 96 41 80 d2 9f bf 1b d5 65 c1 73 4b 99 3f
       18.818592 -1.2486115 -14.364528 1.197615
000380 a8 10 1c c1 b6 0c f9 c1 88 6f 52 c0 f0 44 15 3f
       -9.754066 -31.131207 -3.2880573 0.58308315
000390 f8 34 27 c2 85 d8 70 c0 82 25 94 41 f5 37 2e c1
       -41.801727 -3.7632153 18.518314 -10.888661
0003a0 47 b6 a2 c1 f3 fe 30 41 0c 50 12 c1 7c ec 61 41
       -20.339003 11.062243 -9.144543 14.120235
0003b0 aa a6 56 41 c8 b8 4f 3f 5f 83 2e 41 ed dc 30 41
       13.415689 0.8114133 10.907073 11.053937
0003c0 4a f6 67 c1 6e 8e e4 40 2d 22 7d c1 b8 ad d3 40
       -14.497629 7.1423864 -15.820844 6.614956
0003d0 4a 47 85 41 68 e8 3f 41 8e a0 c3 c1 e2 c7 bc be
       16.65981 11.99424 -24.453396 -0.36871248
0003e0 e6 d2 f9 3f 50 18 cb c1 84 da a5 41 3e ff 6c c1
       1.9517486 -25.386871 20.731697 -14.812315
0003f0 59 59 0d 41 62 ae d6 40 e7 e3 40 41 c4 fe 11 c1
       8.834313 6.708787 12.05564 -9.124699

decoder.0.bias f4 [16]
000000 1b b3 4f 40 02 5c 01 40 35 de fe bf 59 a3 8e c0
       3.2453067 2.0212407 -1.9911562 -4.45744
000010 22 1a fa c1 85 c9 15 40 0e 2f 66 3f b1 71 c7 c1
       -31.26276 2.3404248 0.8991555 -24.930513
000020 c5 84 77 41 f3 fc f3 c1 cb 39 46 c1 cc 43 3d c1
       15.469914 -30.49851 -12.38911 -11.829052
000030 09 a7 ab c1 22 4b f6 3e 49 fa 95 3f e6 9b 6c c1
       -21.45656 0.48104197 1.1717006 -14.788061

decoder.2.weight f4 [1, 16, 3, 3]
000000 b1 89 58 c1 4a a7 b9 c1 44 cd 83 41 b4 56 c7 40
       -13.533616 -23.206684 16.475227 6.229334
000010 33 a7 46 c1 e6 f9 a5 c0 48 02 3a c1 0b 29 9d c1
       -12.41582 -5.186755 -11.625557 -19.64504
000020 6c 04 82 be b4 6f 22 c1 04 9b e9 41 76 c0 b2 c0
       -0.25394 -10.152271 29.200691 -5.585994
000030 0b 6d d6 41 b8 67 b1 c0 6c b0 29 41 5c 5f cc 40
       26.803244 -5.543911 10.605572 6.3866405
000040 90 f8 dc 3f 05 0a 09 c2 81 04 4b 40 aa cd 03 3f
       1.7263355 -34.259785 3.17215 0.51485693
000050 4b 17 86 c1 c5 16 15 41 6b bd 5f c1 7f c5 ae 41
       -16.761374 9.318059 -13.983745 21.846434
000060 37 f4 a6 c1 03 cc 87 c1 5e 37 e8 c0 16 e2 a2 c1
       -20.869246 -16.974615 -7.2567587 -20.360394
000070 f1 ca 10 c1 8a 94 b1 c1 a2 8d 0c 3f 74 a9 c8 c1
       -9.049546 -22.197529 0.54903615 -25.08274
000080 0a 69 c0 c1 f8 f0 36 bf fe ce 6a 41 f1 f2 d0 c1
       -24.051289 -0.7146144 14.675535 -26.118624
000090 81 2a 0b 40 d5 82 10 c2 ef 0a 0d c0 1b b1 ed c1
       2.1744692 -36.127766 -2.2037923 -29.711477
0000a0 c3 80 b8 c0 0c fb a3 c1 10 3d 18 c1 83 5c 24 c2
       -5.765718 -20.497581 -9.514908 -41.090343
0000b0 65 02 a2 41 62 42 01 40 33 3f 2a c0 6e 42 cf 40
       20.25117 2.0196767 -2.6601074 6.476859
0000c0 26 9c 88 c1 b6 9a 88 40 2d 3f 66 c1 4d 55 6f bf
       -17.076244 4.2688856 -14.390424 -0.93489534
0000d0 b6 33 95 40 e6 6d c5 c1 63 30 aa c0 f6 8c e8 c0
       4.6625624 -24.678661 -5.3184066 -7.267207
0000e0 48 5f 31 c1 9a 92 67 c1 8e 8f 85 41 8a 6a 8d c0
       -11.085762 -14.473291 16.695095 -4.4192553
0000f0 c5 d2 a1 41 dd 9d 05 41 c8 1e 97 c1 a4 13 85 c0
       20.227915 8.351041 -18.89003 -4.1586475
000100 a1 29 80 41 fd 7e 5e c1 40 a0 fa 40 10 c5 ea c1
       16.020327 -13.906003 7.832062 -29.346222
000110 b6 fc 91 40 69 29 2a bf db 04 05 41 d8 4e 50 c1
       4.5620985 -0.66469437 8.313685 -13.019249
000120 6a 50 c4 c0 d2 b0 da c1 bc 75 6b 40 0b 0a c8 c0
       -6.134816 -27.336338 3.679061 -6.251226
000130 90 77 67 c1 a3 b4 64 c1 37 af 5c 41 8d f0 62 c1
       -14.46669 -14.294101 13.792777 -14.183728
000140 c8 d9 97 41 79 aa bd c1 c2 14 16 c1 05 32 69 41
       18.981339 -23.708239 -9.380068 14.574712
000150 67 ee a3 c1 b1 7a e5 c1 63 81 42 c1 8f 67 81 bf
       -20.491407 -28.684908 -12.156589 -1.0109729
000160 84 8f 81 c1 a0 aa a5 c1 24 f6 a5 bf c0 c0 ec c0
       -16.195076 -20.708313 -1.2965741 -7.398529
000170 71 e5 0c 42 47 e5 f5 40 98 71 87 41 41 51 dd c0
       35.224064 7.684238 16.930466 -6.9161687
000180 73 3d 29 41 92 d5 93 c1 16 88 9f 3f 70 c6 27 c0
       10.577502 -18.479282 1.2463405 -2.6214867
000190 76 0d a4 3f 50 47 90 c0 dc 9e 8a c0 f8 b4 c9 c0
       1.2816608 -4.508705 -4.331892 -6.303341
0001a0 46 31 43 c0 b5 9a 2c c1 64 8b f1 40 fe ad c4 c1
       -3.0498824 -10.78777 7.5482655 -24.584957
0001b0 bc 22 97 bf e6 4b d0 c0 a2 6f 4b c1 c6 60 3b c1
       -1.1807475 -6.509265 -12.714754 -11.711126
0001c0 ef 06 e2 c1 7f 7d 0a 41 6c 41 f3 c1 28 20 5a c0
       -28.253386 8.655639 -30.406944 -3.4082127
0001d0 0d 43 83 c1 d3 00 e5 40 a3 79 a2 c0 7f 31 a4 41
       -16.40774 7.1563506 -5.077348 20.524168
0001e0 e9 a0 ef c1 e5 c1 cd 40 e5 c2 33 c2 46 f1 c2 41
       -29.95357 6.429919 -44.940327 24.36781
0001f0 85 26 9f c1 21 bb 89 41 e9 c2 19 41 d3 27 1e c0
       -19.893808 17.216372 9.6100855 -2.4711807
000200 2c 9c d5 c0 fd 0d 2c 41 fb d1 6b c1 ef 32 ca c0
       -6.675314 10.753415 -14.738765 -6.3187175
000210 75 86 af 41 99 fa 9a 40 73 5a 50 c1 2f 4f b7 41
       21.940653 4.8430905 -13.022082 22.913664
000220 15 2b a5 c1 31 6e 04 42 34 16 9b c1 59 6b 90 41
       -20.646036 33.10761 -19.385841 18.052416
000230 27 f2 d6 c0 cf 9c d1 be f8 bd 57 41 16 c7 12 42
       -6.7170596 -0.40939948 13.483879 36.69442
